model_stop_loss_cuda.pth (torch, 20223 bytes, 5 tensors)

linear1.weight f4 [25, 151]
00000000: fd87 903d 6ee9 543d 837e be3d 2672 bb3b
00000010: f51d c13d ad87 8abc 9301 503e c7b5 7d3d
00000020: c571 6fbd 7110 9ebd 7b5c 9e3d 7346 bfbd
00000030: 5f01 02bd 5c3b af3d 877b 95bd df3a 703c
00000040: 4faf c9bd e50d 97bc 3218 18bd 09c7 f1bc
00000050: 94c4 a5bc 8937 493d 54e6 1c3c 30fd 8c3d
00000060: ef12 2ebd aeff 983c fef9 8b3d 4275 343d
00000070: cc43 963d c7e3 183c ad07 87bd 374d 44bd
00000080: 5fdc c5bd 3d0c 34be 9158 253d 6ff3 413c
00000090: 4ef2 963c 0482 8d3d 1ffa 063e e513 a33d
000000a0: 1f42 2f3e 833a a83d c148 673d 529d 303d
000000b0: cc4f fb3b 4981 d83d db84 913c cd16 8c3d
000000c0: 6db5 e83d c49d 393e 5da1 063e 3385 c53c
000000d0: 5298 e03d f84a 44bc bb77 2237 cb01 123e
000000e0: c23e c2bc 79ce b73c f1a2 86bd 64ac e7bd
000000f0: 9774 e1bc ae21 30bd 7978 80bc 3d08 2dbd
00000100: eed5 3fbc c00d 09bc b15b 66bd 51d1 94bd
00000110: facf 29bc 375d 563c 0a7e b83d a183 a93d
00000120: f5a0 eb3d f57d 233e 324a bb3c 781a 9dbd
00000130: 1a7c a23d 008b 1f3d cdf9 0e3e fcff dbbd
00000140: d56a 4d3d 660a cfbd c1ab 8ebd 39b2 59bd
00000150: 4a58 4fbd d46e cc3d 91b1 783d 2e84 c13d
00000160: b123 8f3d 6b73 be3d 8d8d 623e cd25 b53d
00000170: 14d8 9e3d 1c55 9ebd 123a df3d 47e4 b83d
00000180: 0d0f 4d3d 0edc ee3d c6f3 e83c eefd 0f3e
00000190: 9668 afbc 0c1e 9cbd cbaa 1e3d 035f b8bc
000001a0: accd cfbc e0a5 21bc 5220 96bd fc3e 323d
000001b0: 18b3 9c3c faa5 a1bc 91ed 84bd 24af a1bd
000001c0: 8656 40bd 8a5c adbc 924a e0bc 8005 353c
000001d0: f258 13bd 0769 ab3c f5f7 81bc 1e98 8a3d
000001e0: 6c39 323d a2dd a8bd 0242 99bd 42cf f13c
000001f0: 3b48 dfbb 9ba5 01bd e838 a3bd 6db5 713d
00000200: 062e 8cbd e961 003d 2e2c 163d 2c7a 5ebd
00000210: d7f6 193a ee76 b8bd a257 a5bb 3875 acbd
00000220: 5ea3 bd3c 1b74 613b 578b aebc 88df a5bb
00000230: 2b7e e4ba 9ecd 1cbd 9a89 ac3c 95f7 513d
00000240: 0a0c 1ebd 6bb6 67bd 3c7a bd3c f13d 8e3d
00000250: f97e 88bc 0610 4a3d 5389 77be bc58 c73c
00000260: 755c eb3b f22b 693d 82ad 823d 5777 5b3c
00000270: 6de2 fe3c d945 8bbd daf1 41bd 1fbb 593d
00000280: 1db8 863c 59d3 b2bd 28be 673d 1906 da3b
00000290: a5f7 6a3d f0b5 a2bd e712 09bd ec7e 993d
000002a0: 48dd 73bd 4ff2 b5bc 5d91 7fbd 8fcd 77bd
000002b0: 5e71 793c 083a 18bd 467f 7fbd fe85 4b3a
000002c0: 192b 93bd 6209 60b8 248c 86bd 71d0 923c
000002d0: 3960 a03c de58 cc3c c0d3 7c3d 536e 9c3c
000002e0: f774 99bd 195e 71bd 06f5 b0bc 2f96 84bc
000002f0: 2d3a 71bd c97d 383d 2108 8ebd 74d4 acbd
00000300: c561 82bd 0c4d 713d e0f9 8d3d f347 d1bb
00000310: 3b59 86bc c096 b2bd 4c7e 6f3d dd6c 45bd
00000320: 9e22 f43c 69f0 663d 5cad 833d 4aef 853d
00000330: bb50 953d 52df 8d3d 3201 8ebc 469b 84bd
00000340: d9be 82bd 6846 13bd 3f1e 233d d3f9 3c3d
00000350: 7aaf 99bd fc9d 943c eb8d 463d 5d6a 7d3d
00000360: fe15 a5ba 956c 8abd cf5c 3f3d ed6b 7cbd
00000370: 035e 44bd d9ce 31bc 3013 d03b 866a 303d
00000380: ff6a 043b 7e77 50bc ebd9 ccbc cdb4 973c
00000390: 94a0 e43c 6b1d 273d 6c80 32bd 8543 87bd
000003a0: e6a4 813d 53d7 09bd ee41 27bd a17d 473d
000003b0: d36c 6a3c 1afa f03c 1be2 75bd f397 193d
000003c0: 5704 fdbc 883f 373d b2ea ab3c 8fe5 503b
000003d0: e3d0 9dbd cbea 94bd 5e52 c23b 6bdb bbbc
000003e0: ed5e 74bd bd1d 873d cd80 a9bd 5071 913d
000003f0: cd6a 12bd 83ea a8bc 99de a33c 108d 97bd
0.07057188 0.05198043 0.09301474 0.0057203947 0.09429542 -0.016910398 0.203131 0.061940935
-0.05845811 -0.0771798 0.07732483 -0.09339609 -0.03173959 0.08556244 -0.072989516 0.014662473
-0.098478906 -0.018439243 -0.03713245 -0.029513853 -0.020235337 0.049125228 0.009576399 0.06884229
-0.042498525 0.018676605 0.068347916 0.04405714 0.0733715 0.00933165 -0.06593261 -0.0479252
-0.09661173 -0.17582794 0.040367667 0.011837824 0.018426087 0.06909564 0.13181351 0.07962779
0.17115067 0.08214285 0.056465868 0.043118782 0.0076694246 0.10571534 0.017763546 0.068402864
0.11362729 0.18126589 0.13147493 0.024111366 0.10966553 -0.011980765 9.683829e-06 0.14258496
-0.023711566 0.022437321 -0.06574047 -0.11312178 -0.027521415 -0.04300087 -0.015682446 -0.042244185
-0.01170872 -0.008365095 -0.056239787 -0.072664864 -0.010364527 0.013083748 0.09008415 0.08277059
0.115053095 0.15966018 0.022862528 -0.07671064 0.07933827 0.03895092 0.13962479 -0.107421845
0.05015071 -0.10109405 -0.06966353 -0.053148482 -0.05062131 0.09982076 0.060716216 0.094490394
0.069892295 0.09299358 0.2212431 0.088451006 0.077560574 -0.07731077 0.10899748 0.090279154
0.05006318 0.11663066 0.028436553 0.1406171 -0.021412175 -0.076229185 0.0387371 -0.022506243
-0.025366627 -0.009866208 -0.07330383 0.043517098 0.019128367 -0.019732464 -0.06490625 -0.078947335
-0.046957515 -0.02116229 -0.027379308 0.011048675 -0.035973497 0.020924104 -0.015865305 0.06767295
0.043511793 -0.08245398 -0.07483293 0.029517774 -0.0068140305 -0.031652074 -0.079698384 0.05901091
-0.06844716 0.031343374 0.036663227 -0.05431573 0.0005873269 -0.09007059 -0.005045847 -0.08420795
0.023149189 0.003440148 -0.021306677 -0.0050620474 -0.001743262 -0.03828203 0.021061707 0.051261503
-0.0385857 -0.05657045 0.023129575 0.06945408 -0.016662108 0.049331687 -0.24173479 0.024334304
0.0071826526 0.056926675 0.0638075 0.013395152 0.031113828 -0.06800432 -0.04734979 0.05315697
0.016445214 -0.087317176 0.05657783 0.006653559 0.05736508 -0.07944858 -0.033465292 0.074949116
-0.059537202 -0.022210268 -0.06239449 -0.06049877 0.015224783 -0.037164718 -0.062377237 0.0007763802
-0.071859546 -5.34145e-05 -0.065696985 0.017921658 0.019577133 0.024944719 0.061725378 0.019095575
-0.074930124 -0.05892763 -0.021601211 -0.016184894 -0.05889337 0.045041833 -0.06935144 -0.0843896
-0.06366304 0.05891137 0.069324255 -0.006386751 -0.01639997 -0.087201595 0.058470055 -0.048199523
0.029801663 0.056381617 0.0642955 0.065397814 0.07290789 0.069273606 -0.017334554 -0.064749286
-0.063840576 -0.035955817 0.039823767 0.04613669 -0.075041726 0.01814174 0.048475187 0.061869014
-0.0012595055 -0.06758992 0.04671937 -0.061626364 -0.04794122 -0.010852539 0.0063499436 0.04307034
0.0020205376 -0.012723802 -0.025006255 0.01851883 0.0279086 0.04079954 -0.043579504 -0.06604675
0.0633028 -0.033652615 -0.04083436 0.048703793 0.014308172 0.029416133 -0.060030084 0.037498426
-0.030885858 0.044738322 0.020985935 0.0031875109 -0.077058576 -0.07271346 0.005930229 -0.022931775
-0.05966084 0.06597469 -0.0827652 0.07101691 -0.035746384 -0.020619636 0.020003604 -0.073999524

linear1.bias f4 [25]
00000000: 709c f13c 06a8 ce3c e15c 7fbd 1882 74bd
00000010: 3792 59bd 2730 c2b9 7c8c d03b dc19 6e3d
00000020: 8c60 84bd 34f0 723d 5fb6 723b 9282 f7bc
00000030: 0385 94bd 5672 e2bc 7c92 643d c0bf 163d
00000040: 1df4 d43b 9150 293d 1051 523c 9665 1abd
00000050: 681b 1c3d 08a9 253d 1bf2 aebc 0003 6fba
00000060: 8338 04bd
0.02949354 0.025226604 -0.062344436 -0.05969438 -0.053117957 -0.0003703844 0.0063644033 0.05813013
-0.06463727 0.059311107 0.0037034971 -0.030213628 -0.072519325 -0.02764241 0.05580376 0.03680396
0.006498827 0.0413366 0.01283671 -0.037694536 0.038112074 0.040444404 -0.02135568 -0.00091175735
-0.032280456

linear2.weight f4 [25, 25]
00000000: cbdf 473e dbdc 2dbd 62c7 cd3d bd18 acbd
00000010: bccf 95bd 6b68 b93d 00b6 b7bd d8ff 3c3e
00000020: 8cb4 643d 7312 233e 36f1 0b3e 10e5 8dbd
00000030: 3261 7e3d ad4d 033e 697f 3ebe 02b8 043e
00000040: fe42 873d 810c 3ebe b449 3abd 3a79 8fbc
00000050: aae4 423e b52b 953c 2216 6c3d 6067 2c3c
00000060: c9fd 5b3b 5304 f5be 0754 123e fd80 30be
00000070: 00fb b33a 22ef 873d 1a3d 1e3e 4a92 2bbe
00000080: 25b4 48be 5094 ca3c 9b09 1e3e 5765 91bd
00000090: cc07 123d 3210 e43d 90c0 24be a945 b13e
000000a0: 958c 58bd 0130 043e 22f2 a13d 2521 253e
000000b0: 835e c9bd 1d37 96be d900 233e 9409 7fbd
000000c0: c82d 34be d81a e0bc 606e 0ebd 9174 913d
000000d0: 7b86 3a3e e152 b23d 6b6c 653d df94 bb3d
000000e0: f4a5 90bd 73ec a0bb 80ef 55bc d567 47be
000000f0: ce5a d0bc 659b 59bc b919 9d3d a614 803d
00000100: e7a1 ef3d 78ad 263e 636f 1d3e 9458 82bc
00000110: 5fea 163e f151 b5bd 2d37 283e 6677 2dbd
00000120: 14fe 873d 0004 3abe 7d3b 1c3e 7ed3 c8be
00000130: 0042 c3bd 625d d43d 6be3 46be 80ca 853a
00000140: 3cee aa3d 940f 75bd 6a05 a03d 3b69 423e
00000150: 0b30 15be 416c 2b3e eabe c83d edf5 edbd
00000160: 5a50 51be 750f 353e 6b21 8cbc aef2 60be
00000170: d20f ff3d 0dec 363e b2f2 ca3d e5cd 60bf
00000180: c957 c73d 6cee 84bd b8a6 3cbd 3a04 b9bd
00000190: 0232 403e 5513 44be 31cb 093e 785f 3fbe
000001a0: 558a 0d3e cfbd 21be 053f 20bc 0130 193e
000001b0: 642c 82bd 703f a2bc f67d 303e a729 94bd
000001c0: 003b dabb 0f1d 153c c477 b53d d03e 34be
000001d0: d2ab 2d3e 257b ad3d 5aa0 a0bd c0e9 613d
000001e0: b498 953d 1f20 28be ec58 05be 4009 5f3b
000001f0: 005a 0cbe 119d d93c 6542 833d 098a 0b3e
00000200: eb12 57bd 682b 1fbe c5f7 f33d ffe8 f0bc
00000210: ac01 833d cac7 f2bd c2bb 4bbe 7c20 413c
00000220: e565 42be fa2a 41bd 924a f9bc 9ad1 3b3e
00000230: 9726 c73d ee3d 903d ddb5 5cbd 6e2d ef3d
00000240: 2ef1 27be 663e 0bbe 161e 343e 0daf 41be
00000250: 4220 b43d 4a1c cbbd b8ef 32be 40da cbbd
00000260: 2a1c a63d 02d6 4e3d 60a4 37be 514f 5fbc
00000270: feed cfbd 8b63 26be 18be c9bc a0b7 46bd
00000280: 39e5 1e3e 582c aabd 9321 403d 73e0 503e
00000290: dc75 2bbd d197 12be 7008 793c 759e 453e
000002a0: 47f9 c9bd 2c3d 683d b942 32bd 8985 f2bc
000002b0: f5e4 6d3b f378 1f3e 186d fa3d 9d13 673e
000002c0: 1510 2dbd 65fa 4abe 3fb2 babd cfd0 45be
000002d0: 3eb2 c7bc 1ea2 78bd 7bbc 2abe a0c5 33be
000002e0: de4e e13d fbdb 30ba 1d14 793b e9c6 41be
000002f0: 44f3 20be a600 f6bd 2fe8 6e3d 6476 0d3e
00000300: f0eb d03d c6b0 e63d 55a6 c7bc 6b98 123d
00000310: 39de 44bb b192 aebd 8d97 3c3e 37fd 503e
00000320: 4d9d b4bd e827 78bd bd4a 013e 0ad1 3ebe
00000330: 95af 12be c1df 18be 4a80 1c3e 4b38 84bd
00000340: 007a c1bc a071 0ebe d0ca 7f3e 22be 1a3d
00000350: f635 683d 3bcd 03be 9191 2a3e d383 d13c
00000360: 323c 9c3d 3e62 debd e940 123e 2d6e e5bd
00000370: b6c4 9ebe c2e5 2e3e a92a 253e af28 183e
00000380: 03b1 ba3d 3efc 613d f177 b6bd bac9 bf3d
00000390: b30f 8bbd 465a dc3c f392 193e 4630 4a3e
000003a0: ec89 5cbd c4ff 5e3d 92b8 ee3d f36e 803c
000003b0: 570d 6d3d caf4 403e cfac f03d 114a 3d3e
000003c0: a6d2 af3c 81c8 593c 0094 afbd 5a94 2dbe
000003d0: 2c88 a1bd 3edc a73c 2a97 703d aa1e ebbd
000003e0: a9b4 053e 5e5a 2dbd 14da fdbd aa68 2d3e
000003f0: f659 a63d 9c23 573d bb6f 753d 7570 013e
0.19518964 -0.042446952 0.10047795 -0.08403156 -0.07315013 0.09053119 -0.089702606 0.18456972
0.055836245 0.15925007 0.13666233 -0.06928456 0.06210441 0.128226 -0.1860329 0.12960818
0.066045746 -0.18559457 -0.045480445 -0.01751386 0.19032541 0.018209318 0.057638295 0.010522693
0.0033568016 -0.47854862 0.14289866 -0.17236705 0.001373142 0.06637408 0.15452996 -0.16755024
-0.1959997 0.024728924 0.15433352 -0.07099407 0.035651967 0.111359015 -0.16089082 0.3462346
-0.052868444 0.12908937 0.07907511 0.16125925 -0.0983248 -0.29338923 0.15918292 -0.062264994
-0.17595589 -0.02735655 -0.03477323 0.071023114 0.18215363 0.08707214 0.0560116 0.09159254
-0.07062903 -0.0049109994 -0.0130575895 -0.19473203 -0.025433924 -0.013281678 0.07670922 0.062539384
0.11700802 0.1627711 0.15374522 -0.015911378 0.14737843 -0.0885352 0.16427298 -0.042350195
0.066402584 -0.18165588 0.15257068 -0.39223856 -0.09534073 0.10369374 -0.1942269 0.0010207444
0.08346221 -0.05982931 0.07813533 0.18985455 -0.14569108 0.16740514 0.09802039 -0.11619172
-0.20440808 0.17681678 -0.017105779 -0.21967575 0.12454189 0.17863484 0.09909572 -0.8781417
0.097335406 -0.06490788 -0.046057433 -0.09034009 0.18769076 -0.19148 0.13456418 -0.18688762
0.138223 -0.15795062 -0.00978065 0.14959718 -0.06356123 -0.01980564 0.1723555 -0.07234507
-0.0066598654 0.009101166 0.08860734 -0.17602086 0.16960075 0.084707536 -0.07843085 0.055154562
0.073045164 -0.16418503 -0.13022202 0.0034032613 -0.13706207 0.026564153 0.06409148 0.13626875
-0.052508276 -0.15543902 0.11912493 -0.029407976 0.06396803 -0.11854513 -0.19895843 0.01178753
-0.18984182 -0.047160126 -0.030431066 0.18341675 0.09724157 0.07043062 -0.053884376 0.11678587
-0.16400596 -0.13598022 0.17589602 -0.18914433 0.08795215 -0.09917505 -0.17474258 -0.09953737
0.081108406 0.050497063 -0.17933798 -0.01362975 -0.10152815 -0.1624891 -0.024626777 -0.048514962
0.15517129 -0.08309239 0.04690702 0.2039812 -0.041860446 -0.14315726 0.015199766 0.19298728
-0.09861999 0.056698963 -0.043520663 -0.02960469 0.00362998 0.15573482 0.12227839 0.22566076
-0.042251665 -0.1982208 -0.09116029 -0.19317935 -0.024376985 -0.060701482 -0.16673462 -0.17555857
0.11001371 -0.0006746647 0.0038006373 -0.18923534 -0.15717798 -0.120118424 0.058326896 0.13814694
0.102012515 0.112641856 -0.024371305 0.03578989 -0.0030039682 -0.08524073 0.18417187 0.20409094
-0.08819065 -0.060584933 0.12626167 -0.1863443 -0.14324792 -0.14929105 0.15283313 -0.064560495
-0.023617744 -0.13910532 0.2497971 0.03777898 0.056692086 -0.12871258 0.16657092 0.025575554
0.07628669 -0.10858582 0.14282574 -0.11202655 -0.31009454 0.17079833 0.16129555 0.1485927
0.091157936 0.055172198 -0.08909596 0.09364648 -0.06790104 0.026898514 0.14997463 0.19744977
-0.05384247 0.054443136 0.11656298 0.015677905 0.05787405 0.1884338 0.117517106 0.18485285
0.02146275 0.013292433 -0.08573151 -0.16951123 -0.07887301 0.020490762 0.05873791 -0.11480458
0.13057198 -0.04232251 -0.12395111 0.16934457 0.081226274 0.052524194 0.059921008 0.12640555

linear2.bias f4 [25]
00000000: f64e 7a3d b663 abbd b31b dabc f0e1 1ebd
00000010: fd7a 073e 3515 063e ec9e 1cbd ebae 943d
00000020: 6a25 55be 7d89 773e 09b0 2f3e 4c28 2ebe
00000030: 260b df3d 47f4 ccbd c746 52be e067 86bd
00000040: 3004 d0bd 078d 873d 43d4 1e3e d630 783d
00000050: 77f4 e33d 7e33 24be a5fb 4dbe 2e37 d23d
00000060: 0531 da3c
0.06111046 -0.08368628 -0.026624536 -0.03878969 0.1323051 0.13094027 -0.038237497 0.072599255
-0.20815054 0.24173541 0.17156996 -0.1700756 0.10890798 -0.1000753 -0.20534812 -0.06562781
-0.10157049 0.06618696 0.15510659 0.06059345 0.11130612 -0.16035268 -0.20115526 0.10264431
0.026634702

linear3.weight f4 [1, 25]
00000000: 1a4f 603e 0756 d5be ab2f b13d 6801 353f
00000010: a613 613e 8296 443e ed36 4e3c 92d8 463e
00000020: 944a c0be 952d 513e 4659 0abf a913 1fbb
00000030: 5cb7 0e3e 0d67 583e 566d 24bf d18e 3e3e
00000040: c2f7 18bc 7d8e fdbe e7b3 fa3d 0b93 6e3e
00000050: d36a 973d 28bc 173d bf89 d03d b331 143e
00000060: 0aed 04be
0.21905175 -0.41667196 0.0865167 0.7070527 0.21980152 0.19198039 0.0125863375 0.19418553
-0.375569 0.20427544 -0.5404247 -0.0024273193 0.13937134 0.21133061 -0.64229333 0.18609168
-0.009336414 -0.49522772 0.12241345 0.2329828 0.07393422 0.037044674 0.10182523 0.14472084
-0.12981048
