model_take_profit_cpu.pth (torch, 20167 bytes, 5 tensors)

linear1.weight f4 [25, 151]
0	0x3d566f9e	0.05235254
1	0x3d63e420	0.05563748
2	0x3bad5554	0.005289713
3	0x3d96d9c5	0.07365755
4	0xbd02095c	-0.031747207
5	0xbd45eae0	-0.048319697
6	0x3b1b04b4	0.0023653926
7	0x3be44bb2	0.0069670314
8	0xbb2acb16	-0.002606099
9	0x3ba2a840	0.0049639046
10	0xbda84507	-0.08216291
11	0xbc528001	-0.012847901
12	0xbd93e7b3	-0.072219275
13	0xbd815fee	-0.06317125
14	0x3c10c751	0.008836583
15	0xbd49442b	-0.049137276
16	0x3c6e5e48	0.014548846
17	0x3c9f5cb9	0.019453393
18	0x3d3dcbe2	0.046337016
19	0xbd03c8cb	-0.032173913
20	0x3ccfabeb	0.025350532
21	0xbc7596bd	-0.014989552
22	0xbd1be262	-0.038057692
23	0x3cfb0d37	0.03064595
24	0xbd8c1bd5	-0.06841246
25	0xbcadd13d	-0.021217937
26	0x3d8e804c	0.069580644
27	0x3ba8c08f	0.005149908
28	0x3cab3712	0.020900283
29	0x3ca06d9f	0.019583521
30	0xbd5d3226	-0.054002903
31	0xbd31497b	-0.043282967
32	0x3ba76f4b	0.0051097027
33	0x3d84d385	0.06485657
34	0x3d82edf9	0.06393046
35	0x3be0b005	0.0068569207
36	0xbd1dc2aa	-0.038515724
37	0xbd768c50	-0.060192406
38	0x3cc7460c	0.024325393
39	0xbd97987e	-0.074021325
40	0xbc95874c	-0.018252991
41	0xbc41fbc0	-0.011839807
42	0x3d87dc88	0.0663386
43	0xbdac366f	-0.0840882
44	0xbcc40195	-0.023926536
45	0xbc3cd398	-0.011525057
46	0x3cfeb1aa	0.031090576
47	0xbd837f8e	-0.064208135
48	0x3d05f298	0.03270206
49	0xbd50e429	-0.05099884
50	0x3d6837bd	0.05669378
51	0xbd13e98d	-0.036111403
52	0xbc961d0e	-0.018324401
53	0xbc8e7ece	-0.01739445
54	0xbce6a27d	-0.028153652
55	0xbd2d8b48	-0.042369157
56	0x3c26e211	0.010185734
57	0xbdb10832	-0.08644141
58	0xbda19cc8	-0.07891232
59	0xbbf84d62	-0.007577584
60	0xbd904418	-0.07044238
61	0xbd382145	-0.044953603
62	0x3b8811cf	0.0041525136
63	0x3d6811e4	0.056657687
64	0xbd0786d3	-0.033087563
65	0xbdaf700d	-0.08566294
66	0x3c51598d	0.012777698
67	0x3cb8fe9b	0.022582343
68	0x3c1f96a7	0.009740508
69	0x3d90df72	0.07073869
70	0x3d6d6a6f	0.05796283
71	0x3d355fd0	0.044280827
72	0x3bf01dd5	0.007327775
73	0x3d4753ef	0.04866403
74	0xbdaebc8a	-0.08532055
75	0xbd7fb91c	-0.062432393
76	0xbaaaa883	-0.0013020191
77	0xbc4378d0	-0.011930659
78	0x3c6f83ac	0.014618795
79	0xbb9dfc51	-0.004821338
80	0xbd8cceb1	-0.06875361
81	0xbd66d69f	-0.056357022
82	0xbd145cde	-0.036221378
83	0x3bbfb41e	0.005850329
84	0xbd06fadb	-0.03295408
85	0xbd2e3779	-0.04253337
86	0x3d938e09	0.072048254
87	0x3ca6f4cb	0.020380398
88	0xbd5e1e14	-0.054227903
89	0x3b40a5b7	0.0029395649
90	0xbd220898	-0.039558977
91	0x3c74aebc	0.014934238
92	0xbca09d12	-0.019606147
93	0xbbd1968b	-0.00639612
94	0xbd9fe153	-0.07806649
95	0xbd00165a	-0.031271316
96	0xbd51f04e	-0.051254563
97	0x3d0de38a	0.034640826
98	0xbd8c683b	-0.06855818
99	0xbd61ac09	-0.055095706
100	0x3d3d01cd	0.046144295
101	0xbd4005d7	-0.04688057
102	0x3b832564	0.00400226
103	0x3d686d4d	0.056744862
104	0x386fc04d	5.7161134e-05
105	0xbd93c71a	-0.0721571
106	0xbce8dbd3	-0.028425133
107	0xbd7c04c2	-0.061527975
108	0xbc9212c1	-0.017831208
109	0x3d2d6bef	0.04233926
110	0x3d83e002	0.064392105
111	0xbd87db53	-0.0663363
112	0xbd9ccc36	-0.07656138
113	0x3d815cf7	0.0631656
114	0x3c7231af	0.014782353
115	0xbd6db727	-0.058035996
116	0x3b580618	0.0032962617
117	0xbd59a505	-0.05313589
118	0xbdaccab4	-0.084371
119	0x3d7f567a	0.06233833
120	0xbd1bdb23	-0.038050782
121	0x3cb93c35	0.022611717
122	0xbcac4e29	-0.021033363
123	0xbd16ef5e	-0.036849372
124	0x3d81925a	0.063267425
125	0x3c405f67	0.011741496
126	0xbd09d61e	-0.033651464
127	0x3d754e4d	0.059889127
128	0x3d9952b6	0.07486479
129	0xbc952fe9	-0.018211322
130	0xbaa716dd	-0.0012747903
131	0x3d40e757	0.047095623
132	0x3d7d4b0a	0.06183914
133	0xbd8835fb	-0.06650921
134	0x3ca5c715	0.020236531
135	0x3c4c8d7c	0.012484904
136	0xbc95211f	-0.01820427
137	0x3cf2c7e6	0.029636335
138	0xbcaf48ac	-0.021396957
139	0x3d74a08e	0.05972343
140	0xbb25aeba	-0.0025281147
141	0xbc390610	-0.011292949
142	0x3d1931dd	0.03740107
143	0xbd9b1765	-0.075728215
144	0x3d917feb	0.071044765
145	0x3d7c70a2	0.061630853
146	0xbda03f5a	-0.07824583
147	0xbc5b68b7	-0.013391665
148	0xbc1713a1	-0.0092209885
149	0xbcf1a95b	-0.0294997
150	0x3c2db5e1	0.010602445
151	0xbd8cde65	-0.06878356
152	0xbd792197	-0.06082305
153	0xbd75e22e	-0.060030155
154	0xbd9d9314	-0.076940686
155	0x3d2d5c8d	0.04232459
156	0xbd7d3db7	-0.061826434
157	0x3c634481	0.013871313
158	0xbdaca8d0	-0.08430636
159	0xbca8c6ad	-0.020602548
160	0xbd9867d4	-0.07441679
161	0xbcab16c2	-0.020884875
162	0xbc0cfa20	-0.008604556
163	0x3d837fab	0.06420835
164	0x3c432f0f	0.011913075
165	0xbd8cc9cc	-0.06874427
166	0xbd34fc04	-0.044185653
167	0x3d2ce9c7	0.042215135
168	0xbdb64b3c	-0.089010686
169	0xbb1883f6	-0.0023272014
170	0x3d1cf198	0.03831634
171	0x3d91c996	0.071185276
172	0x3d62842c	0.05530183
173	0x3844113c	4.6746092e-05
174	0x3ccd7744	0.025081284
175	0xbbf1d349	-0.0073799235
176	0xbd937359	-0.07199735
177	0x3cfde9c4	0.030995257
178	0x3c2e7c0f	0.010649695
179	0x3d922624	0.07136181
180	0xbcbd81f3	-0.023133254
181	0xbccdf4d6	-0.025141161
182	0xbd994d9a	-0.074855044
183	0x3d8f2ab7	0.06990569
184	0x3d4fd5cd	0.050741006
185	0x3c0bb118	0.008526109
186	0x3add0dde	0.0016865095
187	0x3c8d7a8c	0.017270349
188	0xbcd5da86	-0.026105177
189	0x3cbe30b9	0.023216592
190	0xbdb1653d	-0.08661888
191	0xbcc867e2	-0.024463598
192	0x3c7632dd	0.015026775
193	0xbd851104	-0.06497386
194	0x3d7480fe	0.05969333
195	0xbbc34fc8	-0.0059604384
196	0xbd9270e2	-0.07150437
197	0x3cd8d158	0.02646701
198	0x3cd27907	0.025692476
199	0xbd9aeb13	-0.07564368
200	0xbdad1fbd	-0.08453319
201	0x3ce8334a	0.028344769
202	0x3ce70da9	0.028204756
203	0x3ce90c77	0.028448327
204	0x3d328083	0.04357959
205	0x38d48f44	0.00010135633
206	0xbd5b2d7c	-0.053510174
207	0xbd1a6891	-0.03769738
208	0x3d79a9c2	0.06095291
209	0xbd05d0d9	-0.032669876
210	0xbd9a0fc4	-0.07522538
211	0xbc5d16b2	-0.0134941805
212	0xbcb76e0f	-0.022391347
213	0x3cc1d767	0.023662282
214	0xbce65f38	-0.028121576
215	0xbd3324ba	-0.043736197
216	0x3ccc90e1	0.024971427
217	0x3cfc6221	0.03080851
218	0xbd8e4b53	-0.06947961
219	0x3d53caf3	0.05170722
220	0xbd368429	-0.04455963
221	0xbc8a5277	-0.016885025
222	0xbc771314	-0.015080232
223	0xbc15d82e	-0.00914578
224	0xbd802c9b	-0.06258508
225	0xbd1328d6	-0.035927616
226	0x3d439535	0.047749717
227	0x3ce768e3	0.028248256
228	0xbd125273	-0.03572316
229	0x3c732c92	0.014842169
230	0x3a65ecdf	0.0008770953
231	0x3d83bfb6	0.0643305
232	0x3d1e8d61	0.03870905
233	0x3989a1ca	0.00026251219
234	0x3cf96fa6	0.030448746
235	0xbd9dc823	-0.07704189
236	0x3ca5266c	0.020159923
237	0x3cbd1d06	0.023085129
238	0x3d8f7ae2	0.0700586
239	0xbd27dbd2	-0.04098112
240	0xbcd108d0	-0.025516897
241	0xbda29d7c	-0.07940194
242	0xbd4521d0	-0.04812795
243	0x3b69e23a	0.003568782
244	0xbb9735c3	-0.004614563
245	0x3d7886cd	0.06067543
246	0x3c409707	0.011754758
247	0xbd92ac83	-0.0716181
248	0xbda3c445	-0.0799642
249	0xbd2d7d54	-0.04235585
250	0xbd9df552	-0.07712807
251	0xbd48c638	-0.04901716
252	0xbd32bd0a	-0.043637313
253	0x3d36c4ac	0.044621155
254	0xbcdf212b	-0.027237495
255	0xbb87c3fe	-0.004143237

linear1.bias f4 [25]
0	0x3abb0ddc	0.0014271098
1	0x3d02e728	0.03195873
2	0xbd35c637	-0.044378486
3	0xb97d7b2c	-0.00024173845
4	0x3d4b579d	0.0496441
5	0xbdb48579	-0.088145204
6	0xbde3d846	-0.11125235
7	0xbc895029	-0.016761856
8	0xbd7c7cc7	-0.061642434
9	0xbd80a671	-0.06281746
10	0xbd639ec6	-0.05557134
11	0xbacd6e80	-0.001567319
12	0x3c85f29c	0.016351037
13	0xbc484d60	-0.012225479
14	0x3d7f40fb	0.06231783
15	0xbce1e3bd	-0.027574414
16	0x3d9c65f7	0.07636636
17	0x3a015584	0.00049337023
18	0x3c72a47a	0.014809722
19	0x3c23fc7f	0.01000893
20	0x3b9aed37	0.0047279852
21	0x3d0e249b	0.03470288
22	0xbd21c2c8	-0.0394924
23	0xbd92eca5	-0.071740426
24	0x3d55d7dc	0.052207813

linear2.weight f4 [25, 25]
0	0xbdd902b6	-0.1059622
1	0x3720edb9	9.592092e-06
2	0xbd553dee	-0.052061014
3	0x3d231da3	0.039823186
4	0x3d496ad4	0.049174145
5	0x3e407f62	0.18798593
6	0x3d93a4d2	0.07209171
7	0x3e54c550	0.20778394
8	0x3e058695	0.1303962
9	0x3d7b0de4	0.061292544
10	0x3d4b52a0	0.049639344
11	0x3bcece00	0.006311178
12	0x3dd2f44e	0.10300504
13	0x3d5985b4	0.053106025
14	0x3d4ec573	0.05048127
15	0x3e470b65	0.1943794
16	0x3cd77edc	0.026305608
17	0x3da55355	0.08072535
18	0x3e2c8258	0.16846597
19	0xbdee020a	-0.11621483
20	0x3e39fecc	0.18163604
21	0xbc8bf0ea	-0.01708265
22	0x3d4cc761	0.04999483
23	0xbe0aff2e	-0.13573906
24	0x3e055647	0.13021193
25	0xbd7839a0	-0.06060183
26	0xbdff4c20	-0.124656916
27	0xbdece45d	-0.11566994
28	0x3df18462	0.11792828
29	0xbd04f4d4	-0.03246005
30	0xbe06624a	-0.13123432
31	0xbdbf80c0	-0.09350729
32	0xbca46328	-0.020066813
33	0x3cb5d150	0.022194535
34	0x3d15a954	0.036538437
35	0xbe334dd0	-0.17510152
36	0xbd3e4b14	-0.04645832
37	0x3e3328e3	0.17496066
38	0xbdf50d17	-0.11965387
39	0x3e4b43f9	0.19850148
40	0xbe3a88a8	-0.18216193
41	0x3d8ed5f2	0.069744006
42	0x3e00a6fb	0.12563698
43	0xbe282802	-0.16421512
44	0xbcd21ec0	-0.025649428
45	0x3db78876	0.08961575
46	0xbcc170f0	-0.023613423
47	0xbe33f080	-0.17572212
48	0xbd064c48	-0.03278759
49	0xbd3887d4	-0.04505141
50	0x3e330dff	0.17485808
51	0x3e489e22	0.19591573
52	0xbce7b776	-0.028285723
53	0x3e24edbe	0.16106316
54	0x3d9b477a	0.075819924
55	0x3e70a3be	0.23499963
56	0x3bf95e23	0.007610099
57	0xbaa8e649	-0.0012886013
58	0x3d8dca42	0.06923343
59	0xbdcade63	-0.09905698
60	0x3b6be863	0.0035996668
61	0xbd36b020	-0.04460156
62	0xbd024ac8	-0.0318096
63	0x3df18cc2	0.117944255
64	0xbdb4e7ef	-0.088333
65	0x3e2f8ea3	0.17144255
66	0xbc79de52	-0.015250759
67	0xbe1cdd17	-0.15318714
68	0x3e37062a	0.17873445
69	0x3e0d3dd9	0.13793124
70	0x3d9a7608	0.07542044
71	0x3e424a22	0.18973592
72	0xbc212750	-0.009836033
73	0x3ded8e02	0.115993515
74	0x3e0737a5	0.1320482
75	0x3de830d4	0.11337438
76	0x3e269599	0.16268004
77	0x3b99425e	0.004677101
78	0x3e1b7542	0.15181449
79	0x3cf60a20	0.030034125
80	0xbe71100a	-0.23541275
81	0x3d75ed0a	0.06004051
82	0xbcc22213	-0.023697888
83	0xbe2dfaf2	-0.1699026
84	0xbd7384f8	-0.05945298
85	0xbcbe6839	-0.023243057
86	0x3ba4e440	0.0050320923
87	0x3e39471a	0.1809353
88	0xbdfce59d	-0.12348483
89	0xbdd6d154	-0.10489145
90	0xbdef21b3	-0.116763495
91	0x3d1b0d40	0.037854433
92	0xbe539fae	-0.20666382
93	0x3e2b4b0e	0.1672785
94	0xbbd03e60	-0.006355092
95	0x3d8f0768	0.069838345
96	0xbe137645	-0.14400585
97	0xbde93db6	-0.113887236
98	0xbc27cf50	-0.010242298
99	0xbd1696c0	-0.03676486
100	0xbd8e82c4	-0.06958535
101	0xbca2980e	-0.019847896
102	0x3e3266a0	0.17421961
103	0xbc1bbdb5	-0.009505679
104	0x3b992499	0.0046735522
105	0x3c614dd2	0.013751464
106	0xbe21c57a	-0.15797988
107	0x3e3a1569	0.1817223
108	0x3d971f86	0.073790595
109	0xbe1b5d2a	-0.15172258
110	0x3dc2db3b	0.09514471
111	0x3de2eef6	0.110807344
112	0x3e252149	0.16125979
113	0x3d9a2286	0.07526116
114	0x3e2ddc4f	0.16978572
115	0xbdd07225	-0.10178021
116	0xbe61b79d	-0.22042699
117	0xbe29c7e3	-0.16580157
118	0xbdd2f599	-0.1030075
119	0xbdc34aba	-0.09535737
120	0xbd508e12	-0.05091674
121	0xbdca6d6d	-0.098841526
122	0x3e460a3d	0.19339843
123	0x3db2fde6	0.087398335
124	0x3bf71260	0.0075400323
125	0x3cb9f24a	0.02269854
126	0x3cfdaf23	0.0309673
127	0x3df70854	0.12062135
128	0x3e242d3b	0.16032879
129	0x3e383a26	0.17990932
130	0xbdf4f2d9	-0.11960382
131	0xbd8b8396	-0.068122074
132	0x3deb90ec	0.11502251
133	0x3e481c11	0.19541956
134	0xbce662d0	-0.02812329
135	0x3d7db956	0.06194433
136	0xbe36431d	-0.17799039
137	0xbdc9c86d	-0.09852681
138	0x3dcff2a2	0.101537004
139	0x3dce46dc	0.10072109
140	0x3db507e6	0.08839397
141	0x3df944a1	0.12171293
142	0xbd7e8bee	-0.062145166
143	0x3d96baea	0.0735987
144	0xbe28eb22	-0.16495946
145	0x3e82c642	0.25541884
146	0xbd57d29c	-0.052691087
147	0xbd89850c	-0.0671483
148	0xbe35ad7a	-0.17741957
149	0x3d5408bc	0.051766142
150	0xbdf7502a	-0.12075837
151	0x3d7acc1c	0.06122981
152	0x3dfd56bf	0.12370061
153	0x3d07a12b	0.033112686
154	0x3d3a4ce0	0.04548347
155	0x3e500c8f	0.2031729
156	0x3d4b3bae	0.04961746
157	0x3e49ef8d	0.19720288
158	0x3df6ad72	0.12044801
159	0xbe0a7efa	-0.13525
160	0xbda0f444	-0.0785909
161	0xbd102f6c	-0.035201475
162	0x3d1eedec	0.03880112
163	0x3e31edb3	0.17375831
164	0x3e193b01	0.14963914
165	0xbd3a9f8a	-0.045562305
166	0x3e258d93	0.16167288
167	0xbe1b8325	-0.15186746
168	0x3e0a5629	0.1350943
169	0x3d6fe7d4	0.058570698
170	0x3e4aaa66	0.19791564
171	0x3e406d21	0.1879163
172	0x3e2aaac1	0.166667
173	0x3d6cc584	0.057805553
174	0x3c3036e0	0.010755271
175	0x3e29018a	0.16504493
176	0x3c78a30d	0.015175593
177	0x3e12ef56	0.14349112
178	0xbe461ba5	-0.19346483
179	0xbd26febd	-0.04077028
180	0xbe18ee2a	-0.14934602
181	0xbddd9fd7	-0.10821503
182	0xbc0b44bd	-0.008500275
183	0xbe045342	-0.12922385
184	0xbdff80cd	-0.12475739
185	0x3e087c0f	0.13328575
186	0xbd8285da	-0.063731864
187	0x3da380c3	0.07983544
188	0x3e452af9	0.19254674
189	0x3e258e2a	0.16167513
190	0xbe559165	-0.20856245
191	0xbecc27db	-0.39874157
192	0xbdb29494	-0.08719745
193	0x3d83b0ca	0.06430204
194	0x3e3030d5	0.17206128
195	0xbd273f86	-0.040832065
196	0x3e058a0e	0.13040945
197	0x3d008c69	0.031383906
198	0xbd9f7e33	-0.077877425
199	0x3e2d11df	0.16901349
200	0xbc011802	-0.007879259
201	0xbda7ff15	-0.0820295
202	0x3e393e1f	0.18090104
203	0x3e5b0b7a	0.21391097
204	0x3d843cf9	0.06456942
205	0x3d92a89d	0.07161067
206	0xbe3df0bf	-0.18548869
207	0x3e6c67d1	0.23086478
208	0xbd6e82a8	-0.058230072
209	0xbd7240ac	-0.059143707
210	0x3d543b81	0.05181456
211	0x3d8718b6	0.0659651
212	0xbb744b50	-0.0037276335
213	0xbd3ca074	-0.046051458
214	0xbda18b36	-0.078878805
215	0x3cc91f16	0.024550956
216	0x3d4adc3b	0.049526434
217	0xbdcfa925	-0.10139684
218	0xbdb2375e	-0.08701967
219	0xbd07c09a	-0.033142664
220	0x3e156d70	0.14592528
221	0xbe0c8655	-0.13723119
222	0xbca3e951	-0.020008715
223	0xbdfa679b	-0.122267924
224	0xbe2edf0d	-0.17077275
225	0xbdb088da	-0.08619852
226	0xbdc3944d	-0.095497705
227	0x3db19510	0.086710095
228	0x3e66025d	0.22461839
229	0xbdb18278	-0.08667463
230	0x3d3c5824	0.045982495
231	0xbd824d10	-0.06362355
232	0xbec81065	-0.39075008
233	0xbd7d0854	-0.06177552
234	0x3d9cd152	0.07657112
235	0xbe27542c	-0.16340703
236	0x3d3f68a8	0.046730667
237	0xbcc40abd	-0.023930902
238	0x3d6741c4	0.056459203
239	0xbbd3fba0	-0.006469205
240	0xbdba20e8	-0.090883076
241	0x3e2304e8	0.1591984
242	0x3df4f709	0.11961181
243	0x3ce6c7c0	0.02817142
244	0x3d06536c	0.0327944
245	0x3d9255ca	0.07145269
246	0xbdb153d3	-0.08658566
247	0x3e3d85ef	0.18508123
248	0xbdcfac7d	-0.101403214
249	0x3de41e8e	0.1113864
250	0x3d8cf04e	0.06881772
251	0x3da5a3ae	0.0808786
252	0x3e5a586d	0.21322794
253	0xbe0beeb3	-0.13665275
254	0xbdbd5228	-0.09244186
255	0x3d8b831f	0.06812119

linear2.bias f4 [25]
0	0xbe0e0748	-0.13869965
1	0xbd4cce2c	-0.05000131
2	0xbe17cd3c	-0.14824384
3	0xbd411afe	-0.047144882
4	0xbe3fb42c	-0.18721074
5	0x3e3c2ad6	0.18375716
6	0xbe299a1f	-0.16562699
7	0xbb1fc5cd	-0.0024379373
8	0x3dda24bd	0.106515385
9	0x3e0b21cd	0.13587113
10	0xbda27e74	-0.07934275
11	0xbe16b993	-0.14719228
12	0x3dc06dca	0.093959406
13	0x3d38bc07	0.04510119
14	0x3e04e925	0.12979563
15	0x3e18e61b	0.14931528
16	0x3dfa2488	0.12213999
17	0xbdbbc9b4	-0.09169331
18	0x3db0ff40	0.08642435
19	0x3d87a89e	0.06623958
20	0xbd30fbdf	-0.043208953
21	0xbe30ca71	-0.17264725
22	0xbe18540e	-0.14875814
23	0xbb3d3258	-0.0028869119
24	0x3e4848c7	0.19559012

linear3.weight f4 [1, 25]
0	0x3cd4602b	0.025924763
1	0xbd7be834	-0.061500743
2	0x3e4b1629	0.19832672
3	0xbdac27ef	-0.08406054
4	0xbe4a69d3	-0.19766931
5	0x3e0567e0	0.13027906
6	0x3e8f0b2b	0.27938208
7	0xbe8ce3d6	-0.27517575
8	0x3e420ec4	0.18950945
9	0x3eade187	0.33961126
10	0x3ec1004a	0.37695533
11	0xbe1d2c06	-0.15348825
12	0xbe4a8090	-0.19775605
13	0x3d8f76f3	0.0700511
14	0xbdfa5646	-0.122234866
15	0x3dfa9122	0.12234713
16	0x3e31fdb1	0.17381932
17	0xbf02e6ce	-0.5113343
18	0xbe95bc89	-0.29245403
19	0xbbb67c4c	-0.0055690166
20	0xbe2e21a7	-0.17005025
21	0x3d2b3364	0.041797057
22	0x3dcc7e46	0.09985022
23	0xbe22d502	-0.15901569
24	0xbecb5499	-0.3971298
