model_take_profit_cuda.pth (torch, 20303 bytes, 5 tensors)

linear1.weight f4 [25, 151]
0	0xbdfb9b70	-0.12285507
1	0xbb2a4761	-0.0025982487
2	0xbd384ace	-0.044993214
3	0x3d3a8ebf	0.04554629
4	0x3c38f7c0	0.011289537
5	0x3ddfea91	0.10933412
6	0xbd97c1bf	-0.07410001
7	0x3e094f30	0.13409114
8	0x3d57cbde	0.052684657
9	0x3dc14c20	0.09438348
10	0x3d25187e	0.04030656
11	0x3d76b472	0.06023068
12	0x3983c345	0.00025131754
13	0x3da1f79c	0.07908556
14	0x3dce74c8	0.10080868
15	0x3d3ddf46	0.04635551
16	0x3e7ec950	0.24881482
17	0x3e0d389e	0.13791129
18	0xbd49b05a	-0.049240448
19	0x3ccfc60e	0.025362995
20	0xbd131a05	-0.035913486
21	0xba8c9a45	-0.0010727128
22	0x3dc64665	0.096813954
23	0xbe215f52	-0.15759018
24	0xbd8e381f	-0.06944298
25	0xbd0e20f4	-0.034699395
26	0xbc117446	-0.008877819
27	0xbdce5b30	-0.100759864
28	0xbe0722d8	-0.13196886
29	0xbdb331d6	-0.0874974
30	0xbe42276d	-0.18960352
31	0x3ced3f28	0.02896078
32	0x3d95ecd0	0.07320559
33	0x3df5c66d	0.12000737
34	0x3d9e2439	0.07721753
35	0x3da19ce3	0.07891252
36	0xbd09381a	-0.03350077
37	0xbd9a5517	-0.07535761
38	0x3ceb90ba	0.028755534
39	0xbc225635	-0.009908249
40	0xbe3fa108	-0.18713772
41	0xbd6eafc7	-0.058273103
42	0xbd857c05	-0.065177955
43	0xbd556b93	-0.052104544
44	0xbd2ad98d	-0.04171138
45	0xbd61230c	-0.054965064
46	0xbdabcc5c	-0.08388588
47	0xbe121b0d	-0.14268132
48	0xbd9a39b9	-0.07530541
49	0x3b46d559	0.0030339567
50	0xbdd65953	-0.10466256
51	0xbcf28182	-0.02960277
52	0xbdb7b946	-0.08970885
53	0x3e039f91	0.12853839
54	0xbc77c1cb	-0.015121887
55	0xbd92c550	-0.071665406
56	0x3d06f8b2	0.032952018
57	0x3d8c864f	0.06861555
58	0x3e06531b	0.1311764
59	0x3d8f4b2a	0.06996758
60	0x3cb3e887	0.021961464
61	0xbd921c16	-0.07134263
62	0x3c8af637	0.016963108
63	0x3e41f9f3	0.18943004
64	0xbd6e5597	-0.058187094
65	0x3d552bd6	0.05204376
66	0x3ea89c48	0.32931733
67	0x3e2ddebd	0.16979499
68	0x3d2ccd62	0.042188056
69	0xbd8eef48	-0.06979233
70	0xbcabc249	-0.020966666
71	0xbc595930	-0.013265893
72	0x3d22c468	0.03973809
73	0xbddf77de	-0.10911535
74	0xbe210fea	-0.15728727
75	0xbd87cacc	-0.06630477
76	0xbe088c84	-0.13334852
77	0xbe4b5738	-0.1985749
78	0xbe3cb291	-0.18427493
79	0xbdda8b10	-0.10671055
80	0xbe84fca9	-0.25974014
81	0xbe19ec08	-0.15031445
82	0x3d56b825	0.052421708
83	0x3e03b467	0.12861787
84	0x3c05be6a	0.008163074
85	0x3d9c0cb5	0.07619611
86	0xbc21973a	-0.009862715
87	0xbc9e495c	-0.01932209
88	0x3e65d25d	0.22443528
89	0x3d65457d	0.055974472
90	0xbe0bb32f	-0.13642572
91	0xbd2ac713	-0.04169376
92	0xbc946e06	-0.01811887
93	0xbc386584	-0.011254672
94	0xbc37ca43	-0.011217657
95	0xbc5eb4b6	-0.0135928895
96	0xbdde8ff8	-0.108673036
97	0xbe23471f	-0.159451
98	0xbd11c2b1	-0.035586063
99	0xbdeba43d	-0.11505935
100	0x3d71a9ba	0.058999754
101	0x3d2683e3	0.04065312
102	0xbcb15f80	-0.021651983
103	0xbbe28a29	-0.0069134426
104	0x3da31a21	0.07963968
105	0x3d0e8fe8	0.03480521
106	0xbcf55e7a	-0.029952276
107	0xbd922d2d	-0.07137523
108	0xbd0245dc	-0.031804904
109	0x3c9c1727	0.019054009
110	0x3d07fce3	0.033200156
111	0xbc42f398	-0.011898898
112	0xbd65ce84	-0.05610515
113	0x3d950109	0.07275588
114	0xbc1b90f5	-0.00949501
115	0xbcf25485	-0.029581318
116	0xbce0ad51	-0.027426394
117	0x3dbdedf8	0.092739046
118	0x3dad2c95	0.08455769
119	0x3d566d73	0.052350473
120	0x3d081885	0.03322651
121	0x3d170e80	0.036879063
122	0x3c32cbb0	0.010912821
123	0xbd5ac23f	-0.053407904
124	0x3d95d13f	0.07315301
125	0x3d9317c0	0.07182264
126	0x3d12fa9f	0.035883542
127	0xbd8390f4	-0.06424132
128	0x3b804ab3	0.003915155
129	0x3d53715e	0.051621787
130	0xbc746060	-0.014915556
131	0x3d9daabf	0.07698583
132	0x3da59597	0.080851726
133	0x3da176a3	0.07883956
134	0x3d618fa3	0.055068623
135	0x3d813241	0.06308413
136	0xbc88cd28	-0.016699389
137	0x3cbbfab4	0.022946693
138	0xbd978dfb	-0.074001275
139	0x3da5b2b1	0.08090723
140	0x3da56c7c	0.080773324
141	0xbd39a4e7	-0.04532328
142	0xbd162ea2	-0.036665566
143	0xbcd52454	-0.0260183
144	0x3c862927	0.016377045
145	0xbd729e5c	-0.059233055
146	0x3d223387	0.03959992
147	0x3da66aab	0.08125814
148	0x3d9196df	0.071088545
149	0xbd4d9d08	-0.050198585
150	0x3e92e4bd	0.28690138
151	0x3c9875aa	0.018610794
152	0x3d36276a	0.044471182
153	0x3d955daf	0.07293259
154	0x3c79bdc5	0.0152429985
155	0x3c558871	0.013033018
156	0x3c7138aa	0.014722982
157	0x3d91dfb1	0.07122744
158	0xbca45875	-0.02006171
159	0xbcf4d98a	-0.029888887
160	0xbcbd7d6f	-0.0231311
161	0xbd1ec3cd	-0.03876095
162	0xbd652c3d	-0.055950392
163	0xbac36a36	-0.0014908973
164	0xbc58ed48	-0.013240166
165	0xbd0ae3e6	-0.033908747
166	0xbc2c3e37	-0.01051288
167	0xbcec9a0b	-0.028882047
168	0xbd973c8f	-0.073845975
169	0xbca8bbf1	-0.02059743
170	0xbd8621d6	-0.065494224
171	0x3d7ca19f	0.06167757
172	0x3ad73aea	0.0016420756
173	0xbd9f7b4f	-0.07787191
174	0xbd2b1c97	-0.041775312
175	0xbd3f8f9a	-0.04676781
176	0xbd9cf62d	-0.07664142
177	0xbda740a0	-0.08166623
178	0x3d9138a9	0.07090885
179	0x3d596cc6	0.05308225
180	0xbd1cbd0b	-0.038266223
181	0xbc3e1c6e	-0.011603458
182	0xbda105e2	-0.0786245
183	0xbd826e2c	-0.0636867
184	0x3d792785	0.060828704
185	0xbda88dbe	-0.0823016
186	0x3c17a257	0.009255013
187	0xbd327c28	-0.043575436
188	0xbd5c32b8	-0.053759307
189	0x3d18ac69	0.0372738
190	0x3d92cf87	0.07168489
191	0xbd517e6a	-0.05114595
192	0xbd93199f	-0.07182621
193	0xbd6d710b	-0.057969134
194	0xbd7a10b9	-0.061051104
195	0xbc008429	-0.007844009
196	0xbdb32a6f	-0.08748328
197	0x3cb30607	0.02185346
198	0x3c86d3f2	0.016458485
199	0x3d6614e4	0.056172267
200	0x3d15bed8	0.036558956
201	0xbd887dfa	-0.06664653
202	0x3958e999	0.00020686387
203	0xbca35ea9	-0.019942598
204	0xbcca2c75	-0.024679402
205	0x3d0044d3	0.031315636
206	0x3c6ad5b8	0.014333181
207	0xbd530a7e	-0.051523678
208	0xbd98563e	-0.074383244
209	0xbcca0057	-0.024658365
210	0xbd86cb8b	-0.065817915
211	0x3d73c78e	0.059516482
212	0x3d8add21	0.06780458
213	0xbda87761	-0.08225895
214	0x3d418207	0.047243144
215	0xbc9bf9fa	-0.019040097
216	0x3bfd6406	0.007732871
217	0x3d809d4d	0.06280003
218	0xbd7982f1	-0.06091589
219	0x3ce1fec0	0.027587295
220	0xbcc2db3f	-0.023786185
221	0xbc5220cd	-0.012825203
222	0xbd8aec35	-0.06783334
223	0x3d7d57cb	0.061851304
224	0xbd19e04f	-0.037567433
225	0xbce9e48b	-0.02855136
226	0x3d8ff4b7	0.070290975
227	0x3d51215f	0.051057216
228	0x3ca710a3	0.020393675
229	0x3c8b2eb4	0.016990043
230	0x3d876ba7	0.0661233
231	0x3d7e74c5	0.06212308
232	0xbc8b3726	-0.01699407
233	0x3c52031f	0.012818127
234	0x3d92c5d1	0.07166637
235	0xbabdd957	-0.0014484328
236	0xbc867238	-0.016411886
237	0xbc87b0b3	-0.016563749
238	0x3d46b53f	0.048512693
239	0xbd8dcd90	-0.069239736
240	0xbbf5b7fb	-0.007498739
241	0xbd4b406f	-0.049621996
242	0xbd284201	-0.04107857
243	0x3c7df2f4	0.015499819
244	0x3c4df457	0.012570462
245	0xbbde7222	-0.006788508
246	0x3d86f5e2	0.06589867
247	0xbb41400b	-0.0029487635
248	0x3c06a648	0.0082183555
249	0x3cba5741	0.022746684
250	0x3d206f16	0.03916844
251	0xbd5637fa	-0.052299477
252	0x3c94604f	0.01811233
253	0xbd509234	-0.05092068
254	0x3d06fcda	0.03295598
255	0x3c518ad1	0.012789444

linear1.bias f4 [25]
0	0xbe1b6312	-0.15174511
1	0xbbb0be69	-0.0053937924
2	0x3d422914	0.047402456
3	0x3d9c7663	0.07639768
4	0x3d3c7044	0.046005502
5	0xbc6e40e0	-0.014541835
6	0x3c98d0dc	0.01865428
7	0xbccf2828	-0.025287703
8	0xbc5fe137	-0.013664535
9	0xbccb2b22	-0.02480084
10	0x3ccdecd1	0.025137337
11	0x3d9beb8b	0.07613286
12	0x3d66c82e	0.05634325
13	0xbd8c44f9	-0.06849093
14	0x3d284382	0.041080005
15	0x3b9d6b05	0.0048040175
16	0xbd9260fc	-0.071474046
17	0xbd49528e	-0.049150996
18	0x3def33da	0.11679812
19	0xbbb7071f	-0.0055855657
20	0xba3460c9	-0.0006880877
21	0x3cc6b931	0.024258228
22	0x3d0a0cba	0.033703543
23	0x3cd57e58	0.026061222
24	0x3da55e6a	0.08074649

linear2.weight f4 [25, 25]
0	0x3e18a371	0.14906098
1	0xbe115340	-0.14191914
2	0xbe3dc1f2	-0.18531016
3	0x3e4cc83d	0.1999826
4	0x3cd336d0	0.025782973
5	0x3e0a5dcf	0.13512348
6	0xbd9ab3ea	-0.07553847
7	0x3e11f299	0.142527
8	0x3dbe7b32	0.093008414
9	0xbdf58d63	-0.11989858
10	0xbdee3d36	-0.11632769
11	0x3e002122	0.12512639
12	0x3e85fdcf	0.26170203
13	0xbc83217b	-0.016007176
14	0xbd0e3461	-0.03471792
15	0xbd2349d4	-0.03986533
16	0xbd754469	-0.059879694
17	0xbd418300	-0.047244072
18	0x3e733f48	0.23754609
19	0xbdf3834a	-0.11890276
20	0x3e2500a0	0.1611352
21	0x3de055ed	0.10953889
22	0x3e3584e5	0.17726476
23	0xbd3d9574	-0.046285108
24	0x3dc540b2	0.0963148
25	0x3d0f5458	0.034992546
26	0xbe235cd6	-0.15953383
27	0x3dbe42da	0.09290095
28	0x3e3fbaf7	0.18723665
29	0x3e3b7349	0.18305697
30	0x3e1d15cd	0.15340348
31	0xbd462dc0	-0.048383474
32	0xbe3182e0	-0.17335081
33	0xbe10a7d2	-0.14126518
34	0x3d73dd3c	0.059537157
35	0xbb88c800	-0.0041742325
36	0xbe0150ba	-0.12628451
37	0xbcb44190	-0.022003919
38	0xbd0815d4	-0.033223942
39	0xbe130e4a	-0.1436092
40	0x3e326691	0.17421938
41	0xbcb5ff70	-0.022216529
42	0x3cf04768	0.029330924
43	0xbe239a55	-0.15976842
44	0x3dfff72a	0.12498315
45	0xbe07d79d	-0.13265844
46	0x3cac0b28	0.021001413
47	0x3d55c5a4	0.052190438
48	0x3dd4143e	0.103554234
49	0x3e369b03	0.1783257
50	0x3e376109	0.1790811
51	0xbe2559be	-0.16147515
52	0x3d216554	0.039403275
53	0xbd0ebf74	-0.034850553
54	0xbd9cdc3a	-0.076591924
55	0xbdb7aa63	-0.089680456
56	0xbe077ef2	-0.1323202
57	0xbd2b2734	-0.041785434
58	0xbe52fae9	-0.20603527
59	0xbe33c2a3	-0.17554717
60	0x3bf1ba40	0.007376939
61	0xbd7b04b3	-0.06128378
62	0x3de29887	0.110642485
63	0xbdfa54c7	-0.12223201
64	0xbdec659a	-0.115428165
65	0x3e231399	0.15925445
66	0xbe1dd14e	-0.15411875
67	0xbe36135f	-0.17780827
68	0x3de4d8e2	0.111741796
69	0xbdb00c4a	-0.08596094
70	0xbddd18f1	-0.10795773
71	0xbe3ba638	-0.18325126
72	0x3dd8a9a2	0.1057923
73	0x3cdc0c90	0.026861459
74	0x3d03382c	0.03203599
75	0xbdec533a	-0.11539312
76	0x3c108c60	0.0088225305
77	0x3d0f442c	0.034977123
78	0xbdc17fc7	-0.094482
79	0x3b160080	0.0022888482
80	0x3e3c1fe5	0.18371542
81	0xbd95ec66	-0.0732048
82	0x3d8f1e0e	0.06988154
83	0xbcbe9250	-0.023263127
84	0x3db08d8a	0.086207464
85	0xbd9fbf1d	-0.07800124
86	0xbd877d7c	-0.06615731
87	0xbe1dd655	-0.15413792
88	0xbe3382c2	-0.17530349
89	0x3c3ce700	0.011529684
90	0xbd7e24ec	-0.06204693
91	0xbe0cf843	-0.1376658
92	0xbd35bb48	-0.04436806
93	0x3d4d6a9c	0.0501505
94	0xbdce559d	-0.10074923
95	0x3e1bbf1f	0.15209626
96	0xbce3a828	-0.027790144
97	0x3e46a757	0.19399773
98	0x3d6cef64	0.05784549
99	0xbd16c368	-0.036807448
100	0x3e0dca5e	0.13846728
101	0xbda5302e	-0.0806583
102	0x3d7495a4	0.05971302
103	0x3e8b875b	0.27251706
104	0x3daa8a1e	0.08327125
105	0xbdad0ecd	-0.08450089
106	0x3e0ba007	0.13635264
107	0x3e43602d	0.19079657
108	0x3e4dcd62	0.20097879
109	0xbd27cb18	-0.04096517
110	0xbdd85ae7	-0.10564213
111	0x3dde5c42	0.108574405
112	0xbdbe7f8e	-0.09301673
113	0xbd842143	-0.06451657
114	0x3bbb76f7	0.005720969
115	0xbd316645	-0.043310422
116	0x3d2a9650	0.041647255
117	0xbc94edb0	-0.018179744
118	0x3e05bee4	0.130611
119	0x3d2a669d	0.041601766
120	0x3deb0cd6	0.11477058
121	0x3e1af6cc	0.15133208
122	0xbdd9e435	-0.1063923
123	0x3d52622c	0.051363155
124	0x3b99c3a0	0.00469251
125	0xbdfeec3d	-0.124474026
126	0x3db30b9a	0.08742447
127	0xbdd46fe7	-0.10372906
128	0x3d5e5c2c	0.05428712
129	0xbd561f8c	-0.05227618
130	0xbe40fcc8	-0.18846428
131	0x3df180ea	0.117921665
132	0xbcaa5858	-0.020794079
133	0xbe14d61d	-0.14534803
134	0x3e2c730d	0.16840763
135	0xbdca39a0	-0.09874272
136	0xbe20d47a	-0.15706053
137	0xbdaec2e0	-0.08533263
138	0xbe225fd0	-0.15856862
139	0xbe4be8d0	-0.1991303
140	0xbe3dd487	-0.18538104
141	0xbda8cc3a	-0.08242078
142	0x3d243c28	0.040096432
143	0xbe2fc882	-0.17166331
144	0xbdf25920	-0.118334055
145	0x3cf67fb0	0.030090183
146	0x3ce02658	0.027362034
147	0xbe14a3e8	-0.1451565
148	0x3c95b2e8	0.018273786
149	0x3e48be4d	0.19603844
150	0xbeb1b5a3	-0.3470889
151	0xbe11b252	-0.1422818
152	0xbcd75ff0	-0.026290864
153	0xbeb7a65f	-0.3586912
154	0xbd2f7bac	-0.042842552
155	0x3b8bff40	0.0042723715
156	0x3dee8fde	0.11648534
157	0x3deedc52	0.116631165
158	0x3e28c4ad	0.16481276
159	0xbdb81f83	-0.089903854
160	0xbe276628	-0.16347563
161	0x3e273824	0.1633001
162	0xbd6d7b94	-0.05797918
163	0xbe2e3b33	-0.1701477
164	0x3d222e58	0.039594978
165	0xbe4ae015	-0.19812043
166	0x3c64cb30	0.013964459
167	0xbe2b3f5d	-0.1672339
168	0xbe972804	-0.29522717
169	0xbcbac0f0	-0.022797078
170	0x3dc359f2	0.0953864
171	0xbe3fe85f	-0.18740986
172	0xbdca1807	-0.09867864
173	0x3b9efa00	0.0048515797
174	0xbdb76277	-0.089543276
175	0x3db1c76e	0.08680616
176	0x3d77fc51	0.060543362
177	0x3e185049	0.14874376
178	0x3d9b37f6	0.07579033
179	0xbdfe9c60	-0.1243217
180	0xbe160cf0	-0.14653373
181	0x3e144329	0.14478745
182	0xbde00327	-0.10938101
183	0xbe2cc60c	-0.16872424
184	0xbd627de8	-0.055295855
185	0x3c976cd0	0.018484503
186	0xbd084aec	-0.033274576
187	0x3d49967f	0.04921579
188	0xbe072608	-0.13198102
189	0xbd03800c	-0.032104537
190	0xbe378470	-0.17921615
191	0x3d46f428	0.04857269
192	0xbe25965a	-0.16170636
193	0xbce1beac	-0.02755674
194	0x3e0c0e62	0.13677362
195	0x3e01d137	0.12677465
196	0xbe2d77a9	-0.16940178
197	0xbd297d60	-0.041379333
198	0x3e34b5f9	0.17647542
199	0xbe1b4383	-0.15162472
200	0xbe20ab9a	-0.15690461
201	0xbc9df5d8	-0.019282266
202	0xbb644e80	-0.0034836829
203	0xbd2d3448	-0.042286187
204	0xbd80b674	-0.062848
205	0x3e4a3e19	0.19750251
206	0xbe2f2223	-0.17102866
207	0xbe4b587a	-0.1985797
208	0xbe4108dd	-0.18851037
209	0x3aaab700	0.0013024509
210	0xbd5bb508	-0.05363944
211	0xbbdbe7c0	-0.0067109764
212	0x3e3eb173	0.18622379
213	0x3cc5fb70	0.024167746
214	0x3e2ce821	0.16885425
215	0xbe1afa76	-0.15134606
216	0xbc811c70	-0.01576063
217	0x3e3f8837	0.18704306
218	0xbd01d098	-0.03169307
219	0xbd5b1160	-0.053483367
220	0xbda0d780	-0.07853603
221	0xbe460438	-0.19337547
222	0x3e356fa1	0.17718364
223	0xbe3ae198	-0.1825012
224	0xbd0297c8	-0.03188303
225	0xbd26ffc0	-0.040771246
226	0x3e378b01	0.1792412
227	0xbe1a4733	-0.15066223
228	0xbe1b96ab	-0.15194194
229	0x3e38af49	0.18035616
230	0x3e25be0f	0.16185783
231	0xbd0151e0	-0.031572223
232	0xbd85ab0c	-0.06526765
233	0xbe091a40	-0.1338892
234	0x3e434659	0.19069804
235	0xbca9db90	-0.020734578
236	0x3e3e48d1	0.18582465
237	0xbd19b7a0	-0.037528634
238	0x3df7677a	0.120802835
239	0x3dbaaaa6	0.0911458
240	0x3cd10e30	0.02551946
241	0xbe0a30f0	-0.1349523
242	0x3e127cc3	0.14305405
243	0xbcfe15b0	-0.0310162
244	0x3d1e6c48	0.038677484
245	0x3d26fe78	0.040770024
246	0x3c9b83d0	0.018983752
247	0xbe1279ce	-0.14304277
248	0x3d825ad2	0.06364979
249	0x3db2fa3e	0.08739136
250	0xbdc9e14c	-0.09857425
251	0x3e15ac47	0.146165
252	0x3cdb32c0	0.026757598
253	0x3e4ed854	0.2019971
254	0xbdf0b0d0	-0.11752474
255	0x3e19f409	0.15034498

linear2.bias f4 [25]
0	0xbd4d742f	-0.05015963
1	0xbdea84c7	-0.114511065
2	0xbe530214	-0.20606261
3	0xbd7d1338	-0.061785907
4	0x3e01a6c4	0.12661272
5	0xbde14c70	-0.110009074
6	0xba2e0ec8	-0.0006639776
7	0xbcf47c2a	-0.029844362
8	0xbd385e20	-0.04501164
9	0xbe337b4f	-0.17527507
10	0xbe37092e	-0.17874596
11	0x3db890ed	0.090120174
12	0xbbf8a83b	-0.007588414
13	0x3e4f338a	0.20234504
14	0xbddd2cc9	-0.10799558
15	0xbebd9ff1	-0.37036088
16	0xbdcb473f	-0.099256985
17	0x3da07fbe	0.07836865
18	0xbe24a63f	-0.16079043
19	0xbcf7d4d5	-0.030252853
20	0x3dd43fdd	0.103637435
21	0x3c1a9c0b	0.009436618
22	0xbd7d6f60	-0.061873794
23	0x3dd72e45	0.10506872
24	0xbe06b23d	-0.1315393

linear3.weight f4 [1, 25]
0	0x3e01176b	0.1260659
1	0x3b0ffcc0	0.002197072
2	0xbbf0b276	-0.007345493
3	0x3ccbcc70	0.024877757
4	0x3e10a9ed	0.14127322
5	0xbd6b4300	-0.057436943
6	0xbe5db4e2	-0.21651033
7	0x3ce8512e	0.028359022
8	0xbdbf0860	-0.09327769
9	0xbdb4f687	-0.08836084
10	0xbc25fdd7	-0.010131321
11	0xbe8d6f9d	-0.27624217
12	0x3f389d01	0.7211457
13	0x3e2fb7d2	0.17159966
14	0x3f03a069	0.5141664
15	0x3f0dcd46	0.5539135
16	0xbec763d2	-0.38943344
17	0x3e2f7f64	0.1713844
18	0x3e11b60a	0.14229599
19	0xbe3e1908	-0.18564236
20	0xbea33e3e	-0.31883425
21	0xbd3db681	-0.046316627
22	0x3d2f1374	0.04274316
23	0x3de5f0a3	0.112275384
24	0x3dc46f5b	0.09591552
