model.pth (torch, 19911 bytes, 5 tensors)

linear1.weight f4 [25, 151]
0	0xbd813319	-0.06308574
1	0xbc76d67d	-0.015065786
2	0x388f10b2	6.821881e-05
3	0xbd572c29	-0.05253235
4	0x3ce3ce7f	0.027808426
5	0x3d1f5c93	0.038906645
6	0x3d561946	0.052270196
7	0xbd808b30	-0.06276548
8	0xbd8fc6a4	-0.070203096
9	0xbdad6fa2	-0.08468558
10	0x3d88aeb7	0.06673949
11	0x3d251598	0.040303797
12	0xbced075b	-0.028934171
13	0x3c071c2b	0.008246462
14	0xbd9edc06	-0.0775681
15	0xbd8e8f7c	-0.06960961
16	0x3ccadf4e	0.024764683
17	0xbda767fc	-0.0817413
18	0xbd3e40fd	-0.046448696
19	0xbd31dac3	-0.043421518
20	0x3d13158e	0.035909228
21	0x3baa5e1e	0.005199208
22	0xbd07be4f	-0.033140477
23	0xbc85cc24	-0.016332693
24	0x3d36fff4	0.04467769
25	0xbc74939b	-0.01492777
26	0xbd9f52cd	-0.07779465
27	0x3c7f1868	0.015569784
28	0x3bbd040f	0.005768306
29	0x3d5f02de	0.054446094
30	0xbdae0675	-0.08497325
31	0x3b8e6b84	0.004346313
32	0x3d880b73	0.06642809
33	0xbcef47b7	-0.029209001
34	0x3c1966e4	0.00936291
35	0x3d16d87f	0.03682756
36	0x3d3815c9	0.04494265
37	0x3d0ae61e	0.033910863
38	0xbc45b533	-0.012067127
39	0x3d226a3b	0.03965209
40	0xbc569655	-0.013097365
41	0xbd377917	-0.044793215
42	0xbd0364a0	-0.032078385
43	0x3c06d97c	0.008230563
44	0x3d3633be	0.04448294
45	0xbd072a40	-0.032999277
46	0x3c8f59f6	0.017498951
47	0xbd6dd025	-0.05805983
48	0xbdb32654	-0.08747545
49	0x3d071598	0.032979578
50	0xbce42f6e	-0.027854647
51	0x3d85de3a	0.06536527
52	0x3d3db779	0.04631755
53	0x3a8eca24	0.0010893983
54	0x3d068106	0.03283789
55	0x3d4b7b6b	0.049678247
56	0x3d177a26	0.036981724
57	0xbd89fd41	-0.067377575
58	0x3d30f2cf	0.04320031
59	0x3d57d975	0.052697618
60	0xbd09a90e	-0.03360849
61	0xbd90afa0	-0.07064748
62	0xbd7ff393	-0.06248815
63	0x3d31af46	0.043380044
64	0xbd8baed8	-0.06820458
65	0xbc8dff73	-0.017333722
66	0x3c0033f3	0.007824886
67	0xbc0cc53e	-0.008591948
68	0xbdafda10	-0.08586514
69	0x3d8a5f29	0.067564316
70	0x3ce579e9	0.028012233
71	0x3c49c85d	0.012315837
72	0xbd4d08e9	-0.050057326
73	0xbd98938c	-0.07450017
74	0xbd1ab6bc	-0.037771925
75	0x3d1e62e1	0.038668517
76	0xbd134727	-0.035956528
77	0x3d8f3686	0.069928214
78	0xbd9b2121	-0.07574678
79	0xbb42b321	-0.002970882
80	0x3c3a621a	0.011375928
81	0xbd7461cf	-0.05966359
82	0x3cfc6f2b	0.030814728
83	0xbbfc9fe4	-0.00770949
84	0xbcd11bd3	-0.025525963
85	0xbcbab500	-0.022791386
86	0xbc892aab	-0.016743978
87	0xbd8db233	-0.069187544
88	0xbd2d218a	-0.042268313
89	0x3ccd4565	0.025057504
90	0xbd9e5f66	-0.077330396
91	0x3caeef19	0.021354245
92	0x3c323dd0	0.010878995
93	0xbd58f392	-0.05296666
94	0x3c152fe3	0.009105655
95	0x3b740f09	0.0037240407
96	0xbc315469	-0.010823348
97	0x3d052ae2	0.0325116
98	0x3d92fd1b	0.07177182
99	0xbceb3a77	-0.028714402
100	0xbdb5305e	-0.08847116
101	0xbda62b17	-0.081136875
102	0x3d153c80	0.03643465
103	0x3d65c26e	0.056093626
104	0x3d8d6944	0.069048434
105	0x3cc26a99	0.02373247
106	0xbd42ea06	-0.047586463
107	0xbd0c86bf	-0.03430819
108	0xbd74aa3b	-0.059732657
109	0xbcb66f0c	-0.022269748
110	0x3d0b25c2	0.033971556
111	0xbda5786a	-0.08079608
112	0x3d0cb646	0.034353517
113	0x3d81d92f	0.063402526
114	0x3b94c95e	0.0045406064
115	0x3d577e4d	0.052610684
116	0x3c14e71f	0.009088307
117	0x3c916f15	0.017753163
118	0x3c8aa9cc	0.016926669
119	0xbabe2b28	-0.0014508711
120	0xbd92064e	-0.07130109
121	0xbd8c12a8	-0.06839496
122	0xbca93614	-0.02065567
123	0xbd8d72d8	-0.0690667
124	0xbd6d7335	-0.057971198
125	0x3cfda5e9	0.030962901
126	0xbd181a57	-0.037134495
127	0x3d73ec8e	0.059551768
128	0xbd8c210c	-0.06842241
129	0x3d90bb44	0.07066968
130	0xbd00dae1	-0.03145874
131	0x3d00c266	0.031435393
132	0x3d242344	0.040072694
133	0x3d767c1e	0.06017696
134	0x3d08ec78	0.03342864
135	0xbd900d8a	-0.07033832
136	0x3cdf2e8e	0.027243879
137	0xbd58a4ba	-0.05289147
138	0x3d8423b8	0.06452125
139	0xbd23d3a8	-0.039996773
140	0x3b624e1b	0.0034531418
141	0x3ceabdea	0.028655011
142	0xbc2cc29a	-0.0105444435
143	0xbcf7f189	-0.03026654
144	0xbcf6c987	-0.030125393
145	0xbcd0cc02	-0.025487904
146	0x3d689244	0.056780115
147	0x3d769061	0.060196284
148	0xbbbd93b0	-0.005785428
149	0xbcee0e30	-0.0290595
150	0x3d60b4bc	0.05485986
151	0xbcb1d1d8	-0.021706507
152	0xbd2cb71d	-0.042166818
153	0x3d6af680	0.057363987
154	0x3d0487f6	0.032356225
155	0x3d94a4b6	0.072579786
156	0xbd3c6987	-0.045999076
157	0xbd9b1bc5	-0.07573656
158	0x3abed4c0	0.0014559254
159	0x3d098e2a	0.033582844
160	0x3d3875b8	0.04503414
161	0xbcf0474c	-0.029330872
162	0x3d8f0eee	0.069852695
163	0x3d0fb6e4	0.035086527
164	0xbd701fd0	-0.05862409
165	0xbb9bdab0	-0.004756294
166	0x3d77e6e4	0.06052293
167	0xbd694dd4	-0.05695899
168	0xbd0891a5	-0.033342022
169	0xbb7d15a0	-0.0038617626
170	0x3d63a1e4	0.055574313
171	0x3d6d7330	0.05797118
172	0xbd02ce95	-0.031935293
173	0x3ca2ba78	0.019864306
174	0x3d940d44	0.07229093
175	0xbd936f78	-0.07198995
176	0xbcb7d346	-0.02243961
177	0xbd43f4e7	-0.04784098
178	0x3ca698e4	0.020336576
179	0xbd174b80	-0.036937237
180	0xbbb363a0	-0.0054745227
181	0xbce2422a	-0.02761944
182	0xbd8782b4	-0.066167265
183	0xbd59285a	-0.053016998
184	0x3c2f8970	0.01071392
185	0x3cdd0578	0.026980147
186	0x3cd94f40	0.026527047
187	0xbceb1162	-0.028694812
188	0xbd327a3c	-0.043573603
189	0xbd61b889	-0.055107627
190	0xbd02f57e	-0.0319724
191	0xbd2b5d0c	-0.041836783
192	0xbd88f9df	-0.06688284
193	0xbd91bd0e	-0.071161374
194	0x3d54b280	0.051928043
195	0xbbfdd360	-0.007746145
196	0x3d8d10b6	0.06887953
197	0x3d3e1874	0.04641004
198	0x3d962f6e	0.07333265
199	0x3cf286cc	0.029605292
200	0xbd9d49d6	-0.07680099
201	0x3cb804a4	0.02246315
202	0x3da52bb2	0.08064975
203	0x3c111868	0.008855917
204	0x3c484848	0.012224264
205	0xbd220c4b	-0.039562505
206	0x3d70ec40	0.058819056
207	0xbda1e81a	-0.07905598
208	0x3aa09640	0.0012251809
209	0xbd813af6	-0.06310074
210	0xbcad2752	-0.021136913
211	0xbbe562d0	-0.0070003048
212	0xbda29521	-0.079386
213	0xbbe57510	-0.0070024803
214	0x3d9a2360	0.075262785
215	0x3d82a366	0.06378822
216	0xbcb4fcde	-0.022093233
217	0x3d8d4b0e	0.06899081
218	0xbd85d8cf	-0.065354936
219	0xbd2a0911	-0.041512553
220	0x3d5b7e44	0.053587213
221	0x3d95fda0	0.07323766
222	0x3d9148a4	0.07093933
223	0x3b11ff60	0.002227746
224	0xbac3c980	-0.0014937371
225	0xbd993a41	-0.07481814
226	0xbc6e5928	-0.014547624
227	0x3d34f124	0.044175282
228	0xbd105f89	-0.03524736
229	0x3be7ea70	0.0070775077
230	0x3d1f1a8c	0.038843676
231	0xbd876585	-0.0661116
232	0xbcb7c026	-0.02243049
233	0x3d267202	0.04063607
234	0xbc0ebd38	-0.008712105
235	0xbd0cf679	-0.034414742
236	0x3c695ce0	0.0142433345
237	0xbd89a310	-0.06720555
238	0xbda599b5	-0.08085958
239	0x3c9da834	0.019245245
240	0x3cfb3778	0.030666098
241	0x3d853c94	0.06505695
242	0xbd75686e	-0.059914045
243	0x3c094410	0.008378044
244	0x3d9793e2	0.07401253
245	0x3c8d3630	0.017237753
246	0xbd653c50	-0.05596572
247	0xbda2c732	-0.0794815
248	0x3c620788	0.013795741
249	0xbd8d14d6	-0.0688874
250	0x3cd2cc24	0.025732107
251	0x3c63c8f0	0.013902888
252	0xbb675920	-0.0035300925
253	0xbd17b754	-0.03704007
254	0xbd786a94	-0.060648516
255	0x3d2ca736	0.042151652

linear1.bias f4 [25]
0	0xbd4a7286	-0.049425624
1	0xbd9e4b23	-0.07729175
2	0x3da33e8a	0.07970913
3	0x3d9497e6	0.07255535
4	0x3c70957b	0.014684076
5	0x3d56accf	0.052410897
6	0x3cc916d5	0.02454702
7	0x3d837a7b	0.06419846
8	0x3bb91ee0	0.0056494325
9	0xbd775581	-0.060384277
10	0x3d4e77c8	0.0504072
11	0x3d80494e	0.06263982
12	0x3bca7aa7	0.006179172
13	0x3d4e705b	0.05040012
14	0xbd3cb750	-0.046073258
15	0xbe2a4402	-0.16627505
16	0xbd2d1d96	-0.042264543
17	0x3c4e5551	0.012593583
18	0xbd56bf25	-0.052428383
19	0x3db4ce1e	0.08828376
20	0x3d7c1577	0.061543908
21	0xbd873223	-0.0660136
22	0xbd510e60	-0.0510391
23	0xbd34785d	-0.0440601
24	0xbcfb36a2	-0.0306657

linear2.weight f4 [25, 25]
0	0xbe05d127	-0.13068067
1	0xbd1b6e88	-0.037947208
2	0xbd6a1e8d	-0.05715804
3	0x3e120bd8	0.1426233
4	0x3e7f6167	0.249395
5	0x3e21f88c	0.1581747
6	0xbe1e70fa	-0.15472785
7	0xbe3e8ad2	-0.18607643
8	0x3dc29b5a	0.09502287
9	0x3dfabbf2	0.12242879
10	0xbe34137b	-0.17585556
11	0x3d5a2624	0.05325903
12	0x3da79ed6	0.081845924
13	0x3e3ce267	0.1844574
14	0xbe12fb0b	-0.14353578
15	0xba281fd2	-0.0006413433
16	0x3e33fe19	0.175774
17	0x3d2a95f3	0.04164691
18	0x3e182d23	0.14860968
19	0x3e4afb79	0.19822492
20	0x3df5afd5	0.11996428
21	0xbdcc5347	-0.099768214
22	0xbe212302	-0.1573601
23	0xbb722e00	-0.0036953688
24	0xbdf0d5d5	-0.11759535
25	0x3dff6f0e	0.12472354
26	0xbd5ec08c	-0.054382846
27	0xbdd38597	-0.103282146
28	0xbdae34a3	-0.085061334
29	0xbd046708	-0.03232482
30	0x3e2dd19d	0.16974492
31	0xbbd34800	-0.006447792
32	0x3e1fd3ed	0.15608187
33	0x3e404d91	0.18779589
34	0x3b0a2ac0	0.002108261
35	0x3de58ea2	0.11208846
36	0xbe2ebd5a	-0.1706442
37	0xbda76937	-0.08174365
38	0xbddd8cad	-0.108178474
39	0xbdd6241a	-0.104561046
40	0xbd6ebb18	-0.058283895
41	0x3e1c0c4b	0.15239064
42	0x3e332671	0.17495133
43	0x3dd05e1e	0.101742014
44	0xbe1b7f8d	-0.15185376
45	0xbe20f8c0	-0.1571989
46	0x3de73fc2	0.11291458
47	0x3e419d55	0.18907674
48	0x3e3dab99	0.1852249
49	0x3d13bb80	0.036067486
50	0x3ca65e34	0.020308591
51	0xbe4b904d	-0.19879265
52	0x3e44ad01	0.19206621
53	0x3e4d856c	0.20070428
54	0x3db5afd8	0.0887143
55	0xbe16b03e	-0.14715669
56	0x3d0946c2	0.033514746
57	0x3dcea302	0.10089685
58	0xbc0885d0	-0.008332685
59	0x3e23a3e1	0.15980484
60	0xbe26a826	-0.16275081
61	0xbdaed6b3	-0.085370444
62	0x3cd56966	0.026051234
63	0xbe138954	-0.14407855
64	0x3db13542	0.08652736
65	0x3e199663	0.14998774
66	0xbdcffcc7	-0.10155635
67	0xbd9800f8	-0.0742206
68	0xbe3113f2	-0.17292765
69	0x3e051777	0.12997232
70	0x3e399414	0.18122894
71	0xbd403f14	-0.046935156
72	0xbe383dc0	-0.17992306
73	0x3e07f02b	0.1327521
74	0xbd854544	-0.06507352
75	0xbca6e0d3	-0.020370876
76	0x3d5bb24c	0.053636834
77	0xbe265fd1	-0.16247489
78	0xbe21a5e6	-0.15785941
79	0xbcffe7db	-0.031238487
80	0x3d6444a6	0.05572953
81	0x3b0672b7	0.0020515153
82	0xbe1bde67	-0.15221559
83	0x3e46259d	0.19350286
84	0x3e18c944	0.14920527
85	0xbda9f1b4	-0.08298054
86	0xbe009bd2	-0.1255944
87	0xbe1f8f8f	-0.15582107
88	0x3e1f1f08	0.15539181
89	0x3e0ddcf6	0.13853821
90	0xbd1be405	-0.038059253
91	0xbd8f154a	-0.069864824
92	0x3d907149	0.070528574
93	0xbce86090	-0.028366357
94	0xbcd64afa	-0.026158798
95	0x3e372313	0.17884474
96	0x3ccecf60	0.025245368
97	0x3e173f4d	0.14770241
98	0x3e34983c	0.17636198
99	0xbe3466f2	-0.17617396
100	0x3d2500e9	0.04028407
101	0xbdaa8863	-0.08326795
102	0x3e53ccbd	0.2068357
103	0x3e23c4ae	0.15992996
104	0x3e544652	0.2072995
105	0x3e256804	0.1615296
106	0xbe31c17a	-0.17358962
107	0xbdef5071	-0.11685265
108	0x3e34d1bd	0.17658134
109	0xbca4850f	-0.020082979
110	0x3ca1715d	0.019707376
111	0x3b6e02b8	0.0036317538
112	0x3e096cfd	0.13420482
113	0x3e0c756c	0.13716668
114	0x3c0e4478	0.008683316
115	0x3ce7e201	0.02830601
116	0xbdc481e3	-0.095950864
117	0xbe3b1118	-0.1826824
118	0xbe023c24	-0.12718254
119	0x3db6a0c7	0.089173846
120	0x3dcbc107	0.099489264
121	0x3d5c646c	0.053806707
122	0xbe2ddabb	-0.1697797
123	0xbd3574cb	-0.044300836
124	0xbaca1075	-0.0015416282
125	0x3d6daf4c	0.058028504
126	0x3e1a62e9	0.15076794
127	0x3d80a42e	0.06281315
128	0xbe3bc97d	-0.1833858
129	0x3c929790	0.017894536
130	0xbe461658	-0.19344461
131	0xbd4acb54	-0.049510315
132	0xbd33eeb8	-0.04392883
133	0xbcdb3ce8	-0.02676244
134	0x3deb509a	0.11489983
135	0x3e06a315	0.13148148
136	0x3df2ee86	0.11861901
137	0x3da45da6	0.080256745
138	0x3df971d2	0.121799126
139	0x3d95a64e	0.07307111
140	0x3e3b24cd	0.18275757
141	0x3e11f373	0.14253025
142	0xbdcbf77a	-0.09959312
143	0xba2e6200	-0.00066521764
144	0xbdb3356a	-0.08750422
145	0xbe4243a3	-0.18971114
146	0xbe0c28ea	-0.13687482
147	0xbb3db540	-0.0028947145
148	0x3e0a7e67	0.13524781
149	0x3d34180c	0.043968245
150	0x3e40b8aa	0.18820444
151	0xbe3057f0	-0.17221045
152	0xbdacb16e	-0.084322795
153	0x3e41c152	0.18921402
154	0x3e187910	0.14889932
155	0xbe15150c	-0.1455881
156	0x3b14adb3	0.002268654
157	0x3bc6e3ae	0.006069622
158	0xbe01ec6e	-0.12687847
159	0x3d50baea	0.050959505
160	0xbcb5aa97	-0.02217607
161	0xbd9d3c96	-0.076775715
162	0x3dc7f769	0.097639866
163	0x3d6676d7	0.05626568
164	0xbdef2f65	-0.11678962
165	0x3eaf4a82	0.34236532
166	0xbd0cac6c	-0.03434412
167	0xbe1de7b7	-0.15420423
168	0xbc61a480	-0.01377213
169	0x3e06987d	0.13144107
170	0x3d50b130	0.05095023
171	0x3d42bf0a	0.04754547
172	0x3de47bf3	0.11156454
173	0x3db40f33	0.087919615
174	0xbd581c45	-0.052761335
175	0xbdd4d5a5	-0.10392312
176	0xbcb30530	-0.02185306
177	0xbcf88e1e	-0.030341204
178	0xbe3047cb	-0.17214887
179	0xbd1140be	-0.035462134
180	0xbe1eaa2a	-0.154946
181	0xbde8d4a0	-0.1136868
182	0xbdaeee63	-0.085415624
183	0xbbacec00	-0.005277157
184	0xbcd77bd8	-0.02630417
185	0xbd00632c	-0.031344578
186	0xbcc5a590	-0.024126798
187	0x3e402e19	0.18767585
188	0xbdd6c89e	-0.104874834
189	0x3e176275	0.14783652
190	0x3d3a1848	0.045433313
191	0x3e066fa7	0.1312853
192	0xbe238a60	-0.15970755
193	0x3e4988db	0.19681112
194	0xbe2e46c2	-0.1701918
195	0x3c33060a	0.010926733
196	0xbd92cbca	-0.07167776
197	0x3dac6824	0.08418301
198	0x3c9efdfd	0.01940822
199	0x3da2489d	0.07924006
200	0xbde44170	-0.11145294
201	0xbe00c204	-0.12574011
202	0xbe81434e	-0.25246662
203	0xbe1a5ccb	-0.1507446
204	0x3e0944b7	0.13405119
205	0xbe2cd5c2	-0.16878417
206	0x3df12498	0.11774558
207	0xbdafde03	-0.08587267
208	0x3df97a1e	0.12181495
209	0x3da4b4de	0.0804231
210	0xbe422368	-0.18958819
211	0x3e5c8592	0.21535328
212	0x3d4eb4b6	0.050465308
213	0xbe0776e6	-0.1322895
214	0xbe244ef0	-0.16045737
215	0xbe1d276e	-0.15347072
216	0xbdec1c7d	-0.11528871
217	0xbd7fd8a0	-0.06246245
218	0x3da77cf6	0.08178131
219	0xbd6ed172	-0.05830521
220	0x3d53a3bf	0.051669832
221	0xbe1bf38d	-0.15229626
222	0xbdecff2b	-0.11572107
223	0x3d63a959	0.055581424
224	0x3ba5bada	0.005057675
225	0xbde64247	-0.1124311
226	0x3e31be95	0.17357858
227	0xbd66c1ec	-0.056337282
228	0xbe02cd36	-0.12773594
229	0x3cdc7aa8	0.026913956
230	0xbdc4d877	-0.096116
231	0x3e330af9	0.17484654
232	0x3d585bec	0.05282204
233	0x3caa4ca8	0.020788506
234	0x3d97ad6a	0.07406123
235	0xbe10766b	-0.14107673
236	0x3cdc5e00	0.026900291
237	0xbe3f85b7	-0.18703352
238	0x3de8a0d6	0.11358802
239	0x3d91c4f2	0.071176425
240	0x3d6e0994	0.058114603
241	0xbe0d7cfe	-0.13817212
242	0x3e1b4b39	0.15165414
243	0xbd5273e0	-0.05138004
244	0x3d70e084	0.058807865
245	0xbda3279a	-0.07966538
246	0x3e42b3d9	0.19013919
247	0xbcdfeed8	-0.02733557
248	0xbe1a4d7e	-0.15068623
249	0x3de78b5e	0.11305879
250	0xbe372f7b	-0.17889206
251	0xbe427122	-0.18988469
252	0x3e19346e	0.14961407
253	0xbde1de58	-0.11028737
254	0xbe1030ad	-0.14081068
255	0x3e293e57	0.16527687

linear2.bias f4 [25]
0	0xbe26dab2	-0.16294363
1	0xbe4035ff	-0.18770598
2	0xbe2be445	-0.16786297
3	0x3ddb0936	0.10695116
4	0x3e4583e8	0.192886
5	0xbd364d38	-0.044507235
6	0x3df96764	0.12177923
7	0x3e2b1704	0.16707999
8	0x3e8fbd4b	0.28074107
9	0xbdec1ac7	-0.11528545
10	0x3ca738ad	0.020412767
11	0x3e5c47f3	0.21511821
12	0x3e6b83e7	0.22999536
13	0xbd308099	-0.04309139
14	0x3ddb9114	0.10721031
15	0xbdb4838f	-0.08814155
16	0x3c578ee9	0.013156631
17	0x3d3f5d02	0.04671956
18	0xbd89c3ca	-0.06726797
19	0xbe0cc786	-0.13747987
20	0xbddde4f0	-0.10834682
21	0xbd8c1b97	-0.068412
22	0xbd311cc5	-0.043240327
23	0xbe12a7c6	-0.14321813
24	0xbda90573	-0.082529925

linear3.weight f4 [1, 25]
0	0x3e1bd947	0.15219603
1	0x3e0cec27	0.1376196
2	0x3e5cd277	0.21564661
3	0xbe19ba52	-0.15012482
4	0x3e0a6141	0.13513662
5	0x3e18a365	0.1490608
6	0x3de35fda	0.111022666
7	0xbe1a7bb5	-0.15086253
8	0x3f51b0cf	0.81910414
9	0xbde7b820	-0.11314416
10	0xbca290c5	-0.019844422
11	0x3cef3b83	0.029203182
12	0x3e134858	0.14383066
13	0xbc84a98f	-0.016194133
14	0xbec80a2d	-0.39070264
15	0xbe2c8d92	-0.1685088
16	0x3d0d8e91	0.03455979
17	0xbf24f97c	-0.6444318
18	0xbcde7990	-0.027157575
19	0x3d0ba9e0	0.034097552
20	0x3ca247f0	0.019809693
21	0x3e20f9ff	0.15720366
22	0xbe1cf15c	-0.15326446
23	0xbe8f552a	-0.27994663
24	0xbd496b48	-0.049174577
