model_take_profit_cpu.pth (torch, 20167 bytes, 5 tensors)

linear1.weight f4 [25, 151]
000000 a0 f3 31 bc 30 68 39 bc c0 09 31 3c c4 77 87 3c
       -0.010861307 -0.011316344 0.010805547 0.0165366
000010 c0 2d d4 3b 4b 4c 13 bd a8 e4 ec 3c e6 af 52 bd
       0.0064751804 -0.03596143 0.028917626 -0.05143728
000020 b8 23 08 3c 2b 66 15 bd c8 3a 30 3d 68 37 4e bc
       0.008309297 -0.036474388 0.04302481 -0.012586452
000030 69 d1 84 bd d3 ba 83 bd 80 8c d2 3a 5e 15 08 3d
       -0.06485254 -0.06432118 0.0016063601 0.033223502
000040 b0 f9 09 bc 98 0c 26 bc 18 97 44 bc b0 1d 71 3c
       -0.008421347 -0.0101348385 -0.011998914 0.014716551
000050 60 06 86 bb 5f 5d 69 bd a0 c5 53 3c ec 6c a6 3d
       -0.0040901154 -0.05697381 0.012925535 0.08126244
000060 b8 41 a0 3c cb ae a5 bd 98 a6 24 3d da 02 1e 3d
       0.019562587 -0.0808998 0.04019794 0.03857694
000070 2b 4e 15 bd 50 9a df 3b 3d 2b 52 bd 2c d4 85 3d
       -0.0364515 0.0068238154 -0.051310766 0.06534609
000080 70 b6 a1 3d 2e c7 93 bd 72 f7 9f bc 3a 8c 43 bd
       0.07896125 -0.07215725 -0.01952717 -0.047741152
000090 a0 d4 23 3d e0 70 6e 3d dc 49 4d bd 2f c2 78 bd
       0.039997697 0.058213115 -0.050119266 -0.060732063
0000a0 d8 c9 98 3d ea b2 a1 3d 54 05 bc 3c b0 9d f5 3b
       0.07460374 0.07895453 0.02295176 0.0074956045
0000b0 f1 d0 9a bd 20 4a a2 bd ec ce 77 bd a3 f7 3c bd
       -0.07559384 -0.079242945 -0.06050007 -0.046134602
0000c0 a6 89 39 bd 10 23 41 3d 76 ba 91 bd 98 f9 eb bc
       -0.045297287 0.04715258 -0.07115643 -0.028805539
0000d0 8a c2 c3 bc b1 35 64 bd 50 bb 13 bc dc db 40 3d
       -0.023896474 -0.055715267 -0.009016827 0.047084674
0000e0 a0 e7 af bb 70 9b 84 3d 1e 4e a5 bc 78 ba e3 3c
       -0.005368188 0.0647496 -0.02017885 0.027798876
0000f0 48 0b ce 3c fd 6d 91 bd f4 1f f7 bc 00 30 c0 bb
       0.025151864 -0.07101057 -0.030166604 -0.005865097
000100 00 ec 24 bc a0 5d 8e 3b 56 8a 58 bd 9c 87 4c bd
       -0.010066032 0.004344657 -0.052866302 -0.049934015
000110 ea 54 94 3d 00 ef 36 3d 1d 67 18 bd 4c cd bc 3c
       0.072427586 0.044661522 -0.03720771 0.023047112
000120 0c 34 94 3d ba 5a 80 3d 18 44 61 bd 84 25 ef 3c
       0.0723649 0.06267305 -0.05499658 0.029192694
000130 b9 32 8f bd 8d 6b 14 bd bc 08 2d 3d c8 b4 89 bc
       -0.069920965 -0.03623538 0.042244658 -0.016809836
000140 44 b7 e4 3c 1a a9 9f 3d 44 c7 14 3d 66 2b 05 bd
       0.02791942 0.077959254 0.036322847 -0.03251209
000150 54 52 06 3d 73 0a 48 bd d8 9a 83 bc 1c 92 05 bd
       0.032793358 -0.04883809 -0.016065046 -0.032610044
000160 84 eb a5 bd 58 08 45 3d bc 01 8b 3c c8 73 99 3d
       -0.08101562 0.04810366 0.0169686 0.07492787
000170 20 a7 56 3d c3 5e 18 bd ee e4 b6 bc e8 02 09 bc
       0.052405477 -0.037199747 -0.022325959 -0.008362509
000180 2e 49 ec bc c4 1c a2 3d a2 b4 b8 bc c8 a8 c2 bc
       -0.028843489 0.07915643 -0.02254707 -0.023762122
000190 d0 ce 8e 3c 3f d9 2e bd 78 53 37 bc c4 df 4b bd
       0.0174326 -0.04268765 -0.011189334 -0.049773946
0001a0 30 e2 ba bb ee cc 8f 3d 26 28 76 bd f2 ae 83 3d
       -0.005703233 0.07021509 -0.060096882 0.064298525
0001b0 bc 25 1d 3d f2 0e 0e 3d bc db 20 3d 94 17 7d bd
       0.038366064 0.03468222 0.039272055 -0.061790064
0001c0 18 2f 6a bc e4 d8 89 3d b0 18 7d bd 9a 6d 78 bd
       -0.014293455 0.06730822 -0.061791122 -0.0606514
0001d0 ab 5b 95 bd 04 56 90 bd b8 3d 8f 3c ea c3 9f 3d
       -0.07292875 -0.07047656 0.017485484 0.078010395
0001e0 d9 e8 86 bd e8 7d 73 bd 1e 9a 91 3d c0 b9 2b bc
       -0.06587381 -0.059446245 0.07109474 -0.010481298
0001f0 14 f4 88 3c 48 e0 00 bc c4 a0 b2 bc f0 c3 aa 3c
       0.016717948 -0.007865973 -0.021805175 0.020845383
000200 da 22 84 3d 84 a3 43 3d 82 c3 11 bd 34 ce 74 3d
       0.0645196 0.047763363 -0.03558684 0.059766963
000210 50 db 85 3b a0 cf 9e 3b e0 a2 87 3b a8 3c 84 3d
       0.004084982 0.004846528 0.0041392893 0.06456882
000220 58 4d 58 3d 4f f5 84 bd d0 77 3e bc c0 c0 8b bb
       0.052808136 -0.064921014 -0.011625245 -0.004264921
000230 40 ba 1c 3b 9e bf 7d bd 76 51 97 bd 24 ae b9 bc
       0.0023914725 -0.06195032 -0.07388584 -0.022666045
000240 9a 7b 69 bd 8c 90 7a bd e8 fe 90 3d 08 2b 89 3c
       -0.05700264 -0.061173007 0.070798695 0.016744152
000250 08 ce 98 bc 4a c3 65 bd d8 94 1a bd d9 67 d9 bd
       -0.01865293 -0.056094445 -0.037739605 -0.106155105
000260 e2 fa eb bd 44 bd c9 ba 90 76 01 bd 2d 54 d4 ba
       -0.115224615 -0.0015391489 -0.03160721 -0.0016199403
000270 cc b1 f4 bc 19 73 3f be 16 2a 25 3d 2c ba 68 3b
       -0.029869936 -0.1869625 0.04032334 0.0035511358
000280 f7 51 9e bd f2 de 20 be 23 6a af bd 51 84 29 bb
       -0.07730477 -0.15710047 -0.08565166 -0.002586622
000290 d6 33 12 3e e1 13 0c 3e 91 f8 1f 3c 8c e1 78 3e
       0.14277586 0.13679458 0.009763853 0.2430479
0002a0 cc ea 1b 3e 6c 85 14 3e a8 dc ef 3d 14 0b 02 3e
       0.15226287 0.14504021 0.11712009 0.12699538
0002b0 8d 45 27 3e 36 e0 54 3e fd b0 23 3d fb a0 a9 bc
       0.16335125 0.20788655 0.03996371 -0.020706644
0002c0 9f a3 99 bd 4b ed ec ba a6 f1 5e 3d 34 7f 6c bd
       -0.07501911 -0.001807609 0.054429673 -0.057738498
0002d0 f7 e8 bb 3b a9 d2 1e be cd 6a 4e 3c 1a 9e 9a 3c
       0.0057345587 -0.15510048 0.0125987055 0.018874217
0002e0 4b 43 90 3d 53 2b ea 3d c8 b7 3f 3c 91 17 8e 3c
       0.07044085 0.11434045 0.011701532 0.017345222
0002f0 82 fe 4e bd 77 f6 8a bd ba 86 1c 3d d4 ba 47 be
       -0.050535686 -0.06785291 0.038214423 -0.19504863
000300 ec 53 5b 3c 72 04 ab 3c 00 4c 35 3e 68 fa 08 3e
       0.013386708 0.020876143 0.17704773 0.13376772
000310 39 9f 82 bc 2b ae 11 be d1 e0 e5 bd 19 03 6f 3c
       -0.015945064 -0.14226596 -0.11224521 0.014588141
000320 e5 b0 42 3e 6c 4a 54 be 48 0f f3 3d 3c 6f f0 3b
       0.19012792 -0.20731515 0.11868149 0.007337479
000330 39 75 98 3d 11 c6 19 3d 38 c7 37 bd 95 3c 3d 3d
       0.074442334 0.037542406 -0.044867724 0.046200354
000340 08 d4 2e be ee 48 58 3d f5 26 84 bc 5a dc 0a 3c
       -0.17073071 0.052803926 -0.016131857 0.0084753875
000350 a9 5f e5 bd c5 00 bc 3d a9 b3 55 3e d1 cf e8 3c
       -0.11199886 0.09179834 0.20869316 0.028419407
000360 67 bd 08 bd e3 bd 39 3e 42 28 8b 3d 83 8b f2 3c
       -0.033383753 0.18138842 0.06794788 0.02960754
000370 8f 36 06 3e cf d9 4d bd 31 58 02 3d c7 6b 92 3d
       0.1310675 -0.050256547 0.031822387 0.07149463
000380 17 8b 1c be a0 58 87 3d 81 ad 54 3c b0 5c 1a bd
       -0.15287434 0.06608701 0.01298082 -0.03768605
000390 de 42 96 bd 13 a2 56 bd f1 2c 91 bd e9 74 f0 bd
       -0.07336973 -0.05240066 -0.0708865 -0.11741049
0003a0 36 70 b5 bd e8 3a 78 3c c8 12 3d 3e 82 a1 12 3e
       -0.08859293 0.015150763 0.18464196 0.14319423
0003b0 2c 66 06 3e 6e 73 05 3e 91 b0 2f 3c b9 81 f8 3d
       0.13124913 0.13032314 0.010723249 0.12134118
0003c0 b8 68 60 3d e5 da c9 bc ef 94 93 3c 4c 84 92 3e
       0.054787368 -0.02464051 0.018015353 0.2861656
0003d0 2b 74 4e 3e 90 54 b2 3d bc 2c 98 bd 17 f6 b5 3c
       0.20161502 0.08707535 -0.074304074 0.022212071
0003e0 c6 17 4a bd bb d4 3f 3e 92 73 29 3e fa 8a c4 bd
       -0.04933908 0.18733494 0.16547993 -0.0959682
0003f0 26 41 5c 3d a0 57 7d bd e5 fe 08 3d c1 94 ab 3c
       0.053773068 -0.061851144 0.03344621 0.020944955

linear1.bias f4 [25]
000000 a8 d9 53 3c b6 0a 25 be d2 f1 b6 bd fe ff 80 3d
       0.012930311 -0.16117367 -0.08932842 0.06298827
000010 f3 35 3b bd a1 e5 96 bd 63 06 83 bb 4c 79 52 3e
       -0.045705747 -0.07368017 -0.003998564 0.20554084
000020 82 3c e9 3c 2b 35 fa bc 18 1d bb bd e8 bd 9b 3b
       0.028471235 -0.03054293 -0.091364086 0.004752863
000030 2e 1e 39 bd 5c ad 9b bd cc 3b a8 3c 65 ea 3d 3d
       -0.045194797 -0.07601425 0.020536326 0.046366114
000040 55 59 3f 3d 79 21 56 bd 8d e5 10 bd 2c 88 c6 bd
       0.046716053 -0.052278016 -0.035375167 -0.096939415
000050 7a cf 85 bd a5 1c 0a bc 13 eb 57 3e 44 04 27 3d
       -0.06533714 -0.008429681 0.21085767 0.040775552
000060 fe 25 0f 3e
       0.13979337

linear2.weight f4 [25, 25]
000000 08 30 3e 3d 65 fd 90 3e 20 f3 44 3e a9 3e f3 3d
       0.046432525 0.28318325 0.1923337 0.11877186
000010 dd da 00 3e 24 21 8b bd 81 89 07 3e 2e 17 0b be
       0.1258349 -0.067934304 0.13236047 -0.13583061
000020 64 33 6c 3e ea b7 93 3c 0e f5 d8 bc f4 37 1b 3e
       0.23066479 0.018032033 -0.026484039 0.15158063
000030 f2 dd d3 3d a2 35 92 3d e3 2e fd bd 2e 8b 98 3d
       0.10345067 0.07139136 -0.123624586 0.074484214
000040 ba 05 18 be 7e d3 04 bd 28 c6 b0 3c e5 8b 14 3e
       -0.14845935 -0.032428257 0.021578863 0.1450649
000050 cb ea 3a 3e e4 08 e4 3d 2f 93 52 3d 20 49 e3 bd
       0.18253629 0.11134508 0.051409896 -0.11097932
000060 27 f3 29 3e 5a c0 b2 3d c8 d4 80 be b4 53 01 be
       0.16596662 0.087280944 -0.2516234 -0.12629586
000070 6a 43 b0 3d f2 f3 06 3e 43 0f a4 bd 00 53 7c bd
       0.08606608 0.13178995 -0.080107234 -0.061602592
000080 f1 d3 45 be 07 ae 8b bd e7 17 41 be 7c 9f 06 be
       -0.1931913 -0.068203025 -0.18856774 -0.13146776
000090 be 19 7b 3d 5a bc 3e be 60 f4 24 be 40 9f fa 3c
       0.061303847 -0.18626538 -0.16108847 0.030593514
0000a0 58 18 86 bd 23 67 7f bd 2e f5 b9 3d 1e bd 90 3d
       -0.06547612 -0.06235422 0.090799674 0.07067321
0000b0 f3 65 13 bd 15 06 93 3c 8d 5a e2 bd a1 cb 60 3e
       -0.0359859 0.017947236 -0.110524274 0.21952678
0000c0 e4 2c 73 3d bd 6c 02 bc bd 76 23 be 4c 39 99 3d
       0.059368983 -0.007960496 -0.15963264 0.07481632
0000d0 f8 8c 9f 3d 57 70 0f be 30 e6 3d 3d 60 6c b1 bd
       0.077905595 -0.14007698 0.046362102 -0.08663249
0000e0 d2 74 2a be f0 bb 35 3e f5 c0 73 3e ed 96 24 3e
       -0.16646126 0.17747474 0.23804076 0.16073199
0000f0 cd 32 20 be 58 ab 04 bd 13 58 d6 bd 2a f1 ce bd
       -0.15644379 -0.03238997 -0.104660176 -0.10104592
000100 c6 48 25 be 0d b8 25 be 6e bf 73 3b ca f2 3a be
       -0.16141042 -0.16183491 0.0037192958 -0.18256679
000110 d4 a3 df bd 84 58 c3 3d 91 e1 e7 bd ce 22 eb 3d
       -0.109199196 0.095383674 -0.1132232 0.11481248
000120 25 e1 20 3e b1 67 30 3e a7 15 fd bd 8e ce fa 3d
       0.15710886 0.17227055 -0.123576455 0.122464284
000130 71 53 b5 bd 5f c1 17 bc cb 26 e3 bd f5 92 a8 3d
       -0.08853806 -0.009262412 -0.110913835 0.08231155
000140 e6 6d 03 be 00 37 d2 bd 26 2c ad 3d 9e 36 d7 bd
       -0.12834892 -0.10264397 0.08455686 -0.10508464
000150 c5 f4 04 3e d9 cf 22 3e c0 23 4a be 2d 10 0d be
       0.12983997 0.158996 -0.197402 -0.13775702
000160 f0 6f f3 bc 72 96 c4 3d de 37 d9 bd 58 b1 06 3e
       -0.029716462 0.09599008 -0.10606359 0.13153589
000170 5e 5c d2 3d ec a8 32 3e eb da 0c be 46 fe a2 bd
       0.10271524 0.17447251 -0.13755386 -0.07958655
000180 8a 52 39 3e 9a 6d 23 bc b7 6c d0 bd 60 ac 35 be
       0.18097892 -0.0099748615 -0.10176986 -0.17741537
000190 18 ac f9 3c 89 54 15 bc 85 1e 4c 3c 22 af c4 3d
       0.030477569 -0.009114393 0.012458448 0.096037164
0001a0 b2 7f 24 3e 40 2d 8d 3b 9e c6 b8 3d 7a 46 0b be
       0.16064337 0.0043083727 0.09022258 -0.13601103
0001b0 5e e3 d2 bd d3 04 08 be 1e 7e 3e 3d 7a 98 32 be
       -0.10297273 -0.1328309 0.046506993 -0.17440978
0001c0 d3 17 de bd 89 5f 36 3e c0 cd d4 bd 1a 5b a6 3d
       -0.10844388 0.17809881 -0.10390806 0.08122845
0001d0 6d 82 ce bd e6 a0 3c 3e e2 2c 3c 3e b6 cb 54 bd
       -0.100834705 0.18420753 0.18376496 -0.051952086
0001e0 f8 6c e1 bd b3 aa ae bd 8d 4d 0d 3e 33 f3 d8 bd
       -0.11007112 -0.08528652 0.13799115 -0.105932616
0001f0 9c df d7 bc 4c 9f 5f 3d 62 5e d3 be 68 cd 13 3d
       -0.026351742 0.054595277 -0.41282946 0.036084563
000200 00 d1 d1 ba aa 4b 62 be 30 37 94 bc 80 45 ec bd
       -0.0016007721 -0.22099176 -0.018092722 -0.115366936
000210 f5 97 7f 3e 06 fe 00 bb c0 5d e6 3c 60 b7 90 bb
       0.24960311 -0.001968266 0.028120875 -0.0044163913
000220 e3 e1 10 be 16 4a b7 3d c3 05 d2 bd 9d 63 15 be
       -0.14148669 0.08949678 -0.10255005 -0.1458878
000230 c6 69 52 be a0 15 68 bc 7d 41 13 be 78 9a 4f bd
       -0.20548162 -0.014165312 -0.1438045 -0.050684422
000240 34 74 ab 3d 5d 5f 03 be d2 2e 92 3d e6 3d 4f 3e
       0.08371773 -0.12829347 0.071378365 0.20238456
000250 ad f7 df bd 27 76 6e 3e e0 41 31 bd 6d 7f a2 3e
       -0.10935912 0.23287259 -0.043275714 0.31737843
000260 e0 ef e5 3d 25 06 40 3e 9c bd 32 3e d7 4b 36 be
       0.11227393 0.18752344 0.17455143 -0.17802368
000270 b3 43 69 bc 31 a9 ce 3c 69 7d 0b 3e 60 71 e0 3d
       -0.014237332 0.025227161 0.13622059 0.109591246
000280 5f c5 c9 bd be c6 01 3e 77 97 1d 3e 68 f3 a6 3c
       -0.09852099 0.1267347 0.1538981 0.020379737
000290 47 82 08 3e 67 57 10 3e 80 6a 2e be c9 81 12 be
       0.13330947 0.14095841 -0.17032814 -0.14307322
0002a0 91 f6 cc bd a2 77 97 3d b3 fe 98 3d 89 88 bf bd
       -0.10007966 0.07395865 0.07470455 -0.09352214
0002b0 4f 3c a9 bd eb fd 34 3e ae cb 28 be 52 70 ee 3d
       -0.08263456 0.17674987 -0.16483948 0.11642517
0002c0 84 fa ca 3d 4e 75 49 3e 18 7f 3d be 1b 1f ef bd
       0.09911063 0.19673654 -0.18505514 -0.11675855
0002d0 d8 ca 1f bd 41 2e ff 3d 37 13 08 be 4a 77 81 3d
       -0.039011806 0.12459994 -0.1328858 0.06321581
0002e0 48 28 8a bd 91 74 41 be 39 4c 30 be f2 57 fc 3d
       -0.06745964 -0.18892123 -0.17216577 0.12321462
0002f0 83 a4 29 be 60 c5 ee bb 96 c1 bd 3d 4b 98 5e 3d
       -0.16566662 -0.0072867125 0.09265439 0.054344457
000300 cc 59 2e bd 3f 38 48 3e 60 f4 bf 3a aa e6 c0 bd
       -0.042566106 0.19552706 0.0014644973 -0.09418996
000310 cb 1b 32 3e 1d fe bb bd c8 30 41 be 53 9e 94 3c
       0.17393415 -0.09179328 -0.18866265 0.018141901
000320 7e ed f3 3d 7f aa 9a bd 86 cf df bc 9f 5d 35 3e
       0.119105324 -0.07552051 -0.027320635 0.17711495
000330 6e 18 38 3e 9c 64 56 3d 4b 7f 31 bc 58 c2 89 bd
       0.17978069 0.052342042 -0.010833572 -0.06726521
000340 75 16 87 bd 2c 7a ad 3d 9c 44 53 be 2a c5 98 bd
       -0.0659608 0.08470568 -0.20631641 -0.07459481
000350 f2 fc 17 be c0 26 1d bb cc 21 39 bd d7 68 d4 3d
       -0.14842585 -0.0023979396 -0.045198247 0.10371559
000360 45 33 af 3d ce d5 e9 bd bd d4 51 bc 05 c7 4d be
       0.08554701 -0.11417733 -0.012807068 -0.20095451
000370 3e a1 2d 3e 95 b2 d4 bd 49 eb 9d bc fc 8f 6e 3d
       0.1695604 -0.10385624 -0.019277232 0.058242783
000380 51 9f e3 bd 18 cf 40 be 13 04 95 bd be 9c 1e 3d
       -0.111143716 -0.18829 -0.07276168 0.0387237
000390 33 80 2a 3e 07 1d b8 3d 83 9c 44 3e 2c 41 32 3e
       0.16650467 0.089899115 0.1920033 0.17407674
0003a0 a5 23 50 be 9f 1b 34 be 63 b2 d4 3d ee d9 07 3e
       -0.20326097 -0.17588662 0.10385587 0.13266727
0003b0 de 4e 21 3e 28 f5 6a bd 33 f5 0e be 80 fe 4a be
       0.15752742 -0.057362705 -0.13960724 -0.19823647
0003c0 dd 85 fc bd 44 17 d8 bd 53 34 f1 bd 6e 7d ca 3d
       -0.1233022 -0.105513126 -0.11777558 0.09887205
0003d0 f8 af d5 bd 6a 41 47 3d 4c 0b 20 3e 2f 93 9f 3d
       -0.10433954 0.048646368 0.1562931 0.07791745
0003e0 ea 72 d9 bd 38 42 1f be c0 7f 4f bd bb 04 88 3e
       -0.10617621 -0.15552604 -0.05065894 0.2656611
0003f0 66 03 f6 bd a6 d6 00 be 8d f3 45 3e 29 08 31 3e
       -0.12012367 -0.12581882 0.19331188 0.17288269

linear2.bias f4 [25]
000000 6a 26 58 3e 58 c0 1b be 3d 47 59 3e 34 06 61 3c
       0.21108404 -0.15210092 0.21218581 0.013734389
000010 af 36 0f 3e 31 f6 dd bd 31 16 59 3d 10 f0 1d 3d
       0.13985704 -0.10837973 0.05299968 0.03855902
000020 93 0b 99 bd 26 3c c9 3d 40 ee 61 bd aa 48 09 be
       -0.07472911 0.098259255 -0.055158854 -0.13406625
000030 e6 d3 9e 3d 7d a9 1a be 40 20 08 be 81 7e b7 3d
       0.0775526 -0.15103717 -0.13293552 0.089596756
000040 38 e5 86 be c4 11 9b bd 94 7b 21 bd 53 fa be bd
       -0.26346755 -0.07571748 -0.039424494 -0.09325089
000050 d6 10 8a 3d 28 6c 30 3e ac 41 b3 bb e7 47 ab 3d
       0.067414925 0.17228758 -0.005470475 0.08363324
000060 08 06 a4 bd
       -0.08008963

linear3.weight f4 [1, 25]
000000 cf 6d c8 3d f1 79 bd 3d 25 1f 66 3e f7 5c 9f bd
       0.09786569 0.09251774 0.22472818 -0.077814035
000010 5b 6f 03 bd 0d c8 a1 be 67 4f 9c 3d ca 8f d6 3d
       -0.03208862 -0.3159794 0.07632332 0.10476644
000020 fe 14 30 bd bb 98 3a be cd 7f 25 3e 70 98 f9 3d
       -0.04298877 -0.18222325 0.16162033 0.12187278
000030 73 4b 14 3d 17 90 3e 3e f0 b5 a2 be ae 38 65 be
       0.036204766 0.18609653 -0.31779432 -0.22384903
000040 07 a3 da be aa dd 9c 3d d4 d3 12 be 02 fd 31 be
       -0.42702505 0.076594666 -0.14338619 -0.17381671
000050 8b 00 21 3e 23 73 1e 3e 6f 10 a2 be 90 14 8b be
       0.15722863 0.15473609 -0.31653163 -0.27164125
000060 80 2f 21 3e
       0.15740776
