model_take_profit_cuda.pth (torch, 104015 bytes, 5 tensors)

linear1.weight f4 [100, 151]
-0.08681457 0.049415518 -0.047669273 -0.0077839447 -0.0421074 -0.0053878296 0.065167144 -0.013479345
-0.042294983 -0.050066315 0.04191232 -0.06985076 0.026144665 -0.06277184 -0.015514136 -0.06467736
-0.07510018 -0.045056436 0.04260323 0.024632348 -0.07916356 -0.085246466 0.0741264 -0.03783598
0.055803765 -0.03381759 -0.05079591 -0.07994859 -0.06806617 0.044876814 0.042920314 0.057316512
-0.080807574 -0.060417116 -0.004172462 0.072564214 0.04272347 0.014317572 -0.030235019 0.06369613
0.04653342 0.07251481 0.02425159 -0.058473844 0.03853626 -0.023294587 0.046776142 0.066207275
-0.033590343 -0.07213414 -0.015928332 0.073197156 0.044742115 -0.0010661469 0.0058092317 0.021153415
0.0046432405 0.02856224 -0.009787734 0.00614143 -0.056807734 -0.07753089 -0.06662832 0.009732458
0.008894973 -0.08073748 -0.016493892 -0.019215453 -0.045240276 -0.053262573 0.026544515 -0.07737411
-0.03152037 0.06378645 -0.04373618 -0.055678453 -0.0798692 -0.016057642 -0.031594675 -0.044323485
-0.009790433 0.053334698 -0.03879675 -0.07309818 -0.019494535 0.06348125 -0.064694025 -0.061548013
-0.03861784 0.062146295 -0.059508592 0.010340602 -0.051127143 0.07250264 0.0013581805 0.027181694
0.027618045 -0.05295384 -0.037421245 0.06512213 -0.026934547 -0.025458187 -0.009076329 -0.02975306
0.046533372 -0.043965988 -0.013160836 -0.017431378 -0.049726658 0.048929546 -0.058298286 -0.060397528
0.052497987 -0.04494357 -0.08323974 -0.010817421 -0.012146839 -0.053494375 -0.035645124 0.020384466
0.050251994 -0.012630276 -0.071041465 -0.01922255 -0.013002265 -0.07094606 0.008859655 0.043804366
0.03581452 0.04205323 -0.07817381 -0.066613086 0.041344907 0.054556742 0.01729689 -0.04795054
0.043606345 -0.047979694 -0.08744106 0.047351662 0.02990461 -0.007303883 -0.058044516 -0.05663572
0.027601006 -0.054498438 -0.08401917 0.0026672576 -0.025352042 0.031077016 -0.031655144 -0.066659294
0.04787938 0.021925444 -0.0321879 -0.070827246 -0.090304665 -0.17258316 -0.089997545 0.096058026
-0.11595042 -0.06046761 -0.057628922 -0.0760925 -0.12831809 0.07431732 0.07775363 -0.044861145
-0.027690021 0.0044094315 -0.16445936 0.04142655 -0.084255256 -0.050181355 0.1809442 0.1518254
0.018098313 0.03482061 0.01121902 0.07154825 -0.02385964 0.028250417 0.017013062 0.010218561
0.088266805 0.009620828 -0.058148738 -0.019134674 -0.050544348 0.08592206 0.027073424 -0.05131226
0.03804935 -0.018809559 0.038512606 0.031957597 0.093460225 -0.039074246 0.003646599 0.023367215
0.019921072 -0.11089186 0.099556744 0.0993943 0.09338693 -0.054511644 -0.029632078 -0.1446131
0.015027702 -0.039091423 -0.13103835 0.056769494 -0.03083659 -0.4405299 -0.20969678 0.14463641
0.14123261 -0.0946301 -0.00064039783 -0.038074672 -0.29118586 -0.19141069 0.10044941 -0.0731484
0.084835164 0.1815366 -0.020901762 0.026577832 -0.066608906 -0.010920721 0.06708415 -0.050386027
-0.09937909 -0.037941054 0.05314422 -0.030839715 0.058046423 0.09705442 0.026993966 0.041432086
0.07628913 0.03403972 0.03681659 -0.07559997 0.08336252 -0.03556292 -0.029191079 -0.006553001
0.075074084 -0.072366156 -0.08324044 -0.058103528 0.030523438 0.03698222 -0.08584655 -0.038790736
00000000: d6cb b1bd ed67 4a3d db40 43bd 7610 ffbb
00000010: cf78 2cbd 648c b0bb 5a76 853d 78d8 5cbc
00000020: 813d 2dbd 5612 4dbd 41ac 2b3d ea0d 8fbd
00000030: 562d d63c 868e 80bd 012f 7ebc 9075 84bd
00000040: 20ce 99bd 198d 38bd b980 2e3d c7c9 c93c
00000050: 8120 a2bd b395 aebd 95cf 973d e7f9 1abd
00000060: 7d92 643d 5084 0abd 5f0f 50bd 16bc a3bd
00000070: 4766 8bbd c0d0 373d 36cd 2f3d b8c4 6a3d
00000080: 717e a5bd f077 77bd 26b9 88bb 8c9c 943d
00000090: cefe 2e3d 4094 6a3c 6eaf f7bc 1e73 823d
000000a0: d499 3e3d a582 943d 45ab c63c 4582 6fbd
000000b0: 33d8 1d3d 4ad4 bebc 5798 3f3d ae97 873d
000000c0: 0796 09bd 10bb 93bd 227c 82bc 64e8 953d
000000d0: 8243 373d f4bd 8bba 5e5b be3b ed49 ad3c
000000e0: 5326 983b 5cfb e93c bb5c 20bc 0d3e c93b
000000f0: 3aaf 68bd 84c8 9ebd 6e74 88bd e374 1f3c
00000100: 39bc 113c b159 a5bd 331e 87bc ba69 9dbc
00000110: de4d 39bd db29 5abd e273 d93c 5176 9ebd
00000120: 811b 01bd 78a2 823d b524 33bd 170f 64bd
00000130: 7792 a3bd 518b 83bc 6b69 01bd 8b8c 35bd
00000140: 0d68 20bc 7c75 5a3d 57e9 1ebd 80b4 95bd
00000150: 01b3 9fbc 7502 823d 4d7e 84bd c519 7cbd
00000160: bd2d 1ebd 1d8d 7e3d 48bf 73bd a16b 293c
00000170: b26a 51bd 447c 943d fa04 b23a 25ac de3c
00000180: 3d3f e23c 20e6 58bd 0547 19bd c05e 853d
00000190: d7a5 dcbc b08d d0bc e2b4 14bc b0bc f3bc
000001a0: c799 3e3d ae15 34bd 8ca0 57bc 40cc 8ebc
000001b0: 2eae 4bbd 596a 483d 2fca 6ebd 6663 77bd
000001c0: 2108 573d c016 38bd 9979 aabd 8d3b 31bc
000001d0: 8903 47bc eb1c 5bbd 9f00 12bd 53fd a63c
000001e0: 09d5 4d3d 38ef 4ebc 307e 91bd 9c78 9dbc
000001f0: 7407 55bc 2b4c 91bd 1628 113c 356c 333d
00000200: 3fb2 123d 0240 2c3d 9719 a0bd 716c 88bd
00000210: 4759 293d e476 5f3d 35b2 8d3c c967 44bd
00000220: 919c 323d 5b86 44bd 4c14 b3bd d1f3 413d
00000230: 83fa f43c 6955 efbb 16c0 6dbd dbfa 67bd
00000240: 811b e23c c139 5fbd 3e12 acbd 28cd 2e3b
00000250: 16af cfbc 3a95 fe3c d3a8 01bd ab84 88bd
00000260: 2b1d 443d fd9c b33c 76d7 03bd e00d 91bd
00000270: a7f1 b8bd a4b9 30be a250 b8bd 12ba c43d
00000280: 6a77 edbd e2ac 77bd 4e0c 6cbd 62d6 9bbd
00000290: d165 03be ae33 983d 4c3d 9f3d 52c0 37bd
000002a0: 2fd6 e2bc fe7c 903b 0968 28be e3ae 293d
000002b0: 058e acbd f78a 4dbd 7049 393e 1e78 1b3e
000002c0: ea42 943c 0ea0 0e3d fbcf 373c e487 923d
000002d0: 4b75 c3bc 6b6d e73c fa5e 8b3c c06b 273c
000002e0: 3ac5 b43d ada0 1d3c 5f2d 6ebd 52c0 9cbc
000002f0: 9707 4fbd e8f7 af3d 16c9 dd3c ce2c 52bd
00000300: a3d9 1b3d 8116 9abc 65bf 1d3d f8e5 023d
00000310: 1368 bf3d 510c 20bd c7fb 6e3b 9a6c bf3c
00000320: 8431 a33c 461b e3bd 68e4 cb3d 3d8f cb3d
00000330: a641 bf3d 9a47 5fbd f9be f2bc 7515 14be
00000340: c036 763c 541e 20bd eb2e 06be 2187 683d
00000350: 049d fcbc 238d e1be c1ba 56be 911b 143e
00000360: 489f 103e 6dcd c1bd 5fe0 27ba 30f4 1bbd
00000370: 5016 95be 2a01 44be 6cb8 cd3d d4ce 95bd
00000380: 0fbe ad3d bbe4 393e 2c3a abbc c1b9 d93c
00000390: 406a 88bd d3ec 32bc 6a63 893d 9461 4ebd
000003a0: 4487 cbbd 1468 1bbd c1ad 593d 92a3 fcbc
000003b0: 16c2 6d3d 78c4 c63d 7322 dd3c b1b4 293d
000003c0: 7a3d 9c3d 3c6d 0b3d fecc 163d 28d4 9abd
000003d0: f8b9 aa3d 6daa 11bd 2122 efbc 8eba d6bb
000003e0: 71c0 993d b534 94bd f779 aabd f7fd 6dbd
000003f0: 4a0c fa3c ab7a 173d 51d0 afbd 09e3 1ebd

linear1.bias f4 [100]
0.039892316 -0.09891653 0.0010273413 0.03519194 -0.029445212 -0.002392267 -0.07943323 -0.060943652
-0.026674425 0.070883855 -0.05945052 0.017062157 0.079877615 0.0367588 0.06609167 -0.037104096
0.0015955325 0.009918898 -0.0649922 0.05494914 -0.045256842 -0.0071101417 0.05329057 -0.038591765
-0.03175881 -0.04508195 0.012871788 0.06506556 0.034448463 0.05834575 -0.055431362 -0.051418226
0.02560687 0.052825723 -0.076836914 0.02005821 -0.018355234 0.09153343 -0.021926723 -0.08527256
0.020244699 -0.07089967 -0.005989094 0.052328512 -0.0885939 -0.068078704 -0.06786559 0.0034229902
0.086630456 -0.04157408 -0.04975196 0.088017754 -0.010650337 -0.0034494817 -0.049130235 -0.023109673
-0.07430828 -0.053097546 -0.022599455 0.06475678 -0.028927619 -0.015834752 0.036384188 -0.03202637
0.004066047 -0.057354804 0.00497263 0.03154525 0.074336454 -0.053047586 0.013907714 0.049651388
0.047172368 0.028116597 -0.037001874 0.030708952 -0.04806927 -0.07485009 0.027080258 -0.03599005
-0.020036224 -0.02005337 -0.055436768 -0.03251471 0.059707485 -0.041090943 0.07196107 -0.057962626
0.038884483 0.046165228 -0.011358239 0.0088662105 0.045792848 -0.02122252 -0.013363205 -0.00019999593
0.03629423 -0.06189573 -0.024530917 -0.062413223
00000000: 2066 233d c094 cabd dba7 863a 6c25 103d
00000010: 1637 f1bc 95c7 1cbb e4ad a2bd 0da0 79bd
00000020: 5384 dabc 8e2b 913d 6382 73bd f0c5 8b3c
00000030: e096 a33d 6590 163d 125b 873d 77fa 17bd
00000040: 3021 d13a e082 223c a11a 85bd 5912 613d
00000050: 3d5f 39bd 31fc e8bb 3647 5a3d 6612 1ebd
00000060: 8715 02bd daa7 38bd 31e4 523c 1841 853d
00000070: d519 0d3d f4fb 6e3d ff0b 63bd eb9b 52bd
00000080: 80c5 d13c c95f 583d ac5c 9dbd 1d51 a43c
00000090: b75d 96bc e175 bb3d ac9f b3bc 61a3 aebd
000000a0: 36d8 a53c d933 91bd 2940 c4bb 6c56 563d
000000b0: b870 b5bd d96c 8bbd 1dfd 8abd 3f54 603b
000000c0: 4f6b b13d 9549 2abd b6c8 4bbd a742 b43d
000000d0: c07e 2ebc b310 62bb c93c 49bd 7f50 bdbc
000000e0: f12e 98bd d07c 59bd 7e22 b9bc 349f 843d
000000f0: 9df9 ecbc e2b7 81bc 9607 153d 152e 03bd
00000100: 793c 853b dfec 6abd 72f1 a23b 9835 013d
00000110: b63d 983d 6d48 59bd 2edd 633c 415f 4b3d
00000120: d037 413d c754 e63c 478f 17bd 5791 fb3c
00000130: 48e4 44bd 014b 99bd 6bd7 dd3c 4d6a 13bd
00000140: 0223 a4bc f746 a4bc aa11 63bd 252e 05bd
00000150: d68f 743d fa4e 28bd 5360 933d 386a 6dbd
00000160: 5645 1f3d c017 3d3d e817 3abc 9543 113c
00000170: 4891 3b3d dada adbc 58f1 5abc 00b6 51b9
00000180: 42a9 143d 6186 7dbd 10f5 c8bc 02a5 7fbd

linear2.weight f4 [100, 100]
0.045639165 0.03417284 0.042037107 -0.07672628 0.055029877 0.019005775 -0.034515813 -0.07310377
-0.06950994 -0.039749205 -0.067433104 -0.029177345 -0.04069233 -0.05736772 -0.0012319833 -0.020929858
0.017217264 0.05110968 -0.04523548 0.017176427 -0.023797356 0.011714887 0.08158413 -0.022824489
-0.07932395 0.047540512 -0.011713632 -0.04052693 0.04209337 -0.08294422 0.072429284 0.04751063
-0.076394595 0.06993044 -0.070968285 -0.06141896 -0.036557365 -0.051117267 -0.07337602 0.055667005
-0.10090672 -0.039323546 0.061995152 0.08878229 -0.08826908 0.095172234 -0.056067552 -0.09508766
-0.05797794 -0.04400475 -0.10824447 -0.08843018 -0.056949284 -0.10174131 -0.091862984 0.07655055
0.06581273 -0.051004514 -0.08489515 -0.009569843 -0.040746775 -0.020460024 0.021196645 0.046346433
-0.008692099 0.090746716 -0.06136588 -0.020417012 0.05333642 -0.03632351 -0.05282387 -0.045851856
0.0431116 -0.06307978 -0.06448472 -0.09750028 0.07681426 -0.07859399 -0.0055204034 -0.08900515
0.013173141 0.049336396 -0.022809483 0.023279406 0.059563823 -0.011435166 -0.09474905 -0.0018268079
0.040966593 -0.0101473555 -0.03837527 0.038663156 0.09185857 -0.059877682 -0.02814196 0.021425702
0.068742745 -0.043847397 -0.014225721 -0.09949897 0.018513717 0.060272478 0.06408084 -0.011234209
-0.07058386 -0.009873487 -0.014479972 0.013749301 0.013833784 -0.013811663 -0.034171864 -0.02170875
-0.026470676 0.08980676 0.08450032 0.03512826 -0.078216836 -0.04973879 -0.059961617 -0.0065306053
0.09716182 -0.012456574 0.040420003 -0.054707278 -0.033444762 -0.032780804 -0.012496971 0.013131216
-0.09098118 -0.07279277 0.060030364 -0.07923429 -0.06751362 0.042603336 0.010447845 -0.09679245
0.04458805 0.03605374 -0.037177466 -0.029256046 -0.017921902 0.09971344 -0.077681996 0.043206923
0.075163655 -0.057590425 0.01818043 0.01212801 -0.09441211 0.07979412 0.0033426434 -0.032799706
0.078631155 -0.012165144 0.07070624 0.0885477 -0.03725256 0.008129932 -0.029658638 -0.016213037
0.033111714 -0.078885734 -0.07359959 -0.08264434 0.032191418 -0.008907974 0.046516947 0.059343405
-0.036036953 0.07960305 0.026399277 -0.0051690713 0.061174534 0.05961726 -0.055202045 -0.07440038
-0.065727666 0.038503475 0.08542653 0.030941792 0.024136566 -0.011814728 -0.019136488 -0.04527661
-0.06075878 0.08086001 0.027065806 0.067146234 0.004316628 -0.058847535 -0.018841162 -0.097415626
-0.032673873 -0.06562565 0.09443366 -0.065780565 -0.06470537 -0.071778595 -0.013576046 -0.06101307
-0.03479258 -0.119510576 0.044917278 -0.01969155 -0.023928307 -0.047266535 0.031182759 -0.016944617
0.0073611108 -0.058460042 0.05754288 -0.06734829 0.021657981 -0.04079699 0.015853606 -0.083212055
0.0037534118 -0.023965701 0.0485085 0.009756714 0.08998741 -0.044837303 -0.117186844 0.045520965
0.07346198 0.049392156 -0.06277079 0.0049024452 0.060504522 -0.076019235 -0.04922126 -0.09892022
-0.06370872 0.02504802 0.11886235 0.06974804 0.024546029 0.13758369 0.012810852 -0.010694799
-0.014950341 -0.07388413 0.061828043 0.011326739 0.07126596 0.038734756 0.0061714984 -0.0152055705
0.008074216 -0.32536602 0.07689789 0.009611287 -0.08425839 -0.08589026 0.047353573 -0.04111133
00000000: 22f0 3a3d d2f8 0b3d 1a2f 2c3d ab22 9dbd
00000010: 0267 613d 00b2 9b3c 7460 0dbd 6eb7 95bd
00000020: 3a5b 8ebd 10d0 22bd 5e1a 8abd 5405 efbc
00000030: 00ad 26bd 6afa 6abd 807a a1ba 1875 abbc
00000040: 380b 8d3c 6258 513d d748 39bd 94b5 8c3c
00000050: acf2 c2bc ccef 3f3c 9515 a73d 6cfa babc
00000060: 9874 a2bd d7b9 423d 89ea 3fbc 91ff 25bd
00000070: 196a 2c3d a9de a9bd ce55 943d 829a 423d
00000080: c574 9cbd b137 8f3d d257 91bd 7392 7bbd
00000090: 2dbd 15bd 5760 51bd 2b46 96bd 1603 643d
000000a0: 2fa8 cebd ba11 21bd a1ee 7d3d 7dd3 b53d
000000b0: 6bc6 b4bd a9e9 c23d 17a7 65bd 52bd c2bd
000000c0: 477a 6dbd 533e 34bd 47af ddbd e21a b5bd
000000d0: a743 69bd bf5d d0bd a922 bcbd 89c6 9c3d
000000e0: d3c8 863d 1cea 50bd 82dd adbd d5ca 1cbc
000000f0: 17e6 26bd c89b a7bc 96a4 ad3c c2d5 3d3d
00000100: 4e69 0ebc 6ad9 b93d ca5a 7bbd 9441 a7bc
00000110: 4a77 5a3d f6c7 14bd d85d 58bd 28cf 3bbd
00000120: ca95 303d f92f 81bd 9110 84bd 3aae c7bd
00000130: cb50 9d3d e3f5 a0bd 80e4 b4bb 5548 b6bd
00000140: 28d4 573c f614 4a3d f4da babc 74b4 be3c
00000150: 32f9 733d 905a 3bbc ca0b c2bd 8071 efba
00000160: 96cc 273d 1841 26bc 632f 1dbd 425d 1e3d
00000170: 5920 bc3d 4d42 75bd f889 e6bc f484 af3c
00000180: ffc8 8c3d 5499 33bd 0013 69bc 1ec6 cbbd
00000190: 14aa 973c 46e0 763d d13c 833d b00f 38bc
000001a0: 458e 90bd 68c4 21bc 683d 6dbc c044 613c
000001b0: 18a7 623c 504a 62bc ccf7 0bbd 8cd6 b1bc
000001c0: 08d9 d8bc 9bec b73d 810e ad3d a6e2 0f3d
000001d0: 2630 a0bd e7ba 4bbd 509a 75bd b0fe d5bb
000001e0: c7fc c63d a816 4cbc 728f 253d bd14 60bd
000001f0: 60fd 08bd 2a45 06bd 18c0 4cbc 5024 573c
00000200: 5754 babd 6014 95bd 66e2 753d 9645 a2bd
00000210: 9544 8abd d680 2e3d 702d 2b3c 1f3b c6bd
00000220: f6a1 363d 16ad 133d 6647 18bd 60aa efbc
00000230: f4d0 92bc 8f36 cc3d bd17 9fbd bef9 303d
00000240: 67ef 993d f0e3 6bbd 20ef 943c 90b4 463c
00000250: 235b c1bd 196b a33d 4010 5b3b fc58 06bd
00000260: 5f09 a13d 5050 47bc 6fce 903d 7f58 b53d
00000270: 2496 18bd 6833 053c acf6 f2bc 34d1 84bc
00000280: 26a0 073d d88e a1bd 62bb 96bd 7041 a9bd
00000290: 26db 033d c0f2 11bc 8e88 3e3d 1212 733d
000002a0: 7c9b 13bd ed06 a33d 4c43 d83c 5061 a9bb
000002b0: 2692 7a3d 3a31 743d 8a1b 62bd 3a5f 98bd
000002c0: 3a9c 86bd d2b5 1d3d 1bf4 ae3d a479 fd3c
000002d0: 0cba c53c 9092 41bc 20c4 9cbc f773 39bd
000002e0: 33de 78bd ef99 a53d 1cb9 dd3c f783 893d
000002f0: 8072 8d3b 1d0a 71bd c858 9abc d881 c7bd
00000300: 0ad5 05bd be66 86bd 6f66 c13d f6b7 86bd
00000310: 4084 84bd a800 93bd 106e 5ebc d7e8 79bd
00000320: aa82 0ebd f6c1 f4bd 2efb 373d 2c50 a1bc
00000330: 4c05 c4bc 8e9a 41bd fc72 ff3c 70cf 8abc
00000340: 7935 f13b cc73 6fbd 15b2 6b3d e6ed 89bd
00000350: 146c b13c bf1a 27bd 6cdf 813c 156b aabd
00000360: cdfb 753b b853 c4bc d9b0 463d a0da 1f3c
00000370: 524b b83d 52a7 37bd a8ff efbd 3174 3a3d
00000380: 3c73 963d 6e4f 4a3d f98d 80bd b1a4 a03b
00000390: 97d3 773d f9af 9bbd 3b9c 49bd af96 cabd
000003a0: b879 82bd 8131 cd3c 1b6e f33d 0fd8 8e3d
000003b0: c114 c93c bde2 0c3e 9ce4 513c 3d39 2fbc
000003c0: 46f2 74bc 9050 97bd 673f 7d3d c993 393c
000003d0: e3f3 913d 56a8 1e3d 483a ca3b c920 79bc
000003e0: b749 043c 6096 a6be a47c 9d3d a978 1d3c
000003f0: aa8f acbd 3ce7 afbd d2f5 413d 5b64 28bd

linear2.bias f4 [100]
0.058946192 0.009856984 0.011849954 -0.07222805 -0.00018150778 -0.09630688 -0.10134684 -0.06464944
0.07226263 0.021165114 0.07051459 0.043437757 -0.057552017 -0.06282148 0.09986087 -0.080034204
0.11876336 0.014331927 -0.054329775 -0.056849957 0.028230082 -0.045211323 -0.02980143 -0.0977641
0.051731177 0.04154183 0.021243433 0.025085721 -0.06880692 0.0039971177 0.03568378 -0.09211753
0.06724208 0.0038100332 0.059840616 0.0044928687 0.092439465 -0.086156465 0.015763525 0.01374455
-0.0946381 -0.026161551 0.09769363 0.06253519 -0.098006666 0.0021961485 -0.105974026 -0.01741821
-0.02641963 0.06630018 0.06330545 -0.03809649 0.03352366 -0.10697641 0.05708856 0.014762662
0.08233199 -0.0263328 -0.03538543 0.018189086 -0.12763017 0.004445268 0.0646484 -0.06149358
0.040350255 0.030358333 0.083989 -0.02525211 -0.037688904 -0.012904494 0.09242032 -0.0009146187
0.08686643 -0.030724041 0.0394767 0.07637494 -0.06373556 0.020388646 0.05105293 -0.103495166
0.073795244 0.011347089 -0.11005917 -0.0010053117 0.0656766 -0.046994716 0.050953437 0.10447758
0.0034099764 -0.028004551 -0.02941279 0.06461232 -0.10322299 0.011701812 0.043440633 -0.060689595
0.03487837 0.034841504 -0.07941069 0.053438064
00000000: 9071 713d 307f 213c 4f26 423c 4dec 93bd
00000010: 2053 3eb9 8b3c c5bd ef8e cfbd ed66 84bd
00000020: 6efe 933d 7662 ad3c f469 903d caeb 313d
00000030: aabb 6bbd 8ca8 80bd db83 cc3d f9e8 a3bd
00000040: 343a f33d 75d0 6a3c e688 5ebd 80db 68bd
00000050: c642 e73c 822f 39bd 2122 f4bc 8b38 c8bd
00000060: 12e4 533d c427 2a3d b506 ae3c 9280 cd3c
00000070: a4ea 8cbd 41fa 823b 2829 123d 1ea8 bcbd
00000080: 37b6 893d c0b1 793b 6f1b 753d ea38 933b
00000090: e750 bd3d cd72 b0bd 8222 813c d230 613c
000000a0: 9fd1 c1bd c050 d6bc 9913 c83d 7312 803d
000000b0: b8b7 c8bd 42ed 0f3b e908 d9bd a2b0 8ebc
000000c0: fb6d d8bc 64c8 873d 4aa6 813d 110b 1cbd
000000d0: 1b50 093d 7316 dbbd b2d5 693d 18df 713c
000000e0: ad9d a83d e2b7 d7bc 50f0 10bd 4701 953c
000000f0: 7cb1 02be 9ca9 913b 6166 843d b1e0 7bbd
00000100: 4f46 253d 0ab2 f83c 6d02 ac3d 83dd cebc
00000110: ae5f 1abd 5f6d 53bc dd46 bd3d 06c3 6fba
00000120: 07e7 b13d fcb0 fbbc 52b2 213d 776a 9c3d
00000130: ca87 82bd 1706 a73c e11c 513d 46f5 d3bd
00000140: f621 973d 24e9 393c b466 e1bd aac4 83ba
00000150: 7481 863d 887d 40bd 8db4 503d 57f8 d53d
00000160: e979 5f3b cd69 e5bc 17f3 f0bc 7753 843d
00000170: 9366 d3bd f5b8 3f3c ceee 313d a795 78bd
00000180: 9fdc 0e3d f7b5 0e3d 12a2 a2bd dfe1 5a3d

linear3.weight f4 [1, 100]
-0.012885687 -0.06364654 0.071280174 -0.018854186 0.04029211 -0.096541084 -0.045840856 0.12690498
0.03701786 0.060456224 0.043025177 0.09214672 0.053809173 0.056112736 0.03930274 -0.13042752
0.07592803 0.07591505 0.05549412 -0.023997307 -0.057591736 0.051350713 -0.027442152 -0.0061464594
0.030898046 0.026807658 0.12307483 0.0061377976 0.0753378 -0.008263035 0.0009091528 0.22655207
-0.045376513 0.08296979 0.08067628 -0.0515621 0.03995131 0.056596525 -0.0045306874 -0.00013827691
-0.05229079 -0.0002601714 0.06498975 0.2711769 -0.2544051 -0.013328237 -0.020514714 0.05815419
0.0031012173 0.1019631 0.047597352 -0.030505758 -0.014501129 -0.060946565 0.087500945 0.065909825
-0.06984342 -0.056205306 -0.086683854 0.02431435 -0.023334537 -0.011586762 0.06246602 0.014573984
0.00028409963 0.0083831 -0.15661389 -0.04778322 0.020298116 0.09694515 -0.002525285 -0.037767548
0.20337129 0.2585676 -0.021353222 0.1487684 0.033699222 -0.08456275 0.046939906 0.036078047
-0.06253739 0.06923955 -0.03825675 0.09014301 0.05091448 0.040897742 0.049773462 -0.08989658
-0.06544308 0.007104744 -0.0020476126 0.027284391 0.064688414 -0.0251875 0.07350384 -0.033397544
-0.0046273763 0.072844595 -0.01741926 0.08030346
00000000: 7d1e 53bc 1e59 82bd 57fb 913d 1874 9abc
00000010: 5709 253d 55b7 c5bd 9fc3 3bbd 61f3 013e
00000020: 0aa0 173d f2a0 773d 2b3b 303d 6bb7 bc3d
00000030: 0267 5c3d 78d6 653d e9fb 203d cb8e 05be
00000040: 2880 9b3d 5a79 9b3d cd4d 633d 0096 c4bc
00000050: 50e5 6bbd 2055 523d 5dce e0bc 3d68 c9bb
00000060: e61d fd3c bc9b db3c a80e fc3d 941f c93b
00000070: b44a 9a3d ae61 07bc 3654 6e3a 44fd 673e
00000080: b9dc 39bd 11ec a93d 9b39 a53d c832 53bd
00000090: fca3 233d c2d1 673d 2976 94bb 6dfe 10b9
000000a0: de2e 56bd 9d67 88b9 5919 853d b3d7 8a3e
000000b0: 6341 82be ae5e 5abc 790e a8bc 1733 6e3d
000000c0: cb3d 4b3b 08d2 d03d 71f5 423d 36e7 f9bc
000000d0: 2596 6dbc 1ba3 79bd b233 b33d bbfb 863d
000000e0: 110a 8fbd 8937 66bd 4e87 b1bd e32e c73c
000000f0: 1228 bfbc 67d6 3dbc 5fdc 7f3d b8c7 6e3c
00000100: 35f3 9439 4559 093c 645f 20be 56b8 43bd
00000110: 3c48 a63c 2e8b c63d 407f 25bb 25b2 1abd
00000120: 9040 503e f962 843e f4ec aebc be56 183e
00000130: 3208 0a3d 3c2f adbd 0f44 403d 93c6 133d
00000140: 9a13 80bd 77cd 8d3d 1cb3 1cbd e69c b83d
00000150: b48b 503d 6484 273d 42df 4b3d b31b b8bd
00000160: 0607 86bd eace e83b 3d31 06bb 8483 df3c
00000170: 5c7b 843d 0456 cebc 2e89 963d ddcb 08bd
00000180: 3fa1 97bb 8c2f 953d d6b2 8ebc 2476 a43d
