model.pth (torch, 19975 bytes, 5 tensors)

linear1.weight f4 [25, 151]
0.005880958 0.05097806 -0.06702351 0.01750615 -0.032701727 -0.012367233 0.0060606087 0.045620974
0.029392932 -0.10257102 -0.19201161 -0.054665495 0.06074279 0.07317167 0.081446484 0.17761593
0.08386063 4.4635868e-05 0.05373947 0.045955352 0.036325626 0.15612575 0.08460885 0.009391474
0.12527128 0.09828817 0.07051726 0.013299316 0.053610522 -0.10726063 -0.0037845385 -0.036873776
0.078751914 0.01376327 0.0574269 -0.05166626 -0.018673524 0.009375353 0.030764183 0.04742805
0.039780848 0.102247186 0.091240466 0.026088484 0.10507276 0.00988657 0.012755692 -0.034377016
0.059604198 0.07849301 0.011741276 0.0183923 -0.05779733 0.010182052 0.054497883 -0.044085503
0.10240282 0.0337473 -0.015254553 -0.087041 -0.09122164 0.0071430304 0.23371969 0.06526433
0.14590843 0.12830442 0.12549216 -0.040762734 -0.0046268436 -0.001906033 0.06555569 0.033953406
0.042705324 -0.036606338 0.05187229 -0.0035955987 -0.031746924 -0.09565092 -0.053949423 0.047692765
-0.0021511957 -0.033843488 0.07774205 0.0421447 0.08582476 0.121474326 0.101506904 -0.044313274
0.10213508 -0.009113447 -0.012697955 -0.013585939 0.11105051 0.042602222 0.08694167 0.058184378
-0.04533698 -0.14276154 0.10732843 0.09225457 -0.06547857 0.0350245 -0.065813065 -0.02255838
-0.07206601 -0.066124246 -0.07705021 -0.06058169 0.036353134 -0.024916366 -0.005840066 -0.06743038
-0.04212905 -0.018961724 -0.025001083 -0.009525907 0.056663126 -0.07392349 -0.08691762 -0.060800463
-0.0011869369 -0.0061842306 -0.055715356 -0.0770425 -0.08179388 0.012325209 0.05902459 0.038154434
-0.0030960683 -0.006726356 -0.008053442 0.021818845 -0.045371804 -0.069552496 -0.07641511 -0.023178862
0.008110903 -0.021874283 -0.04367209 -0.025189057 0.009572045 -0.06948438 -0.027651947 -0.04310058
-0.007038734 0.06868696 -0.081471905 -0.08107691 -0.06354162 0.024944128 -0.12659664 0.15688966
0.020255076 -0.00899671 0.12950292 0.0316285 0.0016867187 0.07110296 0.04574265 -0.091257125
0.20040318 -0.015460489 -0.16664056 -0.006671944 0.031551026 -0.032314353 -0.008381264 -0.040715627
0.09964758 0.06358941 -0.037789803 -0.02501384 0.028091963 -0.10842398 -0.14143991 -0.09787239
-0.01608287 0.0053438293 -0.06350373 0.11891597 0.10114501 0.004352161 0.009664958 -0.013300087
-0.14376163 -0.029669816 0.08025949 0.11216699 0.1538955 -0.059443485 0.056366228 -0.03774487
0.0290338 -0.028223785 -0.09570815 0.0024630786 0.02000192 -0.075636454 -0.00043767778 0.09560072
0.06296489 0.29570442 0.11351562 0.20450038 0.038689703 0.07278954 0.096438885 0.0915224
0.17170452 -0.1306008 0.07240783 -0.07791557 -0.24335489 -0.049482875 0.09132909 -0.13022797
-0.041972753 0.103451766 0.018334465 0.16312702 -0.12811148 -0.15657026 0.040582493 -0.07277325
-0.075143404 -0.09522725 -0.09887703 0.048278015 0.09422691 0.08180049 0.09533741 -0.0016352754
-0.07754256 -0.15230384 -0.1784269 -0.12469368 0.038310453 0.11994067 0.14110067 0.022513818
0.022441033 -0.03131263 -0.11495953 -0.09479262 -0.14307995 -0.02586551 -0.09932189 -0.1074437
0.0040299813 0.035944425 0.045071907 -0.010083769 0.036996618 0.09102508 0.023347296 0.015309572
00000000: 0db5 c03b 5fce 503d 9f43 89bd 0f69 8f3c
00000010: 3ff2 05bd ef9f 4abc 1298 c63b 0fdd 3a3d
00000020: 72c9 f03c c110 d2bd b19e 44be ede8 5fbd
00000030: 6fcd 783d 07db 953d 6acd a63d f3e0 353e
00000040: 1fbf ab3d 6637 3b38 eb1d 5c3d ae3b 3c3d
00000050: 2eca 143d 6edf 1f3e 6847 ad3d b2de 193c
00000060: 1d47 003e 4f4b c93d 5a6b 903d 60e5 593c
00000070: b596 5b3d 76ab dbbd 0506 78bb f508 17bd
00000080: af48 a13d 577f 613c 7838 6b3d 00a0 53bd
00000090: 38f9 98bc 159b 193c 2b05 fc3c ea43 423d
000000a0: 3ef1 223d f966 d13d 48dc ba3d 84b7 d53c
000000b0: 6330 d73d 48fb 213c 40fd 503c eace 0cbd
000000c0: 8823 743d f1c0 a03d 7b5e 403c 73ab 963c
000000d0: e5bc 6cbd 9fd2 263c 2c39 5f3d 0093 34bd
000000e0: 92b8 d13d 9c3a 0a3d 3cee 79bc 8d42 b2bd
000000f0: 69d2 babd 1510 ea3b 3754 6f3e 4ea9 853d
00000100: 0569 153e 3c62 033e 0481 003e d3f6 26bd
00000110: c79c 97bb dbd3 f9ba 1042 863d ba12 0b3d
00000120: c7eb 2e3d 87f0 15bd 0a78 543d 23a4 6bbb
00000130: 1009 02bd a1e4 c3bd 12fa 5cbd 7d59 433d
00000140: 13fb 0cbb 789f 0abd 3937 9f3d ec9f 2c3d
00000150: e4c4 af3d 88c7 f83d dae2 cf3d d681 35bd
00000160: 322c d13d 9150 15bc 150b 50bc 8f97 5ebc
00000170: 736e e33d ab7f 2e3d 790e b23d be52 6e3d
00000180: 45b3 39bd 1530 12be 02cf db3d f7ef bc3d
00000190: a119 86bd da75 0f3d 00c9 86bd 5acc b8bc
000001a0: 5897 93bd 266c 87bd 80cc 9dbd 8224 78bd
000001b0: 06e7 143d 681d ccbc 065e bfbb f018 8abd
000001c0: 838f 2cbd 9e55 9bbc 12cf ccbc 8d12 1cbc
000001d0: 9817 683d 3365 97bd dd01 b2bd e809 79bd
000001e0: fe92 9bba 16a5 cabb c935 64bd 75c8 9dbd
000001f0: 8d83 a7bd acef 493c c5c3 713d d347 1c3d
00000200: 68e7 4abb c468 dcbb 96f2 03bc 6fbd b23c
00000210: c9d7 39bd 8a71 8ebd 867f 9cbd 99e1 bdbc
00000220: 98e3 043c b231 b3bc 81e1 32bd 4859 cebc
00000230: 11d4 1c3c d44d 8ebd 5686 e2bc 3c8a 30bd
00000240: 2ea5 e6bb c0ab 8c3d beda a6bd a70b a6bd
00000250: 1c22 82bd a157 cc3c 8da2 01be afa7 203e
00000260: f9ed a53c f066 13bc 6a9c 043e e38c 013d
00000270: e314 dd3a 6e9e 913d a55c 3b3d 04e5 babd
00000280: 7e36 4d3e fe4d 7dbc d3a3 2abe 53a0 dabb
00000290: a63b 013d 0e5c 04bd 9251 09bc 6ec5 26bd
000002a0: 0814 cc3d 2a3b 823d 7bc9 1abd d3e9 ccbc
000002b0: 1e21 e63c 640d debd a0d5 10be 5271 c8bd
000002c0: 39c0 83bc 4a1b af3b 3e0e 82bd 378a f33d
000002d0: 1d25 cf3d 939c 8e3b c659 1e3c 9ce8 59bc
000002e0: 4036 13be 1d0e f3bc 165f a43d cfb7 e53d
000002f0: c896 1d3e 037b 73bd 46e0 663d 5d9a 1abd
00000300: 4bd8 ed3c 9135 e7bc a202 c4bd 9a6b 213b
00000310: 11db a33c 49e7 9abd 1e78 e5b9 4fca c33d
00000320: bcf3 803d 9266 973e e17a e83d 8c68 513e
00000330: 1879 1e3d af12 953d c081 c53d 1970 bb3d
00000340: 4fd3 2f3e 37bc 05be 8e4a 943d 3392 9fbd
00000350: 0632 79be 8eae 4abd bf0a bb3d 7b5a 05be
00000360: 9feb 2bbd 85de d33d 2932 963c c50a 273e
00000370: a82f 03be f453 20be d439 263d 240a 95bd
00000380: c9e4 99bd 8106 c3bd 0a80 cabd 2bbf 453d
00000390: 0afa c03d 0487 a73d 4340 c33d bd56 d6ba
000003a0: a2ce 9ebd 8af5 1bbe 8bb5 36be 665f ffbd
000003b0: 6ceb 1c3d 74a3 f53d b27c 103e e66e b83c
000003c0: 42d6 b73c ac41 00bd e76f ebbd a222 c2bd
000003d0: 8d83 12be e8e3 d3bc 4669 cbbd 710b dcbd
000003e0: ef0d 843b 763a 133d 529d 383d 6536 25bc
000003f0: c489 173d 5b6b ba3d d442 bf3c 00d5 7a3c

linear1.bias f4 [25]
-0.06965464 0.0033891546 0.035736598 0.02595055 -0.030939892 0.051111132 0.15800376 -0.054608792
0.02400814 -0.046916883 -0.14672668 0.049056675 -0.006593628 -0.049381096 0.01844471 -0.021386156
-0.018639473 0.018114088 -0.07525762 -0.04813101 -0.053000506 0.15419567 -0.00061407685 -0.0153847365
-0.001822375
00000000: 18a7 8ebd 941c 5e3b 8a60 123d 3f96 d43c
00000010: a875 fdbc e859 513d bdcb 213e 78ad 5fbd
00000020: b8ac c43c eb2b 40bd 853f 16be a7ef 483d
00000030: 5c0f d8bb d543 4abd 5c19 973c 0532 afbc
00000040: cfb1 98bc ff63 943c ab20 9abd 0625 45bd
00000050: 0f17 59bd 78e5 1d3e 00fa 20ba 4310 7cbc
00000060: c2dc eeba

linear2.weight f4 [25, 25]
0.20698647 0.19883415 -0.023672193 0.12637319 0.08647992 -0.19606069 0.06434654 -0.037024893
-0.05498546 -0.18461461 0.12736027 0.022317266 -0.13011974 -0.17326902 0.13541235 0.022469107
-0.023024514 -0.027166143 0.008759301 0.06243868 0.013768166 -0.31625342 -0.14443025 0.13278425
0.1130721 -0.06458302 -0.081805125 0.09725151 -0.096916944 -0.10824714 -0.059842393 -0.15807204
0.015747666 0.11512175 -0.046889916 0.05982737 0.15458378 -0.1000255 -0.21482706 0.09241061
-0.11247333 0.136834 -0.03754439 0.047757387 -0.029262811 -0.15534127 0.028897634 -0.08606877
0.11624651 -0.044677366 0.25569332 -0.21363269 0.02533844 -0.26487097 -0.100649215 -0.11414323
0.22196513 -0.07932084 -0.02146773 -0.12505476 -0.06357978 -0.04934594 -0.101411544 0.22243743
0.16887976 -0.16172013 0.06776888 -0.0072947512 0.060303137 0.12453224 -0.13567647 -0.04423183
-0.0943157 -0.15291616 -0.1881027 0.04055769 -0.06696231 -0.19128023 -0.15282333 -0.07616895
-0.114024065 0.039260697 0.050893176 0.17745651 -0.11001987 0.10171465 0.06882934 -0.07104253
0.012428807 -0.008493543 -0.0013565719 -0.061013967 0.066528335 -0.16787507 -0.13793035 0.16499256
0.016144518 -0.07956481 -0.029485345 -0.03606336 -0.105246745 0.043636985 -0.19590482 -0.19469048
0.01673989 0.16006468 -0.16504396 -0.093595065 0.014033885 0.05915688 0.13002892 0.07198379
-0.10297623 -0.083525114 0.10759123 -0.1895993 0.093618706 0.16183652 -0.08700185 -0.17442393
-0.058657646 -0.05340581 -0.19318031 -0.07635881 0.012138705 -0.070053734 0.011040157 -0.026798408
-0.052977555 0.070115075 0.17852516 0.097755276 -0.07726934 -0.13202539 -0.03496006 -0.16996871
0.02221784 -0.08205083 0.08133217 0.0031958371 -0.019836947 -0.1841929 0.04191062 -0.04698345
0.14819922 0.045128614 -0.033574376 -0.035972446 -0.017202452 -0.1914097 0.102050506 -0.035473112
0.088534944 0.095321305 -0.07980561 -0.14281459 0.23893514 0.1953468 -0.112242796 -0.1544776
0.2894812 0.13501258 0.0265765 0.013219475 0.07183339 0.16471079 0.19211783 0.09470355
0.13320717 -0.047770858 0.09615804 -0.34812254 -0.019521639 -0.14942572 -0.10492587 0.0029686932
0.079300396 0.15940565 -0.045428883 0.157526 0.09452401 0.17826226 -0.15071161 0.06337241
-0.085455276 -0.048151903 -0.18137725 -0.1207399 0.1562157 -0.040991306 0.075480975 0.04823319
0.009860851 0.016366897 -0.19478178 -0.0064840317 0.04195698 -0.15615508 -0.19136453 -0.074430645
-0.15829748 0.20047447 -0.20633452 0.079320416 -0.065144226 -0.085237145 -0.013668117 0.025582433
0.17682548 -0.01965249 0.021848293 0.08487986 -0.0074692424 -0.08044844 0.061532393 0.04150082
-0.014628986 -0.17861047 -0.010378975 -0.043581083 0.041627377 0.034773488 -0.089836575 -0.15173729
-0.014901337 -0.115088366 -0.117399506 0.12834218 0.09842428 0.10503815 0.119697705 -0.049677543
-0.06305655 0.06004474 0.0647646 0.061546046 0.058986586 0.19306186 0.09910927 -0.1789829
-0.03766276 0.22939819 -0.009584296 -0.079031706 -0.06306219 0.12126239 -0.035229657 0.0075888634
-0.12525353 0.14075626 -0.07703832 0.21120358 -0.047338232 0.18864036 0.07184537 0.014506385
00000000: 43f4 533e 2e9b 4b3e 30ec c1bc f967 013e
00000010: 621c b13d 22c4 48be 1ec8 833d 6aa7 17bd
00000020: 6f38 61bd 9d0b 3dbe bb6a 023e b3d2 b63c
00000030: 1c3e 05be 6f6d 31be 89a9 0a3e 2211 b83c
00000040: e89d bcbc 888b debc 2c83 0f3c b4bf 7f3d
00000050: e093 613c f8eb a1be 86e5 13be 98f8 073e
00000060: 5892 e73d 1a44 84bd 7289 a7bd cd2b c73d
00000070: 647c c6bd adb0 ddbd 4c1d 75bd a3dd 21be
00000080: 4001 813c f4c4 eb3d a40f 40bd 8b0d 753d
00000090: 364b 1e3e 2bda ccbd a0fb 5bbe c641 bd3d
000000a0: 6b58 e6bd 361e 0c3e 25c8 19bd 409d 433d
000000b0: 90b8 efbc c811 1fbe bbba ec3c d344 b0bd
000000c0: a612 ee3d 9dff 36bd 3cea 823e 87c2 5abe
000000d0: 8f92 cf3c 2b9d 87be 2d21 cebd edc3 e9bd
000000e0: d44a 633e f772 a2bd 18dd afbc 5b0e 00be
000000f0: 1e36 82bd f81e 4abd dbb0 cfbd a3c6 633e
00000100: d1ee 2c3e f699 25be 69ca 8a3d cf08 efbb
00000110: 6c00 773d c20a ff3d c6ee 0abe 6f2c 35bd
00000120: 9728 c1bd 0e96 1cbe ff9d 40be d21f 263d
00000130: 8923 89bd f7de 43be b87d 1cbe 77fe 9bbd
00000140: 7385 e9bd d3cf 203d 5d75 503d 29b7 353e
00000150: 1952 e1bd c54f d03d 66f6 8c3d bf7e 91bd
00000160: 32a2 4b3c 8028 0bbc 00cf b1ba c8e9 79bd
00000170: 0240 883d 71e7 2bbe 9d3d 0dbe cff3 283e
00000180: 8241 843c e0f2 a2bd 408b f1bc 2cb7 13bd
00000190: 9b8b d7bd b2bc 323d 469b 48be f15c 47be
000001a0: 1822 893c ffe7 233e 4901 29be c5ae bfbd
000001b0: 61ee 653c 7c4e 723d 4d26 053e 3d6c 933d
000001c0: 34e5 d2bd 370f abbd ca58 dc3d 5226 42be
000001d0: 2abb bf3d 79b8 253e 072e b2bd 309c 32be
000001e0: 0043 70bd 0dc0 5abd 0fd1 45be 0262 9cbd
000001f0: 6be1 463c 5578 8fbd c6e1 343c 5688 dbbc
00000200: fefe 58bd 7e98 8f3d 4dcf 363e eb33 c83d
00000210: 633f 9ebd aa31 07be 4832 0fbd 470c 2ebe
00000220: 3002 b63c 440a a8bd 7b91 a63d 4071 513b
00000230: 1881 a2bc 109d 3cbe 78aa 2b3d b871 40bd
00000240: 89c1 173e c8d8 383d 4985 09bd d857 13bd
00000250: 28ec 8cbc e800 44be dbff d03d 414c 11bd
00000260: cf51 b53d d137 c33d 2071 a3bd fd3d 12be
00000270: 6aab 743e fe08 483e 8ddf e5bd 602f 1ebe
00000280: e136 943e bd40 0a3e f6b6 d93c 7f96 583c
00000290: 621d 933d f2a9 283e 89ba 443e eff3 c13d
000002a0: 7667 083e 60ab 43bd 82ee c43d 1e3d b2be
000002b0: d8eb 9fbc 0e03 19be 60e3 d6bd 688e 423b
000002c0: 3f68 a23d 3c3b 233e a313 3abd 7f4e 213e
000002d0: ce95 c13d 628a 363e 2554 1abe 65c9 813d
000002e0: 2d03 afbd ee3a 45bd f5ba 39be 7b46 f7bd
000002f0: 02f7 1f3e 80e6 27bd c595 9a3d 2a90 453d
00000300: 688f 213c df13 863c e074 47be 0078 d4bb
00000310: 15db 2b3d 1ee7 1fbe 10f5 43be 186f 98bd
00000320: bc18 22be 2e49 4d3e 5b49 53be be72 a23d
00000330: 566a 85bd d090 aebd 3df0 5fbc 4092 d13c
00000340: bd11 353e 42fe a0bc 31fb b23c 7ed5 ad3d
00000350: 8cc0 f4bb 27c2 a4bd 6409 7c3d c4fc 293d
00000360: 6aae 6fbc aae5 36be 940c 2abc 1482 32bd
00000370: 7881 2a3d a56e 0e3d 3dfc b7bd 0561 1bbe
00000380: bd24 74bc 73b3 ebbd 276f f0bd 226c 033e
00000390: ab92 c93d 3e1e d73d 1224 f53d ae7a 4bbd
000003a0: cb23 81bd 79f1 753d 4da3 843d b517 7c3d
000003b0: eb9b 713d 02b2 453e cdf9 ca3d 4b47 37be
000003c0: 4444 1abd 5ce7 6a3e 7307 1dbc 60db a1bd
000003d0: c026 81bd 6a58 f83d f94c 10bd 00ac f83b
000003e0: 7642 00be 6922 103e 44c6 9dbd c045 583e
000003f0: bce5 41bd f02a 413e aa23 933d 30ac 6d3c

linear2.bias f4 [25]
0.10773102 0.12954137 -0.14312278 0.014711452 0.02440222 0.08024097 -0.177873 0.1624129
0.033560254 0.2145789 -0.014980544 -0.120746925 -0.13426934 -0.07980874 0.19207917 0.07176383
-0.23922952 0.100415625 -0.045040745 0.15233043 -0.11198809 0.11102511 0.1313026 0.05709439
-0.0381897
00000000: 15a2 dc3d 7ea6 043e c78e 12be 4d08 713c
00000010: 2ae7 c73c 6155 a43d 5724 36be 914f 263e
00000020: 7a76 093d 92ba 5b3e f570 75bc 2a4a f7bd
00000030: e77d 09be c472 a3bd 67b0 443e eaf8 923d
00000040: 95f8 74be b5a6 cd3d a57c 38bd 82fc 1b3e
00000050: 035a e5bd 2261 e33d 3074 063e cfdb 693d
00000060: ce6c 1cbd

linear3.weight f4 [1, 25]
0.12243029 -0.06352321 -0.32848927 0.17740324 -0.14706385 -0.06414073 0.10004758 0.18897791
-0.18495892 0.20048518 -0.14969116 0.22105424 -0.5373288 -0.17531331 0.14649183 0.20376702
0.4987962 0.23865366 0.15535344 0.04702787 -0.114559166 -0.16079958 -0.30314833 0.30024922
-0.11808623
00000000: bbbc fa3d 7518 82bd bf2f a8be 32a9 353e
00000010: e897 16be 375c 83bd bfe5 cc3d 6d83 413e
00000020: df65 3dbe fd4b 4d3e a448 19be 0b5c 623e
00000030: 618e 09bf 5585 33be f401 163e 4da8 503e
00000040: 3762 ff3e a061 743e f914 1f3e 4ca0 403d
00000050: ff9d eabd a5a8 24be 4236 9bbe 44ba 993e
00000060: 31d7 f1bd
