model_take_profit_cuda.pth (torch, 104015 bytes, 5 tensors)

linear1.weight f4 [100, 151]
0	0xbd81057c	-0.06299874
1	0xbc380868	-0.011232473
2	0x3d50c7d4	0.05097182
3	0x3d7acba4	0.061229363
4	0x3d8a4312	0.06751074
5	0x3d538e08	0.051649123
6	0x3b115080	0.0022173226
7	0xbd95d3ec	-0.073158115
8	0x3c0538d0	0.008131221
9	0x3baaa800	0.0052080154
10	0xbc8e2dd0	-0.01735583
11	0x3d5e3a04	0.054254547
12	0x3bd576a0	0.0065143853
13	0x3d147326	0.036242627
14	0x3cf2d68c	0.02964332
15	0xbc319510	-0.010838762
16	0x3c6b8108	0.014374025
17	0x3ccf86e0	0.025332868
18	0xbac73bc0	-0.0015200302
19	0x3d342e4c	0.043989465
20	0xbc91ac8c	-0.017782472
21	0xbc281c90	-0.010260716
22	0xbda63ef3	-0.08117475
23	0x3d43ee3c	0.04783462
24	0x3d92a616	0.07160585
25	0xbd6c8b9c	-0.05775033
26	0xbd90a5eb	-0.07062896
27	0x3b907830	0.0044088587
28	0xbd690b96	-0.056895815
29	0x3d80d70a	0.062910154
30	0xbcf6d6f0	-0.030131787
31	0x3cc1a810	0.023639709
32	0x3bced810	0.0063123778
33	0x3d59d370	0.05318016
34	0xbd3ea72d	-0.04654615
35	0x3d468528	0.04846683
36	0xbbfc0a10	-0.007691629
37	0x3d04cb7a	0.032420613
38	0xbda2d012	-0.079498425
39	0x3d401fc0	0.04690528
40	0xbc9a64bc	-0.018846862
41	0xbd2bdfd8	-0.04196152
42	0xbd2358db	-0.03987966
43	0xba72cc80	-0.000926204
44	0xbda5372a	-0.08067162
45	0x3caac3a0	0.020845234
46	0xbbdc0b80	-0.006715238
47	0x3d5cbc34	0.053890422
48	0x3d65bed0	0.056090176
49	0x3d2ccad0	0.042185605
50	0x3b985920	0.0046492964
51	0xbceed5dc	-0.02915471
52	0xbd9ae8e2	-0.0756395
53	0xbda32d03	-0.0796757
54	0xbd7f6f33	-0.062361907
55	0xbb4048e0	-0.0029340312
56	0xbccfc9c0	-0.025364757
57	0xbce9685c	-0.028492145
58	0xbd133a10	-0.035944045
59	0xbd8d19ba	-0.068896726
60	0x3d521ff4	0.051300004
61	0xbb6cd020	-0.0036134794
62	0xbd43fb77	-0.047847237
63	0xbc8b9ff8	-0.017044052
64	0xbd48e142	-0.049042948
65	0x3c9ad9c0	0.01890266
66	0xbcbc6a9c	-0.023000054
67	0xbd208956	-0.039193474
68	0x3ce64908	0.028110996
69	0x3cf8cf54	0.0303723
70	0xbce3d0a4	-0.027809449
71	0x3d9bb0c0	0.07602072
72	0xbd25889f	-0.040413495
73	0x3d40c068	0.047058493
74	0xbd5d0932	-0.053963847
75	0x3bbb1d20	0.005710259
76	0x3d66abc0	0.056316137
77	0x3d993c5c	0.07482216
78	0xbc956824	-0.018238135
79	0xbd0ac6e4	-0.033881083
80	0x3d31fa4e	0.0434516
81	0x3d0fa654	0.035070732
82	0x3d4a00f0	0.0493173
83	0xbd59125c	-0.052996024
84	0x3d9e9756	0.07743709
85	0x3c1346d0	0.008989051
86	0xbd80b0c6	-0.06283717
87	0x3d88d252	0.066807404
88	0xbb264da0	-0.0025375858
89	0xbd7c8766	-0.061652564
90	0xbd92d939	-0.07170338
91	0x3d674358	0.05646071
92	0x3d98ee48	0.074673235
93	0xbd593aa4	-0.05303444
94	0xbd4b9cc5	-0.049710054
95	0xbd2df15b	-0.042466503
96	0xbcc3001a	-0.02380376
97	0xbd9b87bf	-0.07594251
98	0x3d97e8a4	0.074174196
99	0x3d634f44	0.055495515
100	0xbd740911	-0.05957896
101	0x3cc394e4	0.023874708
102	0xbc81aaa4	-0.015828438
103	0xbd874789	-0.06605441
104	0x3d528c9c	0.051403627
105	0xbd853fc5	-0.06506304
106	0x3ba9e4f0	0.005184762
107	0x3c4653d8	0.012104951
108	0x3beaea80	0.007169068
109	0x3d0a51f4	0.033769563
110	0x3cc06e48	0.023490086
111	0xbcc5935a	-0.024118114
112	0xbd8a2d2c	-0.06746897
113	0x3d5f0fb8	0.05445835
114	0xbd17633b	-0.036959868
115	0xbd0298d0	-0.031884015
116	0xbd9971b4	-0.0749239
117	0xbd645cbe	-0.05575251
118	0x3cf28300	0.029603481
119	0xbcc16552	-0.023607884
120	0xbd2899d1	-0.041162316
121	0xbce93630	-0.028468221
122	0x3d01ccf0	0.031689584
123	0xbc99bbd4	-0.018766321
124	0xbd28cbec	-0.0412101
125	0xbd0d2067	-0.03445473
126	0x3cacc170	0.021088332
127	0xbd18ec31	-0.037334625
128	0xbbaa9650	-0.005205907
129	0x3a084980	0.00051989406
130	0x3ce8544c	0.028360508
131	0xbd84bc90	-0.06481278
132	0x3d88627e	0.06659411
133	0x3ceda3a0	0.029008687
134	0xbd2ab384	-0.041675106
135	0x3c9c52a0	0.019082367
136	0x3d4f0fd0	0.05055219
137	0xbcf25134	-0.029579736
138	0xbd677112	-0.056504317
139	0xbd7d6a9c	-0.06186925
140	0xbc217c20	-0.009856254
141	0x3d94bb4a	0.07262285
142	0x3d10c2d2	0.035342045
143	0xbce1d1d2	-0.02756587
144	0x3d532e3c	0.051557764
145	0xbc02c038	-0.007980399
146	0xbb8e4530	-0.004341744
147	0xbca49966	-0.020092677
148	0xbc865cb0	-0.016401619
149	0xbd84ef0b	-0.06490906
150	0x3d4b7cec	0.04967968
151	0x3e0627ca	0.13101116
152	0x3a6b583d	0.0008977687
153	0x3d3e871e	0.046515577
154	0x3d127400	0.035755157
155	0x3d7fc75a	0.062445976
156	0xbdb88bfa	-0.090110734
157	0x3d55d969	0.05220929
158	0xbd006db4	-0.03135462
159	0x3d131139	0.035905097
160	0xbd457f8b	-0.048217338
161	0xbcdb2217	-0.026749654
162	0x3b0faac8	0.0021921862
163	0x3d3419c0	0.04396987
164	0x3d08d477	0.033405747
165	0xbcc6324c	-0.024193905
166	0xbda1fc4b	-0.07909449
167	0xbd013d82	-0.0315528
168	0x3d5c9f9e	0.05386316
169	0x3da3d575	0.07999698
170	0xbd681479	-0.05666015
171	0x3d5021ac	0.050813362
172	0x3b8b21cd	0.0042459727
173	0x3cba38fc	0.02273225
174	0x3d892d85	0.06698135
175	0x3cab9c98	0.020948693
176	0x3cb1715a	0.021660496
177	0xbc214e40	-0.009845316
178	0xbcc2a3c9	-0.02375974
179	0x3c87b50d	0.016565824
180	0xbc8c2389	-0.017106788
181	0x3db7a605	0.089672126
182	0x3d89f56c	0.06736264
183	0xbda26e8d	-0.07931242
184	0xbdbf70d0	-0.09347689
185	0x3cd3c7fa	0.025852192
186	0x3d9f703d	0.0778508
187	0x3d297d9e	0.041379564
188	0x3dccc8e3	0.099992536
189	0xb8f5e88c	-0.000117258256
190	0x3d813935	0.063097395
191	0x3da89119	0.082308
192	0x3cbc39b9	0.022976743
193	0x3c290798	0.010316752
194	0x3c233319	0.009960913
195	0xbdae2100	-0.08502388
196	0x3b21ee5c	0.0024708724
197	0x3b88441b	0.0041585094
198	0x3d56c879	0.05243728
199	0xbd928e01	-0.07155991
200	0x3ca1d34b	0.019754073
201	0x3dcd906b	0.10037311
202	0xbc01f2f7	-0.0079314625
203	0x3ddd73fd	0.10813139
204	0x3dc9acd7	0.0984742
205	0x3d35939c	0.044330224
206	0x3d9c9f88	0.07647616
207	0x3cabdef8	0.020980343
208	0x3d7e6c88	0.062115222
209	0xbdf8481d	-0.121231295
210	0x3e037406	0.12837228
211	0xbc12b81c	-0.008955028
212	0x3da25e31	0.07928122
213	0xbd561609	-0.052267108
214	0xbe246988	-0.16055882
215	0x3bf83b41	0.007575423
216	0xbdcf8b3b	-0.10133978
217	0xbdff416a	-0.124636486
218	0xbc909c7f	-0.017652748
219	0xbbb444ca	-0.0055013644
220	0xbd181ad2	-0.037134953
221	0xb907b56d	-0.0001294219
222	0xbe01f1a9	-0.12689842
223	0xbd9bf933	-0.0761589
224	0x3e19ade3	0.15007739
225	0xbc80f75f	-0.015742956
226	0x3c90e1b5	0.01768575
227	0x3d279c59	0.04092059
228	0x3d05b1b5	0.032640178
229	0x3d853b0a	0.065054014
230	0xbd2a3e0e	-0.041563086
231	0x3cbfcdfb	0.023413649
232	0xbc30c33f	-0.010788738
233	0xbcc10198	-0.02356033
234	0xbc614971	-0.01375042
235	0x3d582b59	0.052775715
236	0xbdb77980	-0.08958721
237	0xbd95c8dc	-0.073137015
238	0x3d64ceae	0.055861168
239	0x3d58d20e	0.0529347
240	0xbd5b7d9c	-0.053586587
241	0x3dcc52ca	0.09976728
242	0xbd9b43ae	-0.07581268
243	0xbdcef862	-0.10105969
244	0x3d918d8c	0.07107076
245	0xbd00fa2e	-0.03148859
246	0xbe09c5d4	-0.13454372
247	0xbcc01e86	-0.023452055
248	0x3d8ec035	0.06970254
249	0xbcb94189	-0.022614257
250	0xbdd58f0e	-0.10427676
251	0x3d2ed066	0.042679213
252	0x3cd4ddb2	0.025984619
253	0xbda1c2dd	-0.07898495
254	0x3b9f171b	0.0048550493
255	0x3d8efe34	0.06982079

linear1.bias f4 [100]
0	0xbd7acf20	-0.061232686
1	0xbc225fd7	-0.009910545
2	0xbdb1ef25	-0.08688191
3	0x3d871334	0.065954596
4	0x3bfb2975	0.007664854
5	0xbcde54f4	-0.027140118
6	0x3c8b3008	0.016990677
7	0x3d942540	0.072336674
8	0x3d40b180	0.047044277
9	0xbdb33b88	-0.08751589
10	0x3dded4b5	0.108804144
11	0x3cb3a557	0.021929426
12	0x3dd0e065	0.1019905
13	0x3d34ba76	0.044123136
14	0xbca7860a	-0.020449657
15	0xbd25df44	-0.040496126
16	0xbcc9382b	-0.024562916
17	0x3b78cbc0	0.0037963241
18	0xbc8fb4e8	-0.017542318
19	0x3d4e0539	0.05029795
20	0x3d84798b	0.06468495
21	0x3dc1245c	0.09430763
22	0x3def0725	0.116712846
23	0x3c665048	0.0140572265
24	0xbd19a4bf	-0.03751063
25	0xbbec1050	-0.007204093
26	0xbd89ef83	-0.06735136
27	0x3ce202de	0.027589258
28	0xbd2be7aa	-0.04196898
29	0xbd9118db	-0.07084819
30	0x3da6660a	0.08124931
31	0xbd53a624	-0.051672116
32	0xbcf4a2d7	-0.029862804
33	0xbdacdfe6	-0.08441143
34	0x3d181222	0.037126668
35	0x3ccab950	0.024746567
36	0xbcc62280	-0.024186373
37	0xbce83a48	-0.028348103
38	0x3d414441	0.047184233
39	0x3da1f72c	0.079084724
40	0x3d48f733	0.049063873
41	0x3d14dc03	0.036342632
42	0xbd104180	-0.035218716
43	0x3b8a2eb5	0.0042169937
44	0x3c040702	0.008058311
45	0x3ceffbd4	0.029294886
46	0xbcac22a6	-0.021012615
47	0xbd83e0a3	-0.064393304
48	0xbd969d8a	-0.07354267
49	0x3c9dd08e	0.019264486
50	0x3d1be9e9	0.03806487
51	0xbb9b1f30	-0.0047339424
52	0x3ca82751	0.02052656
53	0xbd3498ff	-0.04409122
54	0xbc7edc8f	-0.015555515
55	0xbd5061ee	-0.050874643
56	0xbd2696ee	-0.04067128
57	0xbd3ef093	-0.04661615
58	0xbd9ca6b5	-0.07648984
59	0x3d347ce8	0.044064432
60	0x3d2ee02f	0.042694267
61	0xbceccd4b	-0.028906485
62	0xbd70bc1c	-0.058773145
63	0xbb4905db	-0.0030673656
64	0xbd6fa980	-0.058511257
65	0xbd71b0b2	-0.0590064
66	0xbcfa15ef	-0.030528037
67	0xbd898641	-0.0671506
68	0xbd32040c	-0.04346089
69	0xbc89de54	-0.016829647
70	0xbc278f70	-0.010227069
71	0x3cd375e8	0.025813058
72	0xbc057a18	-0.008146785
73	0xbd9abf8f	-0.07556068
74	0x3c0a8e48	0.008456774
75	0xbc5f01a0	-0.013611227
76	0x3c1b7bc0	0.0094899535
77	0xbc44dd1a	-0.012015605
78	0xbd2ee4de	-0.042698734
79	0xbd899451	-0.06717742
80	0x3cb47d8b	0.02203252
81	0x3d464a08	0.048410445
82	0xbd6f169e	-0.05837118
83	0x3d7ca300	0.061678886
84	0xbd589754	-0.052878693
85	0xbb95b920	-0.0045691878
86	0x3d837d16	0.064203426
87	0x3cb47e48	0.022032872
88	0x3906c7ee	0.00012853715
89	0xbd37c36a	-0.044864096
90	0x3c6dd520	0.014516145
91	0xbd46e48e	-0.04855781
92	0x3d7b7885	0.061394233
93	0x3d801fc0	0.06256056
94	0x3d91bb54	0.07115808
95	0x3d9653b6	0.07340185
96	0x3d91929a	0.0710804
97	0xbda99161	-0.08279682
98	0x3d6e1555	0.058125813
99	0xbd3dd47f	-0.04634523

linear2.weight f4 [100, 100]
0	0x3d0bbff6	0.034118615
1	0x3dc92366	0.09821205
2	0xbda385d0	-0.07984507
3	0xbe87e7ba	-0.2654398
4	0x3d938acf	0.0720421
5	0xbd6a893d	-0.057259787
6	0x3cd06024	0.025436468
7	0x3d2fb686	0.042898677
8	0x3c924536	0.017855268
9	0x3d90bf46	0.070677325
10	0xbf5133d2	-0.81719697
11	0xbdb8b305	-0.0901852
12	0xbf80e8b9	-1.0071021
13	0x3daac540	0.08338404
14	0x3ce68524	0.028139658
15	0x3b93b552	0.004507699
16	0xbce6a874	-0.028156497
17	0x3d7eaa12	0.06217391
18	0x3dc04673	0.09388437
19	0xbe21dd7c	-0.15807146
20	0x3d738ad6	0.059458576
21	0xbe4abac5	-0.1979781
22	0x3dfc7b46	0.123282
23	0x3c6812a8	0.014164604
24	0x3c339030	0.01095967
25	0x3b1dbba0	0.0024068132
26	0xbd9c45e3	-0.07630517
27	0xbdd26e3c	-0.10274932
28	0xbdf8edd5	-0.12154738
29	0xbd98d2ce	-0.07462083
30	0xbd1e1347	-0.038592603
31	0x3c0dc998	0.008654021
32	0xbe1d84d9	-0.15382709
33	0xbdc03154	-0.093844086
34	0xbe1eab15	-0.1549495
35	0x3cd745e5	0.026278445
36	0xbda89ada	-0.082326606
37	0xbd744b1d	-0.059641946
38	0x3dd24989	0.10267932
39	0x3d78397a	0.06060169
40	0x3db38b2b	0.087667786
41	0x3dc8fcde	0.098138556
42	0x3d8713b1	0.06595553
43	0x3db254b7	0.08707564
44	0x3c8ad425	0.016946862
45	0x3d751e04	0.05984308
46	0xbdcb52ed	-0.09927926
47	0xbc875fe6	-0.01652522
48	0x3d4e45be	0.05035948
49	0xbdb4f4e8	-0.08835775
50	0x3db5a941	0.08870173
51	0x3da09f79	0.07842917
52	0xbe54c248	-0.20777237
53	0x3bf5c240	0.007499963
54	0x3d81a6c8	0.06330639
55	0x3c3b6a39	0.0114389
56	0xbd8c8203	-0.06860735
57	0xbdca8c9a	-0.09890099
58	0xbd5a5507	-0.053303745
59	0xbba0ef7a	-0.0049113603
60	0xbd0a7aea	-0.033808626
61	0x3cd47d81	0.025938751
62	0xbd21d1aa	-0.03950659
63	0xbf248341	-0.6426278
64	0xbe4eaad9	-0.2018236
65	0xbc4bafa8	-0.012432016
66	0xbdcc1d92	-0.099665776
67	0x3d47d830	0.048790157
68	0x3e0b2186	0.13587007
69	0x3d5ffba6	0.05468335
70	0x3dbe2219	0.09283847
71	0x3ccf4a0c	0.025303863
72	0xbca5d4b4	-0.020243026
73	0x3d3ca09f	0.046051618
74	0xbc5f00d0	-0.013611034
75	0x3da733a1	0.08164144
76	0x3d25ecc2	0.040508993
77	0xbda88c7d	-0.08229921
78	0x3d1df5b8	0.038564414
79	0x3d0f03e6	0.034915827
80	0xbbcb4a92	-0.006203958
81	0x3c61d198	0.013782881
82	0xbd353e2d	-0.04424875
83	0x3c14369f	0.009046226
84	0x3d257701	0.040396694
85	0xbd45293d	-0.04813503
86	0x3db1349f	0.08652615
87	0xbd7cf0f3	-0.061753225
88	0xbc96bc80	-0.01840043
89	0x3d2d4782	0.042304523
90	0xbd0f8de6	-0.035047434
91	0x3d8c7c6f	0.06859671
92	0xbc82081a	-0.015873004
93	0xbc82939a	-0.015939523
94	0xbc217e32	-0.009856747
95	0xbd6698b0	-0.056297958
96	0xbc9c83a8	-0.019105747
97	0x3df15d4d	0.11785374
98	0x3baa5524	0.005198138
99	0x3d6812f2	0.056658693
100	0xbdae4f38	-0.085112035
101	0xbd8acdfa	-0.06777568
102	0xbd7e7980	-0.06212759
103	0xbdaab618	-0.08335513
104	0xbdc736ef	-0.097272746
105	0xbd5662b0	-0.05234021
106	0xbd690860	-0.056892753
107	0x3ce40864	0.027836032
108	0xbd0711cd	-0.03297596
109	0x3c67ce68	0.014148332
110	0xbdc6151f	-0.09671997
111	0xbb3bac60	-0.002863668
112	0x3c7cb5d4	0.015424211
113	0x3bddc42e	0.006767771
114	0xbc2eaa40	-0.010660708
115	0x3db8e235	0.090275206
116	0x3c8f3008	0.017478958
117	0x3da74261	0.08166958
118	0xbc4ab098	-0.012371205
119	0x3d30fbb2	0.043208785
120	0x3d8375e7	0.064189725
121	0x3d862f77	0.06552022
122	0xbd2ece30	-0.042677104
123	0x3d2e1cf2	0.042508073
124	0xbd89f0ca	-0.0673538
125	0x3d029b6e	0.03188651
126	0xbd396ded	-0.04527085
127	0x3d99a5f1	0.07502354
128	0xbd94c9fd	-0.07265089
129	0xbc64763d	-0.013944206
130	0xbd8a4d52	-0.06753029
131	0x3c3a4da7	0.011371053
132	0xbda32b4c	-0.079672426
133	0x3ca3efb4	0.02001176
134	0xbd26cc0b	-0.040721934
135	0x3d77b429	0.06047455
136	0xbaac901b	-0.0013165505
137	0xbd33ef2d	-0.043929268
138	0xbe068e47	-0.13140212
139	0xbd02d5aa	-0.031942047
140	0xbcb35ec5	-0.021895776
141	0x3db0a803	0.08625796
142	0xbcc96720	-0.024585307
143	0xbdc59dcc	-0.09649238
144	0xbd75c28d	-0.05999999
145	0xbd869c2d	-0.06572757
146	0xbd88f9dc	-0.06688282
147	0xbd529227	-0.051408913
148	0x3cf20a6c	0.029545985
149	0x3dbf1a6b	0.09331211
150	0xbd0bc54c	-0.034123704
151	0x3d9a1635	0.07523767
152	0xbd0779ef	-0.03307527
153	0xbcf77fb8	-0.030212268
154	0xbd4d9d13	-0.050198626
155	0xbb6f20dc	-0.0036488092
156	0x3c8a9eb5	0.01692138
157	0xbca2fafc	-0.01989507
158	0x3d10894e	0.035287194
159	0x3d24348c	0.040089175
160	0xbdce47f3	-0.10072317
161	0xbd00ca7f	-0.031443115
162	0x3b65a0c0	0.0035038441
163	0xbdbf9867	-0.0935524
164	0x3d69631d	0.056979287
165	0x3d1511a2	0.03639377
166	0x3da81da1	0.08208776
167	0xbce8b008	-0.02840425
168	0xbc2594a6	-0.010106241
169	0xbdce82ce	-0.10083543
170	0xbd5f087a	-0.054451443
171	0xbdc5d46d	-0.096596576
172	0xbc75d2e8	-0.015003897
173	0x3c6e3bd8	0.014540635
174	0x3d27fd92	0.041013308
175	0x3dba7deb	0.09106048
176	0x3d967739	0.07346959
177	0xbcdc7b20	-0.02691418
178	0x3d8cf127	0.06881934
179	0x3bc2d380	0.005945623
180	0xbd21334d	-0.039355565
181	0xbdda5583	-0.10660841
182	0xbd313f3d	-0.0432732
183	0xbc111636	-0.008855393
184	0xbd7b60d6	-0.061371647
185	0x3dab77bd	0.08372448
186	0x3cca40f4	0.024689175
187	0x3d8b9997	0.06816404
188	0x3d24c321	0.040225152
189	0xbdcb0e6b	-0.099148594
190	0x3d83f854	0.06443849
191	0xbd79e0a4	-0.06100525
192	0xbc51b318	-0.012799047
193	0xbdebc9c0	-0.1151309
194	0x3d26cf16	0.040724836
195	0x3da86981	0.08223248
196	0xb9dd2d00	-0.00042185932
197	0x3d216cba	0.03941033
198	0xbd89010e	-0.06689654
199	0xbd971022	-0.07376124
200	0xbd52209d	-0.051300634
201	0x3db82326	0.08991079
202	0xbd09ca5c	-0.03364025
203	0x3d891853	0.066940926
204	0xbda10c2e	-0.07863651
205	0xbd7fd703	-0.06246091
206	0x3db7c1e5	0.08972529
207	0x3c1e34b0	0.009656116
208	0x3d2b85ba	0.04187558
209	0x3d929c7c	0.07158753
210	0x3d0f946a	0.035053648
211	0x3da4de1b	0.08050176
212	0xbcc6fc93	-0.024290359
213	0x3d2951b9	0.041337702
214	0x3d2b8a02	0.04187966
215	0xbd265b50	-0.040614426
216	0xbd5f1772	-0.05446572
217	0x3d8f8b6d	0.07009015
218	0xbbe6a110	-0.007038243
219	0x3d5d2a23	0.053995263
220	0x3d899024	0.06716946
221	0x3d067544	0.032826677
222	0xbe396d19	-0.18108024
223	0x3da94f3f	0.08267068
224	0xbda87a03	-0.08226397
225	0x3da9fe21	0.08300424
226	0xbc73b841	-0.0148754725
227	0x3dacce9e	0.084378466
228	0xbc979f99	-0.01850872
229	0xbad6e02c	-0.0016393713
230	0x3c9dcd58	0.019262955
231	0x3c694aad	0.0142389955
232	0x3e252016	0.16125521
233	0x3d7c3761	0.06157625
234	0x3df8be52	0.12145676
235	0x3ca8a9d0	0.020588785
236	0x3b906d85	0.004407587
237	0xbcba40c0	-0.022735953
238	0xbd45e48b	-0.04831366
239	0xbdacb0e0	-0.08432174
240	0xbd7a348a	-0.06108526
241	0xbd5fa07e	-0.054596417
242	0x3c91491c	0.017735057
243	0xbd9d9665	-0.07694701
244	0xbaf3e8cd	-0.0018608809
245	0x3d93af8c	0.07211217
246	0xbdb05fba	-0.086120084
247	0x3db11915	0.08647362
248	0xbd98e065	-0.07464675
249	0x3c460e7d	0.012088415
250	0x3c20ab8d	0.009806526
251	0xbd4d8b6d	-0.050181795
252	0x3df96d46	0.121790454
253	0xbd25504b	-0.040359776
254	0x3dcac9cf	0.09901773
255	0x3ce397d7	0.027782364

linear2.bias f4 [100]
0	0x3d6ab577	0.057301965
1	0x3d048952	0.03235752
2	0x3a840234	0.0010071457
3	0x3d95069d	0.07276652
4	0x3d94dd10	0.07268727
5	0xbdc1d713	-0.0946485
6	0xbd845eeb	-0.06463417
7	0x3dcb9c7b	0.09941956
8	0xbdc97eff	-0.09838676
9	0x3d0186da	0.031622745
10	0x3dd6f095	0.10495106
11	0x3d4885d9	0.048955772
12	0xbd18f2c9	-0.037340913
13	0xbd34a42a	-0.04410187
14	0xbdc48fd0	-0.095977426
15	0x3d2d1613	0.04225738
16	0xbb0896e1	-0.0020841884
17	0x3d7887e1	0.06067646
18	0x3dac0754	0.08399835
19	0x3ded905b	0.11599799
20	0xbddca733	-0.10774078
21	0x3d0841fa	0.033266045
22	0x3c4f9ef3	0.012672174
23	0x3dc45c31	0.095878966
24	0xbd1043c3	-0.035220873
25	0xbd412fd8	-0.047164768
26	0xbd92e051	-0.07171691
27	0x3d3197b2	0.04335756
28	0x3d0c28b5	0.03421851
29	0x3dc3968b	0.09550198
30	0x3ddff28a	0.109349325
31	0x3d84af70	0.064787745
32	0x3bcd5c49	0.0062671048
33	0x3d724258	0.0591453
34	0x3e06c76a	0.13162008
35	0x3e0d02ac	0.1377055
36	0xbd1ed5e9	-0.03877822
37	0x3d49987b	0.049217682
38	0xbda02c42	-0.078209415
39	0x3cb8bb1e	0.022550162
40	0xbda2218b	-0.07916554
41	0x3dea658d	0.114451505
42	0xbdc37506	-0.09543805
43	0x3c398097	0.011322162
44	0x3d6643b9	0.05621693
45	0xbd7f787e	-0.06237077
46	0x3d2c0d7b	0.042005043
47	0xbd2631e0	-0.04057491
48	0x3d38e3a6	0.045138977
49	0x3e0acb4f	0.13554119
50	0xbc8f9e3f	-0.017531512
51	0x3d9b1078	0.075715005
52	0xbd1e2769	-0.038611803
53	0x3d6c81a6	0.05774083
54	0x3cea4c5b	0.028600862
55	0x3c8d225c	0.017228298
56	0x3d6c4a75	0.057688195
57	0xbdc69130	-0.09695661
58	0xbd09075c	-0.033454284
59	0x3d3bf7a2	0.045890458
60	0x3d1f967f	0.038961884
61	0xbd2fbfc6	-0.0429075
62	0xbd594a37	-0.053049292
63	0xbd327dd8	-0.043577045
64	0xbd0122c5	-0.0315273
65	0xbdc6dd15	-0.09710137
66	0x3da6eca7	0.081506066
67	0x3d9a4123	0.07531955
68	0xbd5a2bc2	-0.053264387
69	0x3c1dfbaa	0.009642521
70	0xbdd8b5a0	-0.10581517
71	0x3cfefe4d	0.03112712
72	0x3d80e29e	0.06293224
73	0x3c5b7c52	0.0133963395
74	0x3d9f7542	0.07786037
75	0x3dd046e8	0.10169774
76	0x3daaf41f	0.08347344
77	0xbbe6cd18	-0.007043492
78	0x3d7ed410	0.062213957
79	0x3dca370e	0.09873782
80	0xbdda4731	-0.1065811
81	0x3de8156a	0.113322094
82	0x3deacc7b	0.11464783
83	0xbda5a419	-0.0808794
84	0x3d0eec04	0.03489305
85	0x3dd2d188	0.10293871
86	0xbd865264	-0.065586835
87	0xbd8af64c	-0.06785259
88	0xbce7c498	-0.028291985
89	0xbd5529c4	-0.052041784
90	0x3d90557e	0.07047556
91	0x3de27db3	0.110591315
92	0xbd4c8867	-0.04993477
93	0x3d35eed3	0.044417214
94	0x3db851eb	0.089999996
95	0x3df866f9	0.121290155
96	0x3c7d5dbc	0.015464243
97	0x3df89884	0.12138465
98	0x3d2a4d42	0.041577585
99	0x3dc3ca16	0.09560029

linear3.weight f4 [1, 100]
0	0x3e875fe0	0.26440334
1	0xbbb42f60	-0.0054988116
2	0x3d83064e	0.06397687
3	0x3df27a08	0.11839682
4	0x3d209942	0.039208658
5	0x3d6626af	0.056189235
6	0x3b81c3d4	0.003960112
7	0x3ccb93c8	0.024850741
8	0xbd21b425	-0.03947844
9	0x3d668051	0.056274716
10	0x3d31716a	0.04332105
11	0xbd6ae9bb	-0.05735181
12	0x3ab18959	0.0013544961
13	0x3b9846dd	0.0046471194
14	0x3d44c486	0.04803898
15	0xbd83313f	-0.06405877
16	0x3d62ab54	0.055339172
17	0xbd35c422	-0.0443765
18	0x3db2f3c4	0.08737901
19	0x3db6df48	0.08929306
20	0xbd6fdfb7	-0.05856296
21	0xbd0c885d	-0.034309734
22	0x3e11e95f	0.1424918
23	0x3d7017a9	0.058616314
24	0xbd55f595	-0.05223616
25	0x3ebef54f	0.3729653
26	0xbd7d219b	-0.061799627
27	0x3d9e605a	0.07733221
28	0x3c1a44c8	0.009415813
29	0x3d51173a	0.05104754
30	0x3e499a35	0.19687732
31	0xbd8d1659	-0.06889028
32	0x3e886a63	0.26643667
33	0xbc791f89	-0.0152052725
34	0x3cef4ac3	0.029210454
35	0x3d8a215d	0.06744645
36	0xbd733252	-0.05937416
37	0x3d7b6a49	0.06138066
38	0x3d4c86e2	0.04993332
39	0xbda3d7fb	-0.080001794
40	0xbdac4535	-0.08411638
41	0x3de4b072	0.11166467
42	0xbd0100b5	-0.031494815
43	0x3db6d13f	0.08926629
44	0x3d99e448	0.07514244
45	0xbc902260	-0.017594516
46	0x3e0350f4	0.1282385
47	0xbcae808c	-0.02130153
48	0x3dae758e	0.085185155
49	0x3d6c463f	0.05768418
50	0xbde2830e	-0.11060153
51	0x3da15171	0.07876862
52	0x3b9b951b	0.0047479994
53	0x3d46f596	0.048574053
54	0x3dc2a4fb	0.09504124
55	0xbdbc8e15	-0.092067875
56	0x3d774b22	0.060374387
57	0xbc36c535	-0.011155416
58	0x3d9a393d	0.075304486
59	0x3db41cc7	0.08794551
60	0x3b20f66c	0.0024560941
61	0x3aef20c0	0.0018244013
62	0x3d154c1f	0.036449548
63	0x3b2237f7	0.0024752596
64	0xbdcdf0af	-0.100556724
65	0xbc884ad4	-0.016637243
66	0x3cfb8b39	0.030706035
67	0xbc74aea6	-0.014934218
68	0x3da5ffa8	0.08105403
69	0xbdeba56a	-0.115061596
70	0xbd19cd85	-0.037549514
71	0x3e2e9282	0.17048076
72	0x3dafe05a	0.085877135
73	0x3db6889b	0.08912774
74	0x3dd2f910	0.10301411
75	0x3dcc801a	0.09985371
76	0x3d7b901d	0.061416734
77	0xbd89e585	-0.067332305
78	0xbe744108	-0.23852932
79	0x3dc8bf63	0.09802129
80	0x3d098e63	0.033583056
81	0x3da0fc27	0.07860594
82	0x3e8f76ef	0.28020427
83	0xbdb25ed9	-0.08709497
84	0x3d9fdef1	0.078061946
85	0x3d072a4c	0.03299932
86	0x3e921e0a	0.28538543
87	0xbe8d3d57	-0.2758586
88	0xbdc916a2	-0.0981877
89	0x3ce206a4	0.027591057
90	0xbe4de42d	-0.20106573
91	0x3d49d17a	0.049272038
92	0x3cefdd73	0.0292804
93	0xbc1bc739	-0.009507948
94	0x3d67eb26	0.05662074
95	0xbdd7c8c6	-0.10536341
96	0xbc94693d	-0.018116588
97	0xbe49e532	-0.19716337
98	0x3d219bce	0.039455228
99	0xbd0ae067	-0.033905413
