model_stop_loss_cuda.pth (torch, 103935 bytes, 5 tensors)

linear1.weight f4 [100, 151]
-0.069768354 0.008126465 -0.008404749 0.07476765 -0.038720265 0.05070376 -0.062676765 -0.0716591
-0.013472209 0.0055910368 0.052417543 0.003203609 0.022104882 0.0037971223 0.03534845 0.057743765
-0.029590651 -0.029131554 -0.0065584453 -0.086186215 0.075035825 -0.055361945 -0.061490517 0.07228096
-0.085746124 -0.0031160025 0.029569138 0.05019019 -0.06349664 -0.04085041 -0.054077014 -0.0221143
-0.07531962 -5.520826e-05 0.054378953 0.010599261 -0.03919441 0.068472624 0.050102245 -0.017059967
0.055939894 0.020673715 0.014571391 0.038734805 -0.03110328 0.05145588 -0.061297003 0.014148196
-0.023449017 0.051108625 0.004820892 -0.03153295 0.0470653 -0.012393059 -0.07788192 -0.018363906
0.0034567036 -0.05183147 -0.060565148 0.039489415 -0.05820292 0.0018728612 0.07513785 -0.0572048
0.0066690543 -0.035575777 0.015161873 -0.030916627 0.0046932567 -0.031038348 -0.05881497 -0.011827419
-0.0855972 0.067001134 -0.0452408 -0.046175126 0.07303202 -0.009395631 -0.028101638 -0.070450865
-0.015373268 0.008591373 -0.0004007271 0.028038703 -0.021320976 0.050574493 -0.086594954 -0.046227165
-0.08618961 -0.058582794 -0.02362757 0.07063694 0.057483934 0.03278296 0.07522932 -0.07678336
0.0036445195 -0.04881511 0.0019257822 -0.064222835 0.021956116 -0.065936744 0.048820745 -0.03854357
0.054281425 -0.056533772 0.07483181 0.004743101 0.04624739 0.06634951 0.055928018 -0.08673775
0.020297214 -0.028376788 0.035171855 0.03670654 0.060525816 -0.059825722 0.0545084 0.036180515
0.04357208 -0.012033761 0.02354952 0.07360673 0.06353374 -0.052319318 -0.009394969 0.014300093
0.05076283 -0.04352055 -0.0034591237 -0.033716246 -0.025827028 -0.05205757 -0.017165728 0.046962243
-0.03953836 -0.053580675 -0.029096585 -0.06998475 -0.08339025 0.0071540507 -0.0066115023 -0.00082712463
-0.02876041 -0.0010790587 -0.06939733 -0.06693202 0.0038147343 -0.08003149 -0.027891343 -0.03600405
-0.012161935 -0.072719626 0.039800983 -0.02215521 0.043988924 -0.022458248 0.0012035309 0.06887409
-0.07801534 0.012899009 -0.08034213 0.014900101 -0.056005992 0.0018290294 0.015196786 -0.016666563
-0.010022286 -0.020624764 -0.072048314 -0.0077214073 -0.0483325 -0.08229182 0.054540064 0.06759739
-0.03761233 -0.07768007 0.02798079 -0.04414571 -0.01680273 -0.061021093 0.020071186 0.032668035
-0.053247813 0.010296492 0.06923087 -0.0028793353 -0.021321878 -0.024552599 0.053696644 -0.020724043
-0.05351207 -0.027881335 -0.0034904303 -0.070066385 -0.018194666 -0.0042713103 -0.039130285 0.03717644
-0.055344388 -0.07655768 0.070137665 -0.02353479 -0.06552159 -0.037292507 -0.06080298 0.07393178
0.018467568 0.07130127 0.001929566 0.06245501 -0.06170595 0.023470782 -0.062171858 0.00029241416
-0.064073816 -0.012144849 0.06270054 0.0040327623 -0.025230698 -0.009427357 0.06563477 0.045289602
0.04639725 -0.042777963 0.06850441 0.057785608 -0.059738632 -0.06710133 -0.062082723 0.052734118
0.037834134 0.04868212 0.02135764 -0.038121466 0.06342387 -0.034961358 -0.06934878 -0.045733813
0.05331285 -0.021628305 0.013228681 0.04420906 -0.004961002 -0.03309969 0.031349268 -0.014316733
0.020314872 -0.0054936684 -0.052313197 0.0474461 -0.038065773 0.04191528 -0.030762013 -0.015782388
00000000: b6e2 8ebd dd24 053c 13b4 09bc c81f 993d
00000010: 2499 1ebd bfae 4f3d ad5c 80bd 02c2 92bd
00000020: 8aba 5cbc 0435 b73b c7b3 563d a4f3 513b
00000030: 4c15 b53c 24d9 783b 89c9 103d ba84 6c3d
00000040: 1868 f2bc 4ca5 eebc 3ae8 d6bb 6682 b0bd
00000050: 62ac 993d 35c3 62bd 7bdd 7bbd 0a08 943d
00000060: aa9b afbd d935 4cbb fa3a f23c 3b94 4d3d
00000070: 870a 82bd c252 27bd dc7f 5dbd 0c29 b5bc
00000080: 2c41 9abd 6b8f 67b8 77bc 5e3d 86a8 2d3c
00000090: 518a 20bd 603b 8c3d 0338 4d3d 58c1 8bbc
000000a0: 3b21 653d ec5b a93c d8bc 6e3c 63a8 1e3d
000000b0: 4ecc febc 67c3 523d 9112 7bbd d6cd 673c
000000c0: 2718 c0bc 4757 513d 93f8 9d3b b228 01bd
000000d0: 8bc7 403d 420c 4bbc 8e80 9fbd e76f 96bc
000000e0: dd89 623b 3c4d 54bd 2913 78bd a7bf 213d
000000f0: 2f66 6ebd cb7a f53a e0e1 993d 954f 6abd
00000100: 1588 da3b e8b7 11bd 8169 783c de44 fdbc
00000110: e4c9 993b 2244 febc f7e7 70bd cac7 41bc
00000120: 964d afbd e437 893d 6b4e 39bd 2122 3dbd
00000130: d091 953d 22f0 19bc 6835 e6bc 8b48 90bd
00000140: 29e0 7bbc d5c2 0c3c ae18 d2b9 6cb1 e53c
00000150: 54a9 aebc 3327 4f3d b258 b1bd b258 3dbd
00000160: 2e84 b0bd 83f4 6fbd 9b8e c1bc 1aaa 903d
00000170: 4674 6b3d 6d47 063d d411 9a3d 9840 9dbd
00000180: e4d8 6e3b 5af2 47bd 876a fc3a 4387 83bd
00000190: 50dd b33c d809 87bd 43f8 473d dddf 1dbd
000001a0: 3356 5e3d f58f 67bd 6c41 993d 046c 9b3b
000001b0: e76d 3d3d 40e2 873d c714 653d 90a3 b1bd
000001c0: 5846 a63c 7076 e8bc 5d10 103d 9959 163d
000001d0: ebe9 773d d10b 75bd 3344 5f3d 0532 143d
000001e0: a378 323d 4029 45bc ecea c03c 20bf 963d
000001f0: fa1d 823d c84c 56bd 5bed 19bc f04a 6a3c
00000200: afec 4f3d 9b42 32bd 77b2 62bb 0c1a 0abd
00000210: 3493 d3bc 523a 55bd 249f 8cbc 7b5b 403d
00000220: faf2 21bd 6977 5bbd f65b eebc 2a54 8fbd
00000230: 82c8 aabd 876c ea3b 4da5 d8bb 65d3 58ba
00000240: f49a ebbc 346f 8dba 3020 8ebd a813 89bd
00000250: 9f00 7a3b 8de7 a3bd 637c e4bc fc78 13bd
00000260: da42 47bc 07ee 94bd 5b06 233d d87e b5bc
00000270: bb2d 343d 5cfa b7bc ccbf 9d3a dc0d 8d3d
00000280: 82c6 9fbd 5d56 533c 6a8a a4bd 8e1f 743c
00000290: 8a66 65bd 0bbc ef3a f1fb 783c 5188 88bc
000002a0: 8434 24bc 44f5 a8bc 118e 93bd dc03 fdbb
000002b0: 4df8 45bd 9d88 a8bd 6765 5f3d 8070 8a3d
000002c0: 630f 1abd bb16 9fbd f837 e53c 22d2 34bd
000002d0: e1a5 89bc 41f1 79bd 546c a43c ebce 053d
000002e0: 611a 5abd 9eb2 283c eac8 8d3d 3bb3 3cbb
000002f0: 38ab aebc 8822 c9bc 03f1 5b3d 78c5 a9bc
00000300: 792f 5bbd 6667 e4bc b4bf 64bb f77e 8fbd
00000310: fb0c 95bc 59f6 8bbb 1447 20bd 5346 183d
00000320: ccb0 62bd 46ca 9cbd 56a4 8f3d 08cc c0bc
00000330: 2f30 86bd 07c0 18bd 8c0c 79bd 8c69 973d
00000340: 4c49 973c 6606 923d 7ee9 fc3a d3d0 7f3d
00000350: 61bf 7cbd cc45 c03c eba7 7ebd 2a4f 9939
00000360: 2239 83bd 30fb 46bc 2469 803d 4325 843b
00000370: 9cb0 cebc 3475 1abc 866b 863d 9781 393d
00000380: 0b0b 3e3d f237 2fbd 0a4c 8c3d 9ab0 6c3d
00000390: 7fb0 74bd 6c6c 89bd 744a 7ebd bbff 573d
000003a0: f7f7 1a3d e766 473d 38f6 ae3c 4125 1cbd
000003b0: 60e4 813d a433 0fbd bc06 8ebd 6153 3bbd
000003c0: 935e 5a3d d82d b1bc 1cbd 583c 8f14 353d
000003d0: e78f a2bb 8a93 07bd 1768 003d bb90 6abc
000003e0: 606b a63c 3b04 b4bb 5d46 56bd d756 423d
000003f0: dbea 1bbd 5baf 2b3d 9e00 fcbc 114a 81bc

linear1.bias f4 [100]
0.016523741 -0.07045078 -0.030579155 0.04547494 -0.042738833 0.026420875 0.026010484 -0.039898235
-0.04449293 0.05600573 -0.044518806 -0.0020917654 0.010230162 0.008963395 -0.051782686 -0.0018596277
0.07278982 0.031089585 0.0005403161 -0.01332029 -0.071194775 -0.0575812 -0.02064941 -0.049044974
-0.029081246 -0.073863745 0.00508558 -0.007043912 0.033916317 -0.009052149 0.057599574 -0.007761978
-0.05701574 0.04050424 0.0086600445 0.03373219 -0.041699372 0.023447996 0.043431506 -0.017153345
0.07329322 0.06268583 0.035220258 0.04800667 0.06226319 0.034907922 -0.04531532 -0.0122431815
0.018643994 0.072523095 0.06616457 0.068454236 0.057549357 0.025217822 -0.023219813 0.06481863
-0.064812906 0.031732656 0.01441174 0.005626522 -0.07120492 0.06373331 -0.06560014 0.060830045
0.034112453 -0.033515994 -0.027713533 0.035688408 -0.012188303 0.0069076074 -0.013485178 0.008400257
-0.011630478 -0.0636152 -0.010427405 -0.0595951 -0.06236878 -0.0006245693 0.07178891 0.05008839
0.020076552 0.004263255 -0.07709215 -0.040211637 -0.02125437 -0.07885961 -0.07657741 0.0024377978
0.06642585 -0.019464646 0.017715402 0.037793428 0.032616265 0.05637174 -0.08597071 0.041684814
-0.029686736 -0.07249025 -0.01914592 0.029126221
00000000: cc5c 873c 8048 90bd 2381 fabc ee43 3a3d
00000010: ea0e 2fbd 9770 d83c f013 d53c 556c 23bd
00000020: 383e 36bd 4466 653d 5a59 36bd 0016 09bb
00000030: 699c 273c 34db 123c 151a 54bd c0be f3ba
00000040: d412 953d 96af fe3c 00a4 0d3a 583d 5abc
00000050: 91ce 91bd 44da 6bbd f428 a9bc 62e3 48bd
00000060: cb3b eebc e045 97bd f0a4 a63b 9ed0 e6bb
00000070: d6eb 0a3d 774f 14bc 88ed 6b3d 3158 febb
00000080: 5689 69bd c6e7 253d dce2 0d3c c42a 0a3d
00000090: f6cc 2abd 0316 c03c 3ce5 313d 2c85 8cbc
000000a0: c11a 963d 6e61 803d 1e43 103d a4a2 443d
000000b0: b007 7f3d 9cfb 0e3d 8f9c 39bd a097 48bc
000000c0: 4abb 983c fd86 943d 4a81 873d bc31 8c3d
000000d0: e0b8 6b3d 9b95 ce3c 7a37 bebc a1bf 843d
000000e0: a1bc 84bd 1afa 013d 381f 6c3c b05e b83b
000000f0: e3d3 91bd 9c86 823d 5e59 86bd ed28 793d
00000100: 80b9 0b3d 1148 09bd 7e07 e3bc 022e 123d
00000110: 73b1 47bc 3659 e23b f0f0 5cbc 3ba1 093c
00000120: c38d 3ebc b048 82bd b5d7 2abc fe19 74bd
00000130: 6876 7fbd 23ba 23ba 1006 933d 7c29 4d3d
00000140: 9577 a43c c6b2 8b3b 7de2 9dbd f5b4 24bd
00000150: a51d aebc 2681 a1bd 9ed4 9cbd 76c3 1f3b
00000160: 470a 883d 5274 9fbc e41f 913c 48cd 1a3d
00000170: a298 053d 0ee6 663d 6911 b0bd b2bd 2a3d
00000180: 9931 f3bc c575 94bd e8d7 9cbc 1d9a ee3c

linear2.weight f4 [100, 100]
-0.019989505 0.0326631 0.030951006 -0.09026391 0.008874737 0.08308803 -0.02798234 0.02567532
0.09506873 0.064244814 0.059775844 -0.0069391727 0.0052936077 0.07789845 0.040108986 0.06375102
0.07997096 0.051864903 -0.031824484 0.018369175 0.06707421 -0.0714518 0.020624202 -0.01753056
-0.060969945 -0.004590586 0.061274596 0.052647986 -0.04329878 -0.0027926937 0.056386538 0.046777412
-0.09404315 -0.09851825 0.07874035 0.07085759 -0.039814733 -0.06809132 -0.07986212 -0.09748744
0.06073133 0.019112192 -0.07240767 0.086522095 0.068440415 0.057524715 0.094395824 -0.08953052
-0.047658354 -0.04885922 0.08050639 -0.08018265 0.012023605 -0.026727712 0.0308185 0.0023418888
0.001831935 0.07333649 -0.008887783 0.07670032 0.033895142 0.08438731 -0.01576566 -0.06862908
-0.085474305 -0.04360912 -0.08216941 -0.030852368 0.021908939 -0.03427042 -0.03253802 0.05406756
-0.0054378733 -0.06239713 -0.012772446 -0.075634874 0.028570851 -0.011768244 -0.08703087 -0.004853666
0.012574574 -0.047135748 -0.093593776 -0.100163214 0.016070321 0.034568153 -0.007827744 -0.060332157
0.016332673 -0.050873745 -0.04605123 0.057395943 0.07463092 -0.055938683 0.022864752 0.099292986
-0.01820501 0.04869414 0.024078846 0.004885331 0.055172347 0.013876215 -0.029440165 0.0057994872
0.07655587 -0.07007495 -0.037738312 0.048512883 -0.07066202 -0.0021053106 0.030384801 -0.04367993
-0.06110828 0.011656821 0.025114246 0.02601672 0.019747853 -0.029790781 0.08748353 -0.049574304
-0.01795663 0.08821299 -0.08093159 0.054139353 0.09307174 -0.077786945 0.07413515 -0.029459432
-0.054092932 -0.0055508763 -0.092518926 0.015289344 0.07216371 -0.092578344 0.044194542 0.021208808
-0.070230216 -0.09264199 0.060964607 0.091747664 -0.05894798 0.0050571114 0.04244306 0.011078015
0.0009341836 -0.07445942 -0.023265734 0.062037595 -0.09290203 -0.06736651 -0.0816708 -0.036585234
0.031625904 0.038165413 0.093199916 -0.07542189 -0.012052096 0.060631476 0.0902193 0.04405708
-0.040197134 -0.05470363 -0.063886076 0.09320975 -0.047392882 0.086767726 -0.060673725 0.08656413
-0.0728154 -0.08087202 0.022495903 -0.11057038 0.0020569563 -0.086671256 0.020001337 0.091083206
0.015358128 0.045688592 -0.0809951 -0.08429389 -0.015291691 -0.091777466 -0.02873832 -0.09711652
-0.059488166 -0.02108834 -0.026534185 -0.07990644 -0.07697742 -0.09454071 0.007546261 0.019327953
0.029979385 0.030155249 0.03154973 -0.0745492 0.06767472 -0.033520624 0.049715556 0.09019493
-0.0052389377 -0.0010813567 0.08245373 0.09519263 0.048344634 0.034140095 0.033822186 -0.06553176
-0.057310656 -0.09882166 -0.00088008266 -0.058264256 0.009607893 -0.0037859268 -0.022345448 -0.09105366
0.080659516 -0.0133250905 -0.09374936 0.04858256 0.053088553 0.052337 0.030860167 0.086571105
0.0027849912 -0.050308574 -0.09138154 -0.06282958 0.06660802 0.02148072 -0.07181758 -0.037974473
0.070003755 0.08683566 0.08994031 0.01893375 0.0591984 -0.08228241 -0.06323053 -0.020130537
0.061800346 0.09037616 0.08951195 0.056886815 0.0054148585 0.06472337 0.014911689 0.009017885
-0.06405487 -0.062544316 0.045123048 0.08817117 0.09386193 -0.07809704 0.048294358 -0.07840751
00000000: 08c1 a3bc bec9 053d f78c fd3c 49dc b8bd
00000010: 5867 113c 0f2a aa3d 383b e5bc 0c55 d23c
00000020: 65b3 c23d c992 833d 84d7 743d 0062 e3bb
00000030: 0076 ad3b 3989 9f3d 5249 243d e58f 823d
00000040: d1c7 a33d 4b70 543d 645a 02bd f47a 963c
00000050: 345e 893d 5255 92bd 16f4 a83c 409c 8fbc
00000060: 9fbb 79bd a06c 96bb 12fb 7a3d 6aa5 573d
00000070: 105a 31bd a005 37bb 92f5 663d ac99 3f3d
00000080: b299 c0bd f0c3 c9bd 9f42 a13d c91d 913d
00000090: c614 23bd 7673 8bbd c08e a3bd 7fa7 c7bd
000000a0: 6ac1 783d 2c91 9c3c 794a 94bd 7f32 b13d
000000b0: 7d2a 8c3d 099f 6b3d 9952 c13d c75b b7bd
000000c0: 6835 43bd 9b20 48bd 89e0 a43d cd36 a4bd
000000d0: a8fe 443c 13f4 dabc 1477 fc3c 607a 193b
000000e0: 8a1d f03a 7131 963d 109e 11bc 0f15 9d3d
000000f0: a2d5 0a3d 41d3 ac3d fc26 81bc 678d 8cbd
00000100: 270d afbd 7a9f 32bd 7048 a8bd 1bbe fcbc
00000110: 607a b33c 245f 0cbd 9646 05bd f275 5d3d
00000120: 3030 b2bb 2294 7fbd 8543 51bc 75e6 9abd
00000130: 6b0d ea3c 98cf 40bc 3e3d b2bd 800b 9fbb
00000140: 9605 4e3c 6a11 41bd 18ae bfbd 5f22 cdbd
00000150: e8a5 833c 5697 0d3d f03f 00bc da1e 77bd
00000160: 19cc 853c fd60 50bd 37a0 3cbd 0218 6b3d
00000170: 19d8 983d f61f 65bd dc4e bb3c 1f5a cb3d
00000180: ac22 95bc 8273 473d 0041 c53c 2015 a03b
00000190: 66fc 613d 1059 633c 802c f1bc a009 be3b
000001a0: 53c9 9c3d 7583 8fbd 7d93 1abd 72b5 463d
000001b0: 40b7 90bd 40f9 09bb 8ce9 f83c bae9 32bd
000001c0: ad4c 7abd 40fc 3e3c 64bc cd3c 0421 d53c
000001d0: 40c6 a13c cc0b f4bc 912a b33d 6d0e 4bbd
000001e0: c819 93bc 03a9 b43d 76bf a5bd 3ac1 5d3d
000001f0: 659c be3d c34e 9fbd 2bd4 973d e854 f1bc
00000200: 8d90 5dbd 20e4 b5bb 907a bdbd 2880 7a3c
00000210: 91ca 933d b799 bdbd 5605 353d 18be ad3c
00000220: dcd4 8fbd 15bb bdbd 06b6 793d 33e6 bb3d
00000230: 7073 71bd 20b6 a53b c6d8 2d3d 9080 353c
00000240: 00e4 743a 2e7e 98bd c897 bebc 221b 7e3d
00000250: 6b43 bebd 74f7 89bd 0543 a7bd 66da 15bd
00000260: 2a8a 013d 5653 1c3d 99df be3d cb76 9abd
00000270: 2876 45bc b658 783d e5c4 b83d 3275 343d
00000280: c0a5 24bd ea10 60bd b4d6 82bd c1e4 be3d
00000290: 0a1f 42bd 47b3 b13d 0385 78bd 8948 b13d
000002a0: 3e20 95bd 3ba0 a5bd 5449 b83c b972 e2bd
000002b0: 00ce 063b b380 b1bd d8d9 a33c d589 ba3d
000002c0: a8a0 7b3c f623 3b3d c2e0 a5bd 46a2 acbd
000002d0: 008a 7abc d3f5 bbbd a06c ebbc 07e5 c6bd
000002e0: dda9 73bd 74c1 acbc 385e d9bc fda5 a3bd
000002f0: 56a6 9dbd 8f9e c1bd a046 f73b a855 9e3c
00000300: 5497 f53c 2408 f73c 4a3a 013d 40ad 98bd
00000310: 0b99 8a3d ec4c 09bd 8aa2 4b3d 1fb8 b83d
00000320: 65ab abbb 4fbc 8dba 80dd a83d 5bf4 c23d
00000330: 0605 463d 7cd6 0b3d 2289 0a3d 8435 86bd
00000340: 94be 6abd 0363 cabd 59b5 66ba 80a6 6ebd
00000350: 6d6a 1d3c 501d 78bb cd0d b7bc 577a babd
00000360: d130 a53d 7b51 5abc aaff bfbd 82fe 463d
00000370: 6273 593d 525f 563d 76ce fc3c 314c b13d
00000380: 6684 363b 5d10 4ebd 3f26 bbbd cbac 80bd
00000390: c969 883d 56f8 af3c 1815 93bd 1f8b 1bbd
000003a0: 215e 8f3d e5d6 b13d a032 b83d f41a 9b3c
000003b0: 057a 723d ae83 a8bd 027f 81bd cce8 a4bc
000003c0: 5c22 7d3d 2317 b93d 0b52 b73d 2602 693d
000003d0: 206f b13b b08d 843d 2850 743c c0bf 133c
000003e0: 332f 83bd 3c17 80bd f2d2 383d 1693 b43d
000003f0: af3a c03d 57f1 9fbd 4ed0 453d 1e94 a0bd

linear2.bias f4 [100]
-0.0899496 -0.29617265 -0.04320527 -0.0010082872 -0.0008495143 -0.027735412 0.048045762 0.05199779
-0.00040812304 -0.053838592 -0.0021083942 -0.06411623 -0.20696042 -0.05044104 0.20160499 -0.061071932
-0.00049760105 -0.030411204 -0.084805794 -0.0017711549 -0.07121935 -0.0011386458 -0.0024739874 -0.068814285
0.065724574 -5.9053385e-05 0.12436907 -0.08737045 -0.13495708 -0.19099702 -0.0009355112 -0.08208155
-0.0012786146 -0.018045137 0.13197725 -0.0014160214 -0.0013388837 -0.010788404 -0.00140541 -0.09622927
-0.2082521 -0.010627763 -0.013374013 -0.0011003637 0.12052348 0.06233779 0.18937689 -0.52016085
-0.050888818 -0.057393506 -0.002459064 -0.09180207 0.034571096 -0.10260068 -0.08757189 -0.0068438896
0.21867271 -0.015381759 -0.23516135 -0.021690305 -0.07640918 -0.0017234366 -0.044969745 -0.0666396
-0.119589016 0.15285428 -0.14220974 -0.05195611 0.04196655 -0.0054307645 0.20827991 -0.008728827
-0.00052492635 -0.14940228 -0.06619925 0.14513586 -0.07110155 0.012721356 -0.0018871041 -0.04491134
-0.0012967101 -0.028826253 -0.03398712 -0.0005374221 0.059909157 -0.0017914281 -0.0077912793 -0.03087043
-0.16169861 -0.047926683 0.12956229 -0.020005552 0.19063586 -0.005783242 -0.08156302 -7.202064e-05
-0.10951625 -0.0014178454 -0.082007565 0.10707405
00000000: 7f37 b8bd f1a3 97be 02f8 30bd 8128 84ba
00000010: f1b1 5eba 6035 e3bc a2cb 443d a2fb 543d
00000020: 59f9 d5b9 db85 5cbd fc2c 0abb 5f4f 83bd
00000030: 6fed 53be 449b 4ebd 8a71 4e3e 9026 7abd
00000040: 7171 02ba eb20 f9bc a9ae adbd 1926 e8ba
00000050: 73db 91bd 9d3e 95ba 9f22 22bb 81ee 8cbd
00000060: 9b9a 863d 17b0 77b8 36b5 fe3d 47ef b2bd
00000070: 3032 0abe b994 43be 183d 75ba 5f1a a8bd
00000080: 3097 a7ba 65d3 93bc 0b25 073e cb99 b9ba
00000090: 7b7d afba d9c1 30bc bc35 b8ba da13 c5bd
000000a0: 0a40 55be 1220 2ebc ad1e 5bbc 143a 90ba
000000b0: 04d5 f63d e955 7f3d 04ec 413e 4329 05bf
000000c0: cb70 50bd 7415 6bbd 3f28 21bb b902 bcbd
000000d0: 6c9a 0d3d 4e20 d2bd e458 b3bd b542 e0bb
000000e0: bdeb 5f3e c603 7cbc 23ce 70be deaf b1bc
000000f0: 6b7c 9cbd f0e4 e1ba 3232 38bd 587a 88bd
00000100: 16eb f4bd d585 1c3e 6e9f 11be eecf 54bd
00000110: 1ee5 2b3d 8ef4 b1bb 5447 553e 5b03 0fbc
00000120: 369b 09ba e9fc 18be 7993 87bd 7f9e 143e
00000130: b09d 91bd 3c6d 503c b558 f7ba f4f4 37bd
00000140: 5ff6 a9ba 0925 ecbc 1436 0bbd c9e1 0cba
00000150: 4e63 753d 5ace eaba fd4d ffbb fce3 fcbc
00000160: 5294 25be c54e 44bd faab 043e afe2 a3bc
00000170: 0c36 433e 5a81 bdbb 830a a7bd c909 97b8
00000180: 0e4a e0bd ffd6 b9ba 95f3 a7bd a449 db3d

linear3.weight f4 [1, 100]
0.0055226334 -0.112892926 -0.0805092 0.0013229811 0.047547195 0.07775992 0.07680827 -0.0027965044
0.00024834555 0.07244542 0.0032467966 -0.009298759 -0.19055356 -0.039196562 0.042343777 -0.030955423
-0.00069042464 -0.0005435989 -0.01695247 0.0052834176 0.009272823 -5.718256e-06 -6.363801e-05 0.0009904507
-0.08054537 2.8641914e-05 0.04759581 -0.04588958 0.050932124 0.0040991358 0.018762972 -0.084951214
0.00082746666 0.06244249 -0.09058868 0.0011653765 0.0009353215 0.0017462765 0.0033191359 0.004116894
-0.18418048 0.07945573 -0.00064691197 0.0026091945 -0.10203895 -0.00298283 0.04182279 -0.4540481
0.06381484 -0.06990734 -0.07299595 -0.0741593 0.057049774 0.025339734 0.03530949 -0.049456295
0.08020928 0.058515057 -0.013460066 -0.037279878 -0.049234275 0.0013216508 0.06900832 0.0026442977
0.004727624 0.04670757 -0.033887483 -0.040066287 -0.00903499 0.050306268 0.05771584 0.009140595
0.0012650886 0.00020041771 -0.08461161 0.041499544 0.016245391 0.0006072489 0.0040378454 -0.0020580413
0.035541657 -0.0006444496 0.005996838 0.0013886655 0.04953477 0.010682258 -0.0011711911 -0.04485537
0.0021887077 0.048620306 -0.09408666 0.007905791 0.054201834 -4.708156e-05 -0.00059999677 5.567371e-05
-0.0026569257 0.04314443 0.0021953562 -0.05235539
00000000: 35f7 b43b 6834 e7bd 02e2 a4bd e167 ad3a
00000010: d9c0 423d 9840 9f3d a74d 9d3d 8f45 37bb
00000020: 6034 8239 445e 943d 35c8 543b d259 18bc
00000030: 7920 43be 938c 20bd ab70 2d3d 3a96 fdbc
00000040: 9dfd 34ba 4e80 0eba e8df 8abc 8520 ad3b
00000050: 0aed 173c 72df bfb6 6575 85b8 03d2 813a
00000060: f9f4 a4bd 0b44 f037 d3f3 423d b6f6 3bbd
00000070: 349e 503d 0b52 863b ceb4 993c e7fa adbd
00000080: 59ea 583a b2c3 7f3d 8f86 b9bd 8cbf 983a
00000090: 5d30 753a 51e3 e43a dc85 593b 03e7 863b
000000a0: cf99 3cbe b0b9 a23d 8795 29ba 05ff 2a3b
000000b0: ccf9 d0bd 957b 43bb 604e 2b3d fe78 e8be
000000c0: 5bb1 823d 942b 8fbd e77e 95bd d5e0 97bd
000000d0: 06ad 693d 4695 cf3c afa0 103d af92 4abd
000000e0: c344 a43d 7cad 6f3d 9c87 5cbc c9b2 18bd
000000f0: e1a9 49bd 3e3b ad3a 3c54 8d3d f44b 2d3b
00000100: 2fea 9a3b 7050 3f3d 9acd 0abd 8c1c 24bd
00000110: 7f07 14bc f20d 4e3d 7267 6c3d 6fc2 153c
00000120: 54d1 a53a 3827 5239 da48 adbd 6dfb 293d
00000130: 0e15 853c c92f 1f3a e74f 843b 34e0 06bb
00000140: 2194 113d 48f0 28ba 2081 c43b e203 b63a
00000150: f9e4 4a3d a304 2f3c a782 99ba 44ba 37bd
00000160: 6c70 0f3b 1626 473d 82b0 c0bd 4a87 013c
00000170: be02 5e3d 7179 45b8 1a49 1dba 3183 6938
00000180: d11f 2ebb 37b8 303d f7df 0f3b 9b72 56bd
