model.pth (torch, 70983 bytes, 6 tensors)

linear1.weight f4 [75, 151]
-0.043251906 -0.025407773 0.05552335 0.0032765493 0.071030885 0.05376114 -0.0718452 -0.02167743
-0.04499464 -0.016858004 -0.058271907 -0.06481241 -0.023112558 0.047997802 -0.0207589 0.06807062
0.006470643 0.06909631 -0.0794105 -0.07574991 0.0018932894 -0.028455738 -0.029471733 0.06421046
0.05586645 -0.018679932 -0.052540317 -0.03626879 -0.036369964 0.012727059 0.06459218 0.016612947
-0.058431067 -0.009652659 -0.04591715 -0.053734135 -0.04135714 -0.015037127 -0.0058895946 -0.049931888
0.035954893 0.03850908 -0.017458066 0.010824196 0.03643363 -0.013939932 -0.032959837 -0.06499085
0.06006001 0.06883165 0.0052230135 -0.014120005 -0.03937824 -0.02033247 0.008770645 0.011422813
-0.013000287 -0.01993654 -0.031510074 0.02348733 -0.04433514 0.05263731 0.023955882 0.023238689
0.06345284 -0.051755805 0.0247389 -0.029258631 0.05875437 -0.015072823 0.04601133 -0.04481329
0.0277213 -0.020241752 -0.006271936 0.03214024 0.049790725 -0.022824869 0.060033917 0.064769104
0.0076930895 -0.006307453 -0.07629895 -0.008445643 -0.060678326 -0.012214996 0.07848099 -0.0009617582
-0.008815862 0.029587701 0.052191913 0.042604394 0.0029761568 -0.06638446 -0.01826825 -0.018429913
0.04136335 0.036755793 -0.060570102 0.060820535 -0.026420832 -0.052479938 -0.04176042 -0.056933545
-0.030417167 0.0015641749 0.05372706 0.078570634 -0.017420486 0.049341336 -0.020849578 -0.074927896
-0.07731198 0.014976457 -0.06254431 0.06367095 0.04133223 -0.0012182817 0.079768404 -0.04229069
-0.02013743 -0.040999014 -0.061838128 -0.051007267 0.024351478 -0.0125018135 -0.022155754 -0.048208445
0.010773875 0.05136022 0.034049265 0.027006134 -0.01060006 0.015211947 0.0046274215 -0.076648146
-0.010987528 -0.0035543814 0.05455908 -0.04449816 -0.051417895 0.037799366 -0.043203566 -0.06616453
0.057097867 -0.06837514 0.027934425 0.043513827 0.038209036 -0.039868873 -0.040072307 0.01233695
0.05137162 -0.055745684 -0.03825982 0.009778373 -0.03001304 -0.043820363 0.030440083 0.023796339
0.049772754 -0.039297685 0.023230879 -0.023928866 0.009722484 0.06762642 0.0603149 -0.015207063
-0.06546785 -0.06370887 0.055074096 -0.044859726 0.023444572 0.022641443 0.0022656631 -0.059815396
-0.038119018 0.071218885 -0.05044289 0.030654237 0.073995486 0.07124886 0.05963538 -0.011649895
0.04636027 -0.019844772 0.061546765 -0.014307825 -0.06963313 -0.047013763 -0.07070298 -0.07919025
0.04659613 -0.061162513 -0.015467458 0.06765815 -0.016383898 0.06963074 -0.07149328 -0.008302889
-0.061144847 -0.050829303 0.012173204 0.036970135 -0.0050792047 -0.062091358 -0.03358424 0.007150822
-0.08494242 0.03606585 -0.03158984 -0.01444655 0.04099793 0.07358583 0.057047654 0.06414243
0.021994522 -0.025540669 0.047147676 -0.060405668 -0.0042229895 -0.06075868 -0.068970315 0.010398887
0.006591073 -0.03840054 0.041528434 -0.054910105 -0.06783126 -0.058817346 -0.072901845 -0.06418862
-0.062856466 0.053137198 0.026579365 -0.07462229 0.021270966 0.05320495 0.048149295 -0.021278588
-0.026063705 -0.009359898 -0.031949483 0.06810463 -5.019644e-05 0.049486026 0.045564074 0.039614864
0.049827278 -0.06926426 0.06759503 -0.07986052 0.069708735 0.025491038 -0.026218781 -0.05560749
00000000: e928 31bd f623 d0bc 746c 633d 60bb 563b
00000010: a478 913d a434 5c3d 9423 93bd de94 b1bc
00000020: 4d4c 38bd cc19 8abc 86ae 6ebd 5ebc 84bd
00000030: 8c56 bdbc 5899 443d 920e aabc 9c68 8b3d
00000040: b007 d43b 5e82 8d3d f9a1 a2bd c522 9bbd
00000050: 4028 f83a 021c e9bc b46e f1bc c680 833d
00000060: 38d4 643d a806 99bc 8434 57bd 958e 14bd
00000070: acf8 14bd 2885 503c e848 843d e017 883c
00000080: 6a55 6fbd 3026 1ebc 9f13 3cbd 5318 5cbd
00000090: 1b66 29bd 485e 76bc 80fd c0bb 6185 4cbd
000000a0: 7045 133d b2bb 1d3d 3804 8fbc f857 313c
000000b0: 6e3b 153d 5064 64bc e500 07bd ec19 85bd
000000c0: 7c01 763d 9cf7 8c3d d025 ab3b 9857 67bc
000000d0: 144b 21bd 4890 a6bc c0b2 0f3c c026 3b3c
000000e0: 28ff 54bc f451 a3bc b510 01bd 8068 c03c
000000f0: c498 35bd 389a 573d 203f c43c 105f be3c
00000100: 90f3 813d e5fd 53bd 3ca9 ca3c ccaf efbc
00000110: 6ca8 703d 00f4 76bc 6076 3c3d 248e 37bd
00000120: c817 e33c 08d2 a5bc d084 cdbb 7ca5 033d
00000130: 5cf1 4b3d 38fb babc 20e6 753d aaa5 843d
00000140: 5016 fc3b c0ae cebb a042 9cbd 985f 0abc
00000150: d689 78bd 6821 48bc a4ba a03d 801e 7cba
00000160: 6870 10bc e861 f23c 30c7 553d f281 2e3d
00000170: a00b 433b 93f4 87bd 4ca7 95bc 54fa 96bc
00000180: 9e6c 293d 3e8d 163d 5b18 78bd f41e 793d
00000190: 8070 d8bc 34f5 56bd f90c 2bbd 2633 69bd
000001a0: 6c2d f9bc 0005 cd3a e810 5c3d a4e9 a03d
000001b0: 68b5 8ebc 241a 4a3d bccc aabc cc73 99bd
000001c0: be55 9ebd d05f 753c 3b17 80bd ea65 823d
000001d0: fc4b 293d c0ae 9fba 9e5d a33d 0139 2dbd
000001e0: 40f7 a4bc 95ee 27bd fa49 7dbd ffec 50bd
000001f0: c07c c73c 68d4 4cbc fc7f b5bc 3876 45bd
00000200: e884 303c 185f 523d 3e77 0b3d f83b dd3c
00000210: e0ab 2dbc 883b 793c a0a1 973b b4f9 9cbd
00000220: 0805 34bc a0f0 68bb 5879 5f3d b443 36bd
00000230: 929b 52bd 82d3 1a3d 39f6 30bd 4581 87bd
00000240: 74df 693d 4408 8cbd bcd6 e43c 8e3b 323d
00000250: 1481 1c3d 8b4d 23bd dc22 24bd eb20 4a3c
00000260: 0c6b 523d 9655 64bd 54b6 1cbd 7835 203c
00000270: e8dd f5bc fb7c 33bd 7b5d f93c 8af0 c23c
00000280: 84de 4b3d 9cf6 20bd af4e be3c 7806 c4bc
00000290: 0e4b 1f3c b87f 8a3d c20c 773d 0c27 79bc
000002a0: 0214 86bd cc79 82bd 6095 613d d5be 37bd
000002b0: d50e c03c 8c7a b93c 857b 143b fd00 75bd
000002c0: b022 1cbd 35db 913d 349d 4ebd 981e fb3c
000002d0: f28a 973d ecea 913d 3a44 743d 34df 3ebc
000002e0: 44e4 3d3d 8191 a2bc 7618 7c3d 5e6b 6abc
000002f0: d19b 8ebd 8191 40bd b9cc 90bd 7f2e a2bd
00000300: 95db 3e3d 8b85 7abd 396b 7dbc 5b90 8a3d
00000310: 8637 86bc 909a 8e3d 126b 92bd d708 08bc
00000320: 0573 7abd 6332 50bd 1e72 473c ff6d 173d
00000330: 756f a6bb 8253 7ebd a18f 09bd 7151 ea3b
00000340: 4bf6 adbd c9b9 133d 5964 01bd 39b1 6cbc
00000350: 72ed 273d 2bb4 963d cdaa 693d 1b5d 833d
00000360: db2d b43c aa3a d1bc ec1d 413d ef6b 77bd
00000370: 0161 8abb 18de 78bd 4f40 8dbd 1860 2a3c
00000380: edf9 d73b e249 1dbd b819 2a3d 6be9 60bd
00000390: 1eeb 8abd 75ea 70bd 904d 95bd 5375 83bd
000003a0: e4ba 80bd 64a6 593d f8bc d93c 92d3 98bd
000003b0: 7340 ae3c 6fed 593d 3238 453d 6f50 aebc
000003c0: 8d83 d5bc 425a 19bc 76dd 02bd 717a 8b3d
000003d0: 048a 52b8 dcb1 4a3d 65a1 3a3d 3243 223d
000003e0: b017 4c3d 6cda 8dbd 436f 8a3d ea8d a3bd
000003f0: 74c3 8e3d 95d2 d03c c5c8 d6bc aec4 63bd

linear1.bias f4 [75]
0.04795693 -0.041462593 0.039830796 -0.079849936 -0.046183713 0.024637938 0.045943677 -0.029857725
-0.07895834 -0.026234103 0.044480827 0.019338101 -0.06495485 -0.07249187 -0.023100838 0.05891663
-0.045043007 -0.022730771 -0.015419304 -0.056998793 0.048609354 -0.059515543 -0.020094022 0.03222504
0.07054273 -0.02360117 0.034613915 0.033441983 -0.01008901 0.07364976 0.03018421 -0.059555948
0.028347842 -0.010310821 -0.07434476 -0.05976084 -0.02604777 -0.0586417 -0.0013378103 -0.046409212
-0.055871814 0.049932156 0.062302426 0.05095762 0.03611488 0.06381516 -0.07533446 0.012562312
0.07470499 0.045938037 -0.006843567 -0.031160265 0.03594151 0.013559182 0.020661436 0.031614088
-0.07793349 -0.0056297993 0.08130932 0.020085566 0.012309253 0.06612626 0.04738259 -0.017893704
0.00065766025 -0.063225076 0.076710984 -0.021397118 -0.021944718 -0.0121221235 0.03771522 0.038253024
0.031348556 0.053494833 -0.06957074
00000000: 7c6e 443d aed4 29bd 9e25 233d 5d88 a3bd
00000010: 222b 3dbd 80d5 c93c 702f 3c3d 3098 f4bc
00000020: e9b4 a1bd e7e8 d6bc 8731 363d f06a 9e3c
00000030: 0c07 85bd 9e76 94bd f83d bdbc 9052 713d
00000040: 047f 38bd e235 babc 40a1 7cbc 9177 69bd
00000050: 9a1a 473d 92c6 73bd 389c a4bc 67fe 033d
00000060: b578 903d 3e57 c1bc 52c7 0d3d 76fa 083d
00000070: 604c 25bc afd5 963d e044 f73c f0f0 73bd
00000080: bc39 e83c b8ee 28bc 1142 98bd c8c7 74bd
00000090: 2262 d5bc 4732 70bd 7759 afba 9617 3ebd
000000a0: d8d9 64bd a985 4c3d d430 7f3d f0b8 503d
000000b0: 32ed 133d 86b1 823d f448 9abd 28d2 4d3c
000000c0: eefe 983d 8629 3c3d 0040 e0bb d043 ffbc
000000d0: 6837 133d 5527 5e3c 2c42 a93c c67d 013d
000000e0: 989b 9fbd 2e7a b8bb 8085 a63d 7c8a a43c
000000f0: c0ac 493c 346d 873d 3f14 423d d195 92bc
00000100: d566 2c3a 267c 81bd a61a 9d3d 0249 afbc
00000110: 69c5 b3bc df9b 46bc 467b 1a3d 34af 1c3d
00000120: 5867 003d 661d 5b3d 1b7b 8ebd

linear2.weight f4 [75, 75]
0.09607361 0.021403937 -0.043390274 0.034871444 -0.010860147 0.044511065 -0.06073594 0.0800795
0.09533377 0.035988387 0.06566601 -0.047011957 -0.015272616 -0.06230643 0.107848205 -0.09330379
0.028793188 -0.078686126 0.084453285 -0.006164218 0.086677454 0.11379731 -0.054807704 -0.0842877
0.02274926 0.10231193 -0.011346094 0.1101564 0.026996627 -0.06471665 -0.059840854 -0.057343625
0.07799181 -0.10408799 0.004434571 0.006295837 0.032433532 0.08359993 0.045935437 -0.026116684
0.038770102 0.019908568 -0.08521578 0.07564348 0.0010451153 -0.08885421 0.06795805 0.062325105
-0.10785821 -0.03612197 -0.06710206 -0.07647904 0.11487317 -0.08774932 0.031734124 -0.06236595
0.018738747 -0.011362098 -0.09938261 0.060092375 0.011104241 0.0042336658 0.10205894 -0.025450552
0.094703585 0.07009727 0.067228034 0.009459943 0.09753153 -0.08632844 0.05105318 0.053764448
-0.072297014 -0.082051784 -0.010352384 -0.047151312 -0.073451616 -0.05707167 -0.028328944 -0.02592364
-0.051838815 0.028868154 -0.113718815 0.041324154 -0.048559234 0.071194164 0.09789792 0.085556105
-0.05071385 -0.035648257 0.01777707 -0.109104574 -0.030591546 -0.008437514 -0.007771611 0.08679192
-0.1035605 -0.07808607 0.04765558 0.051492125 -0.0018203649 -0.04884007 0.038558602 0.0055124536
-0.079286546 0.046445698 0.044895988 -0.09556153 0.06359245 0.08231336 -0.10300338 -0.034017302
0.08913289 -0.015458795 -0.0089875385 0.0132196825 -0.00555017 -0.032134704 0.0885569 -0.07102558
0.035073325 0.022508685 0.0884871 0.114402786 0.013671287 0.04933624 -0.021885216 0.087120324
-0.0030200847 0.07444315 -0.053766232 0.057369098 -0.062812656 0.02792333 0.048959315 -0.10392756
-0.0504281 -0.10241308 0.10028659 -0.09264539 -0.045216687 0.00065504014 -0.11478089 0.05309545
0.10082232 -0.041012563 0.09925164 -0.013518531 -0.119508564 -0.07402155 0.11426596 0.030808952
-0.068256214 0.10822966 0.06748121 -0.06007929 -0.034656413 -0.026985805 -0.027467921 0.06301024
0.010490325 0.1023636 -0.08109909 -0.035340935 0.006057945 0.014964238 0.045476668 -0.03951259
-0.08375923 0.023713104 -0.017584698 0.10583915 0.046002734 0.10891846 0.011392293 -0.013223897
-0.011560142 0.11317335 -0.066554874 -0.039738547 0.038207352 0.113335595 0.11266385 -0.07191615
-0.03092821 0.04093105 0.10328584 -0.07982642 -0.0328585 0.0080142915 -0.094383635 0.039086524
0.052385256 0.025551662 0.0784502 -0.106299505 -0.0026711319 0.0154798925 0.08699627 -0.09026
-0.075395614 0.10462781 -0.03962607 -0.07859347 0.06708978 0.049352825 0.06415864 -0.03726538
0.0024764389 -0.06625427 -0.07656906 0.036871865 0.020192523 -0.076972455 -0.043767866 -0.062061988
-0.034914948 -0.09719828 -0.068863004 0.07398571 -0.107458875 0.040501714 -0.043842133 -0.031912465
-0.021561025 0.048719704 -0.03669356 -0.10516284 -0.096348 -0.030929828 0.0032055452 0.0056916103
0.07560015 -0.011149734 -0.11039437 -0.11224159 0.04507716 0.046084933 0.084197216 0.1009449
0.009250462 -0.08278102 -0.10495809 0.098052934 -0.020819914 -0.00094672944 0.043915734 0.04679358
-0.021222128 -0.089039646 -0.034352 -0.036506772 -0.08579488 -0.048662394 -0.09208816 0.076992646
00000000: 3ec2 c43d 4f57 af3c 00ba 31bd 5cd5 0e3d
00000010: c2ee 31bc 3c51 363d 40c6 78bd b900 a43d
00000020: 5a3e c33d 8f68 133d e77b 863d 9c8f 40bd
00000030: ff39 7abc 0735 7fbd 85df dc3d 0f16 bfbd
00000040: b1df eb3c 3126 a1bd d8f5 ac3d 35fd c9bb
00000050: f383 b13d 900e e93d 0b7e 60bd 089f acbd
00000060: a85c ba3c eb88 d13d f8e4 39bc ae99 e13d
00000070: 0828 dd3c 2a8a 84bd af1b 75bd 26e1 6abd
00000080: 2cba 9f3d 162c d5bd e14f 913b 4f4d ce3b
00000090: 06d9 043d 7136 ab3d cc26 3c3d a8f2 d5bc
000000a0: 66cd 1e3d 4b17 a33c 9c85 aebd f8ea 9a3d
000000b0: 40fc 883a 32f9 b5bd 972d 8b3d 9c48 7f3d
000000c0: c4e4 dcbd a1f4 13bd ce6c 89bd 0ba1 9cbd
000000d0: a042 eb3d eab5 b3bd a4fb 013d 7073 7fbd
000000e0: 0082 993c 1828 3abc 1c89 cbbd 6c23 763d
000000f0: 90ee 353c 90ba 8a3b 4704 d13d ad7d d0bc
00000100: f4f3 c13d 288f 8f3d daae 893d e0fd 1a3c
00000110: 9cbe c73d f7cc b0bd 241d 513d 1c38 5c3d
00000120: 7510 94bd c40a a8bd 0c9d 29bc bc21 41bd
00000130: cd6d 96bd fcc3 69bd 1a12 e8bc d05d d4bc
00000140: f054 54bd e87c ec3c 69e5 e8bd 8443 293d
00000150: 0ce6 46bd 3fce 913d b47e c83d 0a38 af3d
00000160: 53b9 4fbd e803 12bd 38a1 913c 3872 dfbd
00000170: 1f9b fabc 803d 0abc 00a9 febb f6bf b13d
00000180: 8717 d4bd 97eb 9fbd 7f32 433d 68e9 523d
00000190: 4f99 eeba 860c 48bd a0ef 1d3d d0a1 b43b
000001a0: fc60 a2bd d83d 3e3d dbe4 373d c3b5 c3bd
000001b0: c23c 823d e893 a83d 70f3 d2bd ba55 0bbd
000001c0: 4e8b b63d e346 7dbc 7840 13bc 5e97 583c
000001d0: 33de b5bb ae9f 03bd 525d b53d dc75 91bd
000001e0: 0ca9 0f3d 2264 b83c ba38 b53d 024c ea3d
000001f0: 89fd 5f3c cc14 4a3d a048 b3bc 246c b23d
00000200: 9dec 45bb a675 983d fb39 5cbd dcfb 6a3d
00000210: eca3 80bd 78bf e43c 9089 483d f9d7 d4bd
00000220: b28d 4ebd f3bd d1bd 0e63 cd3d debc bdbd
00000230: 2235 39bd 00b7 2b3a 3e12 ebbd 9d7a 593d
00000240: ef7b ce3d cafc 27bd 7244 cb3d d47c 5dbc
00000250: e8c0 f4bd 9c98 97bd 4604 ea3d 0e63 fc3c
00000260: eac9 8bbd 83a7 dd3d 9733 8a3d b415 76bd
00000270: e2f3 0dbd 5611 ddbc 6804 e1bc 830b 813d
00000280: 9ddf 2b3c 02a4 d13d 4817 a6bd a8c1 10bd
00000290: ba81 c63b 902c 753c be45 3a3d f4d7 21bd
000002a0: f689 abbd fc41 c23c c90d 90bc 32c2 d83d
000002b0: 5d6d 3c3d a410 df3d bda6 3a3c 0ba9 58bc
000002c0: c066 3dbc 6ec7 e73d ec4d 88bd e3c4 22bd
000002d0: 507f 1c3d 7e1c e83d 4ebc e63d c648 93bd
000002e0: 285d fdbc 51a7 273d 8787 d33d 097c a3bd
000002f0: a296 06bd 604e 033c 354c c1bd 3119 203d
00000300: ec91 563d b851 d13c 80aa a03d 8eb3 d9bd
00000310: 280e 2fbb 609f 7d3c 1a2b b23d 3cda b8bd
00000320: 0469 9abd 1b47 d63d f24e 22bd 9df5 a0bd
00000330: 5e66 893d 3026 4a3d 9b65 833d 95a3 18bd
00000340: c04b 223b 52b0 87bd 3dd0 9cbd f406 173d
00000350: ca6a a53c bca3 9dbd ef45 33bd b634 7ebd
00000360: fa02 0fbd e40f c7bd 0c08 8dbd d285 973d
00000370: 6613 dcbd 20e5 253d cf93 33bd a5b6 02bd
00000380: bfa0 b0bc 508e 473d fd4b 16bd 9d5f d7bd
00000390: 1a52 c5bd 8d60 fdbc 2014 523b b080 ba3b
000003a0: 40d4 9a3d 60ad 36bc 7216 e2bd ebde e5bd
000003b0: d4a2 383d 8ec3 3c3d 976f ac3d 33bc ce3d
000003c0: 408f 173c 1889 a9bd 44f4 d6bd facf c83d
000003d0: 868e aabc f02d 78ba fce0 333d a0aa 3f3d
000003e0: 07da adbc 6b5a b6bd afb4 0cbd 2088 15bd
000003f0: 3ab5 afbd 3852 47bd b898 bcbd 52ae 9d3d

linear2.bias f4 [75]
-0.08743563 0.04938188 0.107217826 -0.118856624 0.10004119 0.0053057936 -0.09924715 0.037540004
0.10558509 -0.06476106 0.0065158373 -0.0023033528 0.013658204 0.06994588 -0.0066535547 -0.017487116
0.0025080815 0.012277183 -0.10813786 0.10494309 0.019586237 -0.041679773 -0.026467325 -0.024221418
-0.087732285 -0.0012746261 -0.061420295 0.0073351534 -0.07051358 -0.099238634 0.11379005 -0.042596217
0.06812436 -0.03252021 0.09536144 0.03464822 0.081502944 0.11332163 -0.025802677 0.11117774
0.074230425 -0.032154508 0.010900289 -0.012035964 -0.10100805 -0.027280428 -0.08730336 -0.097003676
0.072892696 -0.03493452 0.05794835 0.011397615 0.08517167 -0.056022495 0.02923493 -0.041817546
0.03654643 -0.09967044 0.0880114 -0.11000523 0.06514156 -0.03921795 0.028654769 0.07095337
-0.017158506 0.0071821753 -0.047690947 0.043740094 0.06277786 -0.08894117 -0.07069092 -0.044904396
0.063167885 -0.08216195 0.06677288
00000000: 7411 b3bd a744 4a3d 0595 db3d 1a6b f3bd
00000010: 65e2 cc3d 39dc ad3b 1742 cbbd 8cc3 193d
00000020: ff3c d83d 72a1 84bd ce82 d53b d9f3 16bb
00000030: a9c6 5f3c c93f 8f3d 1006 dabb 2441 8fbc
00000040: a05e 243b 3d26 493c 6277 ddbd 67ec d63d
00000050: 5173 a03c 69b8 2abd 01d2 d8bc ff6b c6bc
00000060: fcac b3bd 5b11 a7ba d993 7bbd ba5b f03b
00000070: 6d69 90bd a03d cbbd c20a e93d 5f79 2ebd
00000080: c984 8b3d e933 05bd dc4c c33d 4beb 0d3d
00000090: 04eb a63d 2c15 e83d 2360 d3bc 28b1 e33d
000000a0: 1f06 983d 72b4 03bd 2097 323c 7e32 45bc
000000b0: 4fdd cebd 347b dfbc 1bcc b2bd dda9 c6bd
000000c0: c448 953d 8017 0fbd 405b 6d3d 10bd 3a3c
000000d0: 7c6e ae3d d877 65bd 187e ef3c e048 2bbd
000000e0: b6b1 153d 0420 ccbd 523f b43d 6c4a e1bd
000000f0: f068 853d 00a3 20bd 68bd ea3c 0050 913d
00000100: ff8f 8cbc 7458 eb3b 9557 43bd d028 333d
00000110: ae91 803d ca26 b6bd 67c6 90bd aced 37bd
00000120: 2a5e 813d 8644 a8bd 38c0 883d

linear3.weight f4 [2, 75]
0.00420544 -0.10670418 -0.014902135 -0.052544832 0.10044928 -0.033985794 0.09749105 -0.103185125
-0.09016639 -0.0032549289 0.06282621 -0.038955443 0.048143238 0.102300584 -0.04552468 -0.025101796
0.044329613 -0.055794287 -0.09770576 0.065343395 -0.052020364 -0.09574595 0.03103642 -0.06975367
0.054566458 -0.016411042 -0.09434819 0.053259443 -0.0130367745 0.008422051 -0.10849622 -0.047023334
-0.097502984 0.02345168 0.047914516 -0.0010841694 -0.05750362 0.0655068 0.060453705 0.034456432
0.11003115 0.0014887097 0.03640361 0.087770015 0.08793704 0.08738622 -0.04782565 -0.037336744
0.05639945 -0.0150092775 -7.467717e-05 -0.0008805692 -0.029834412 0.04830909 0.026679311 0.09300669
-0.04406855 -0.0013922236 -0.059251465 -0.04952814 0.059033398 -0.090198494 0.053426955 -0.068514675
0.07090925 0.028137809 0.036344275 0.024250016 -0.0043061734 -0.026643526 -0.085071 0.0017848387
0.10590787 -0.097477615 -0.08253577 0.075080745 -0.005066874 0.04477311 -0.042446297 0.112670064
-0.08108906 0.08253422 0.070368245 0.010603015 0.04824541 -0.03084978 0.029961145 0.040550694
0.07605809 0.043536097 0.09687665 -0.043912217 0.024022095 -0.09090596 0.06475143 0.06412098
0.09832829 0.054000795 -0.051742565 0.065236434 0.092772536 -0.05105254 -0.076969 0.05287059
-0.003936876 0.07372767 0.10590297 -0.011095625 0.08332974 0.057872612 0.007300405 -0.016434394
0.0020187497 -0.0008576384 -0.089494534 0.0978129 0.10682496 -0.11113988 -0.10908609 0.05076745
0.08621274 -0.08505569 -0.039742712 0.09482573 -0.01735757 0.1154428 -0.007999435 -0.0366956
-0.109600276 0.042378426 -0.0365581 -0.016160738 -0.08788052 -0.00024052487 0.09701812 0.025620015
0.022174627 0.06551197 0.08959976 -0.07760955 -0.093051605 -0.0334749 0.100583404 0.016290672
-0.013950714 0.03453634 -0.020825952 0.10879426 0.027782038 -0.0029949832
00000000: cacd 893b b987 dabd 1628 74bc 4039 57bd
00000010: 5ab8 cd3d b034 0bbd 63a9 c73d b952 d3bd
00000020: 28a9 b8bd a550 55bb 07ab 803d be8f 1fbd
00000030: d831 453d f882 d13d 1678 3abd 48a2 cdbc
00000040: f892 353d 8d88 64bd f519 c8bd c2d2 853d
00000050: 4e13 55bd 7416 c4bd 1740 fe3c 03db 8ebd
00000060: 1481 5f3d 7370 86bc a039 c1bd 9326 5a3d
00000070: 3298 55bc a4fc 093c 4433 debd 8a9b 40bd
00000080: a5af c7bd bd1d c03c 0342 443d b01a 8eba
00000090: ea88 6bbd 6e28 863d 4e9e 773d 3022 0d3d
000000a0: 0358 e13d cf20 c33a f41b 153d c4c0 b33d
000000b0: 5618 b43d 8cf7 b23d d4e4 43bd 6aee 18bd
000000c0: 1c03 673d 79e9 75bc 009c 9cb8 00d6 66ba
000000d0: 4c67 f4bc c1df 453d 928e da3c 4b7a be3d
000000e0: 3981 34bd 467b b6ba aab1 72bd 05de 4abd
000000f0: 01cd 713d fdb9 b8bd 39d6 5a3d 6c51 8cbd
00000100: de38 913d 4381 e63c bcdd 143d f8a7 c63c
00000110: cd1a 8dbb 8643 dabc b439 aebd 40f1 e93a
00000120: 3ae6 d83d 58a2 c7bd 8408 a9bd efc3 993d
00000130: 0508 a6bb 0264 373d 2bdc 2dbd 90bf e63d
00000140: 0512 a6bd b307 a93d 3a1d 903d 45b8 2d3c
00000150: fb9c 453d aeb8 fcbc 1371 f53c 7c18 263d
00000160: 58c4 9b3d e852 323d 4467 c63d 4cdd 33bd
00000170: fcc9 c43c e72c babd 669c 843d dc51 833d
00000180: 5860 c93d f02f 5d3d 03f0 53bd ae9a 853d
00000190: 87ff bd3d 781c 51bd eca1 9dbd d58e 583d
000001a0: e900 81bb 88fe 963d a8e3 d83d 6dca 35bc
000001b0: c8a8 aa3d d50b 6d3d 3c38 ef3b 6ca1 86bc
000001c0: 004d 043b 24d3 60ba e948 b7bd 2152 c83d
000001d0: 0bc7 da3d 4e9d e3bd 8768 dfbd 88f1 4f3d
000001e0: 4e90 b03d ad31 aebd 41c9 22bd fe33 c23d
000001f0: 7631 8ebc 466d ec3d 1010 03bc 204e 16bd
00000200: 1c76 e0bd 0095 2d3d f2bd 15bd 8663 84bc
00000210: b4fa b3bd 6735 7cb9 70b1 c63d 11e1 d13c
00000220: 90a7 b53c 242b 863d 1480 b73d c1f1 9ebd
00000230: d791 bebd fa1c 09bd acfe cd3d 0474 853c
00000240: 8991 64bc fa75 0d3d 309b aabc 86cf de3d
00000250: 2897 e33c 7b47 44bb

linear3.bias f4 [2]
-0.097740695 -0.08738905
00000000: 462c c8bd 08f9 b2bd
