model1.pth (torch, 19919 bytes, 5 tensors)

linear1.weight f4 [25, 151]
0.12662786 -0.09137376 0.12002429 0.2653588 0.06485919 -0.051517732 -0.0021722077 -0.023991933
-0.03452113 0.1972374 0.076551266 0.1174318 -0.034909584 -0.0670115 -0.19383278 -0.05462408
-0.06191652 0.056904864 0.0630923 0.166114 -0.04440163 -0.058225427 0.020748604 -0.05649755
0.119204156 0.07444094 0.085265435 -0.036097404 -0.23553436 -0.15542711 -0.00996196 0.07963626
-0.15245423 -0.16221468 -0.04059293 0.122065336 0.015788762 0.08407338 0.22048552 0.124517344
0.18748806 0.0222517 0.003572184 -0.06973354 0.093206696 -0.0020858245 -0.032534 0.00084266736
0.07928224 -0.06787833 -0.041958995 -0.059632845 0.18783425 0.1357132 0.019784018 0.08679829
-0.050050594 -0.034133542 0.13720073 0.24285126 0.013400723 0.0014671442 -0.16117083 -0.1941554
-0.24268313 -0.109179676 -0.055326678 0.08671564 -0.015761493 0.13074683 0.007936831 -0.1388072
-0.14060326 0.14582759 -0.20090711 -0.11379315 -0.035403617 0.0019610836 -0.0939852 -0.26833272
-0.063052565 -0.0027488782 -0.14694214 -0.14398518 -0.011331801 0.03370255 -0.1214634 0.010201878
0.09684969 0.06389239 0.11389858 0.005305148 -0.1081516 -0.082003586 0.011083871 -0.034490842
-0.06445085 -0.044152148 0.00019572584 -0.036007095 0.0624069 0.022848763 0.047818977 0.014726538
0.0067301383 0.061292753 -0.009339381 -0.030242138 -0.028047545 -0.030331189 0.026740259 -0.006023877
-0.03477354 0.0023138823 -0.020054616 0.035068307 0.050782345 -0.042894416 0.026829481 0.023803895
0.043962326 -0.0101541625 -0.038237203 0.0025888016 0.056052 -0.024676535 0.062451337 0.08129082
0.008796483 0.018607793 -0.020939957 0.0458903 0.08788266 -0.033951372 0.0022138243 -0.06820247
-0.04594309 0.07895595 0.018477876 0.012284465 0.089741305 0.03454046 -0.052602317 0.061563347
0.07246043 -0.039139755 0.053030524 0.08440634 0.048322305 -0.07088139 -0.044618838 0.00844864
0.12514417 0.055832 0.17659245 0.036832795 -0.002848778 0.17278738 0.062193397 -0.06448121
0.011655884 -0.000723196 0.040183213 0.00078734796 0.056662753 0.013657811 0.12570563 0.027397739
-0.0045709284 -0.059460297 -0.093990505 -0.08486527 -0.10760351 -0.029282054 0.12340642 0.050817072
-0.074382804 0.0020463367 -0.038193293 -0.040681336 0.0952746 0.015133133 -0.017367346 -0.12441163
-0.028410185 0.01279324 0.12465092 0.12648694 0.15135959 0.042691108 0.008489139 0.17613263
0.04344384 0.11139414 0.031145828 0.10247596 0.100622125 0.08887082 0.1633106 0.10979907
0.15227629 -0.017705584 -0.01318007 0.12411028 0.09904331 0.12633626 0.06480168 0.057156187
0.13837591 0.08880694 -0.02413715 0.04850824 -0.007877118 -0.038430754 -0.003942675 -0.01960353
-0.015390446 0.0007416962 -0.05346028 -0.061258815 -0.09759145 -0.039056662 -0.06242535 -0.08184497
0.062064055 -0.0046532783 -0.09368087 -0.04004717 0.07365596 0.14017405 -0.0046094568 0.10487772
-0.049925137 -0.030487934 -0.039301246 -0.03541074 -0.057337288 0.054717597 0.14081796 0.04155786
0.09370637 0.17975599 0.1453534 0.021272445 -0.08596921 0.0754612 0.18145263 0.106950164
0.10937274 -0.0038352483 0.15408859 0.0003599351 -0.028101394 -0.07855639 -0.096063785 -0.06752932
00000000: bcaa 013e 2a22 bbbd 4ccf f53d 1cdd 873e
00000010: e5d4 843d 4204 53bd 995b 0ebb bb8a c4bc
00000020: 0766 0dbd 9af8 493e e9c6 9c3d 1580 f03d
00000030: 5afd 0ebd 533d 89bd 1a7c 46be 80bd 5fbd
00000040: 2d9c 7dbd 1315 693d 8936 813d ca19 2a3e
00000050: 7cde 35bd c97d 6ebd faf8 a93c fa69 67bd
00000060: 4f21 f43d 7e74 983d a59f ae3d dfda 13bd
00000070: eb2f 71be 4928 1fbe 7d37 23bc 5618 a33d
00000080: f61c 1cbe 9b1b 26be c644 26bd 64fd f93d
00000090: 6f57 813c aa2e ac3d f5c6 613e f302 ff3d
000000a0: dffc 3f3e 3249 b63c 4d1b 6a3b 75d0 8ebd
000000b0: 27e3 be3d 54b2 08bb 5f42 05bd 73e6 5c3a
000000c0: ba5e a23d cb03 8bbd 32dd 2bbd 9241 74bd
000000d0: 9f57 403e 67f8 0a3e 1812 a23c 4dc3 b13d
000000e0: da01 4dbd 9dcf 0bbd 597e 0c3e 00ae 783e
000000f0: b58e 5b3c 314d c03a f709 25be acd0 46be
00000100: ed81 78be 9899 dfbd 3a9e 62bd f897 b13d
00000110: 3f1e 81bc 7fe2 053e 7b09 023c 7a23 0ebe
00000120: 4dfa 0fbe d453 153e 98ba 4dbe 620c e9bd
00000130: 6203 11bd 8685 003b 507b c0bd e862 89be
00000140: b421 81bd 8626 34bb 0078 16be da70 13be
00000150: 05a9 39bc af0b 0a3d cec1 f8bd c725 273c
00000160: 2159 c63d 03da 823d a943 e93d cfd6 ad3b
00000170: 967e ddbd 7ff1 a7bd 2099 353c 4546 0dbd
00000180: cffe 83bd e2d8 34bd c13b 4d39 2d7c 13bd
00000190: 619e 7f3d 542d bb3c d5dd 433d 9447 713c
000001a0: 7e88 dc3b 1c0e 7b3d 3404 19bc 5cbe f7bc
000001b0: f7c3 e5bc 1d79 f8bc 630e db3c f163 c5bb
000001c0: b36e 0ebd 81a4 173b 9449 a4bc c9a3 0f3d
000001d0: 2601 503d 0eb2 2fbd 80c9 db3c 6300 c33c
000001e0: d711 343d a55d 26bc 9d9e 1cbd e2a8 293b
000001f0: c896 653d 7226 cabc f9cc 7f3d cd7b a63d
00000200: 201f 103c 5f6f 983c 468a abbc 78f7 3b3d
00000210: d3fb b33d 9810 0bbd cf15 113b bdad 8bbd
00000220: d22e 3cbd a8b3 a13d ea5e 973c c844 493c
00000230: 4aca b73d 4c7a 0d3d 8775 57bd d929 7c3d
00000240: 2266 943d 0251 20bd 8936 593d 3bdd ac3d
00000250: 9ced 453d 432a 91bd 3ec2 36bd 2a6c 0a3c
00000260: cb25 003e 18b0 643d a7d4 343e fcdd 163d
00000270: 90b2 3abb 2def 303e 81be 7e3d ba0e 84bd
00000280: 52f8 3e3c dd94 3dba 2797 243d 0766 4e3a
00000290: 3417 683d 03c5 5f3c fab8 003e 3971 e03c
000002a0: bac7 95bb a48c 73bd 187e c0bd d8cd adbd
000002b0: 3b5f dcbd ebe0 efbc 81bc fc3d 9025 503d
000002c0: 0356 98bd d51b 063b 9270 1cbd 79a1 26bd
000002d0: 541f c33d f6f0 773c f745 8ebc 86cb febd
000002e0: 7abc e8bc bd9a 513c fb48 ff3d cb85 013e
000002f0: 02fe 1a3e dfdc 2e3d 0816 0b3c 1d5c 343e
00000300: 2bf2 313d 9c22 e43d 8925 ff3c ebde d13d
00000310: f912 ce3d e801 b63d e53a 273e 56de e03d
00000320: 51ee 1b3e 4d0b 91bc 38f1 57bc 882d fe3d
00000330: 38d7 ca3d 4b5e 013e beb6 843d 9b1c 6a3d
00000340: 6ab2 0d3e 6ae0 b53d 46bb c5bc 94b0 463d
00000350: 070f 01bc 9169 1dbd 8e31 81bb 9597 a0bc
00000360: 3628 7cbc 646e 423a 2bf9 5abd 86ea 7abd
00000370: 07de c7bd e1f9 1fbd b9b1 7fbd 569e a7bd
00000380: e136 7e3d 877a 98bb c2db bfbd 8008 24bd
00000390: f0d8 963d c989 0f3e ed0a 97bb 21ca d63d
000003a0: 4d7e 4cbd d5c1 f9bc 58fa 20bd da0a 11bd
000003b0: 81da 6abd 8f1f 603d 9532 103e 9338 2a3d
000003c0: 20e9 bf3d f411 383e 86d7 143e 8d43 ae3c
000003d0: a010 b0bd 678b 9a3d b8ce 393e b008 db3d
000003e0: d1fe df3d ca58 7bbb 66c9 1d3e acb5 bc39
000003f0: e534 e6bc 2ce2 a0bd 17bd c4bd d04c 8abd

linear1.bias f4 [25]
0.009682852 0.0365031 0.05563823 -0.08161893 0.09282737 -0.025547119 0.05861613 0.044850457
-0.03765537 0.06932997 -0.08732246 0.060953975 0.040928815 0.078332946 0.077758275 0.12108724
-0.0012027177 0.12146717 0.014222387 0.071571834 -0.08851223 -0.068460055 0.0486802 0.050041866
0.0762865
00000000: d3a4 1e3c 4684 153d eae4 633d d327 a7bd
00000010: 471c be3d 3148 d1bc 7817 703d 1db5 373d
00000020: 843c 1abd dffc 8d3d 1ed6 b2bd e0aa 793d
00000030: f9a4 273d 066d a03d bb3f 9f3d 96fc f73d
00000040: 82a4 9dba c8c3 f83d 0405 693c 4194 923d
00000050: e645 b5bd c934 8cbd e464 473d b3f8 4c3d
00000060: 193c 9c3d

linear2.weight f4 [25, 25]
-0.016383098 -0.1830663 0.13583426 0.2215223 -0.12238744 0.05186701 0.117080405 0.024386883
-0.044400755 -0.4363353 -0.17319416 0.03200872 0.10628044 0.0059194216 0.18945737 0.16435827
0.021004329 -0.025693638 0.1998947 -0.062351312 0.08545005 -0.0378984 -0.1305908 -0.008177617
0.09336703 0.24515271 -0.0459191 0.03358653 0.08489802 0.15156882 0.14097838 -0.06555902
-0.010950491 0.020197446 -0.16369623 -0.1331961 0.16997893 -0.11747781 -0.09055393 0.048929106
0.22760399 0.23720637 0.13220602 0.07597494 -0.1501955 -0.13361491 -0.16086648 0.0070897103
-0.1147725 0.05937722 0.071783684 -0.064570665 -0.18669367 -0.15037958 -0.12057426 0.079131655
-0.1936167 -0.021871949 -0.042415358 -0.046976853 0.015291572 0.13424252 -0.19613789 -0.102799706
-0.08890989 0.1684171 -0.06190169 0.060966253 0.088607095 0.020487046 -0.117603995 -0.17059855
-0.041000392 0.041182995 -0.16565461 -0.04274554 0.017998267 -0.028629685 -0.11988115 -0.14203902
0.19593568 -0.024102211 0.039247345 0.16336672 -0.048143055 -0.18679848 -0.13491471 -0.17524615
0.13832481 -0.18531643 -0.10770698 0.05788512 0.049640704 0.065102056 -0.09097085 -0.0045820237
-0.022636294 -0.07425523 -0.08998251 0.16026087 0.11342065 -0.11556654 -0.018837666 -0.049667016
-0.0042502405 0.043363094 0.12644587 0.034384124 -0.048149943 -0.06563298 -0.18776646 0.09462271
-0.11656727 -0.11271105 0.07582756 -0.027146008 0.068385445 -0.058850132 0.09011038 0.06762636
-6.6683584e-05 0.109670155 -0.060943414 0.06912266 -0.10195358 0.17951459 0.21446963 0.012658811
-0.068952955 0.13023707 -0.027261734 -0.10455687 -0.14686662 -0.114870474 -0.012670404 -0.026845155
0.14299357 -0.043286763 -0.12913086 -0.18202603 0.228448 0.10712867 0.013758283 0.0061497926
-0.021973792 0.13388023 -0.0017276988 -0.11744251 0.07540377 0.15711167 0.10861246 0.07313034
0.15046552 -0.06172749 0.10400095 -0.18937309 -0.124102764 -0.19180287 -0.036604896 0.03254242
-0.026173124 -0.019352628 -0.1537029 0.0938939 0.038195346 0.03715929 0.122431 0.04588656
-0.18785098 -0.11262929 -0.18348446 0.0017117946 -0.10480767 0.010591808 -0.19068229 0.20409638
-0.100611135 0.045888998 -0.11381446 0.073492035 -0.19494978 -0.0030568342 -0.008481295 0.10187295
0.0895775 0.20977774 0.15439263 -0.026494619 0.19654988 -0.03818126 0.23113842 0.06545195
-0.12250175 0.050374128 0.011534656 -0.057958174 -0.05453195 -0.053899504 0.121015884 -0.10048845
-0.16147842 -0.07365099 0.147379 -0.14490929 0.0296728 -0.11513453 -0.19785671 0.19753838
-0.07014586 0.03170057 0.15529819 -0.010674477 0.16915114 0.062999666 -0.07293021 -0.090233885
0.11178398 -0.033135127 -0.1327674 -0.1813661 0.020781418 0.14213772 0.04717741 0.073708
-0.103368476 0.00410295 -0.040771652 0.012730432 0.0026921213 0.17124918 0.046774365 0.036290348
0.016623754 -0.0603722 0.07731874 -0.058124356 0.049987484 -0.13714321 0.23372047 -0.109963976
-0.14390606 -0.059940487 0.023880258 -0.18656139 -0.046505507 0.11574862 -0.16225833 -0.16227265
0.16951048 -0.01630559 0.06425431 0.21779048 0.07165559 -0.0075214934 0.20527078 -0.0892792
00000000: d935 86bc bb75 3bbe 2318 0b3e bed6 623e
00000010: 44a6 fabd 8072 543d dac7 ef3d 00c7 c73c
00000020: 91dd 35bd 5767 dfbe cf59 31be 931b 033d
00000030: 8fa9 d93d b5f7 c13b 1d01 423e 894d 283e
00000040: 4511 ac3c 777b d2bc 32b1 4c3e 1764 7fbd
00000050: 7000 af3d 5a3b 1bbd 98b9 05be 69fb 05bc
00000060: 3737 bf3d 5009 7b3e ab15 3cbd 0792 093d
00000070: 03df ad3d db34 1b3e a35c 103e cf43 86bd
00000080: b069 33bc 1d75 a53c fc9f 27be 8f64 08be
00000090: f50e 2e3e 3598 f0bd 5774 b9bd e369 483d
000000a0: 0511 693e 3ae6 723e 0461 073e c098 9b3d
000000b0: d9cc 19be 59d2 08be 2fba 24be cd50 e83b
000000c0: d80d ebbd 8735 733d 5303 933d a03d 84bd
000000d0: a02c 3fbe 1bfd 19be a3ef f6bd c70f a23d
000000e0: 7543 46be cd2c b3bc babb 2dbd cd6a 40bd
000000f0: 8089 7a3c df76 093e 5fd8 48be a788 d2bd
00000100: 6316 b6bd 8875 2c3e a08c 7dbd c0b7 793d
00000110: a377 b53d 73d4 a73c 5dda f0bd 63b1 2ebe
00000120: 07f0 27bd 80af 283d 5da1 29be f315 2fbd
00000130: 1a71 933c cd88 eabc 4084 f5bd ad72 11be
00000140: 5da3 483e 0072 c5bc d3c1 203d 9b49 273e
00000150: a731 45bd 1a48 3fbe 1527 0abe ba73 33be
00000160: 05a5 0d3e 97c3 3dbe 7a95 dcbd f318 6d3d
00000170: 0d54 4b3d 3a54 853d ed4e babd cd24 96bb
00000180: c06f b9bc 2013 98bd c048 b8bd 6d1b 243e
00000190: 1649 e83d 26ae ecbd 7351 9abc a46f 4bbd
000001a0: 9a45 8bbb 809d 313d 077b 013e 5ed6 0c3d
000001b0: e038 45bd 956a 86bd da45 40be 8dc9 c13d
000001c0: d2ba eebd 0dd5 e6bd 7b4b 9b3d 4e61 debc
000001d0: ab0d 8c3d d60c 71bd ca8b b83d b07f 8a3d
000001e0: 7ad8 8bb8 bf9a e03d cd9f 79bd 2e90 8d3d
000001f0: 0acd d0bd acd2 373e ed9d 5b3e e766 4f3c
00000200: 3537 8dbd de5c 053e 0054 dfbc ea21 d6bd
00000210: 3464 16be 3641 ebbd 8797 4fbc 5fea dbbc
00000220: e86c 123e 764d 31bd e13a 04be 0865 3abe
00000230: 46ee 693e 4766 db3d 6c6a 613c 3384 c93b
00000240: 6202 b4bc e617 093e f473 e2ba b385 f0bd
00000250: 4b6d 9a3d e2e1 203e 3670 de3d 5cc5 953d
00000260: a213 1a3e f7d5 7cbd 73fe d43d 05eb 41be
00000270: 9729 febd f967 44be 04ef 15bd 334b 053d
00000280: 0569 d6bc 6789 9ebc 4b64 1dbe 724b c03d
00000290: b972 1c3d 5734 183d 1bbd fa3d 8cf3 3b3d
000002a0: 025c 40be 2faa e6bd 5ae3 3bbe 4c5e e03a
000002b0: 67a5 d6bd 4389 2d3c 3842 43be a4fe 503e
000002c0: 360d cebd 1af6 3b3d 8e17 e9bd fe82 963d
000002d0: eaa0 47be 2b55 48bb 21f5 0abc c4a2 d03d
000002e0: 6974 b73d facf 563e 1a19 1e3e 3e0b d9bc
000002f0: 5f44 493e f463 1cbd 8daf 6c3e ac0b 863d
00000300: 33e2 fabd 1a55 4e3d dbfb 3c3c 8d65 6dbd
00000310: e55c 5fbd bac5 5cbd 2dd7 f73d e3cc cdbd
00000320: 995a 25be 55d6 96bd 85ea 163e 1a63 14be
00000330: 5f14 f33c a7cb ebbd f39a 4abe 8047 4a3e
00000340: a2a8 8fbd 75d8 013d 7d06 1f3e 00e4 2ebc
00000350: f535 2d3e f805 813d 6f5c 95bd 8bcc b8bd
00000360: 00ef e43d b3b8 07bd 2df4 07be 09b8 39be
00000370: cb3d aa3c 8d8c 113e 1a3d 413d 38f4 963d
00000380: dab2 d3bd 0a72 863b 2d00 27bd 4d93 503c
00000390: 4d6e 303b f25b 2f3e 7a96 3f3d 30a5 143d
000003a0: 8a2e 883c d748 77bd 4a59 9e3d ce13 6ebd
000003b0: adbf 4c3d 456f 0cbe 6b54 6f3e cb34 e1bd
000003c0: 1c5c 13be 2884 75bd 88a0 c33c f309 3fbe
000003d0: 8f7c 3ebd 9d0d ed3d 0c27 26be cd2a 26be
000003e0: 2894 2d3e 4d93 85bc c497 833d 7804 5f3e
000003f0: 2ac0 923d dc76 f6bb 8132 523e 03d8 b6bd

linear2.bias f4 [25]
-0.051896553 -0.022505954 -0.105839275 -0.16863139 0.04967989 0.17540088 0.17124684 -0.03672904
-0.1454015 0.029550778 -0.08652447 0.10831802 -0.13881835 0.096425 -0.19423501 -0.06089437
-0.079455644 -0.17156012 -0.109961346 0.03519379 -0.14618424 0.1315629 -0.1610866 0.1484782
-0.19351096
00000000: 7b91 54bd 685e b8bc 43c2 d8bd b5ad 2cbe
00000010: 247d 4b3d 4a9c 333e 555b 2f3e 3171 16bd
00000020: 21e4 14be 7914 f23c be33 b1bd d7d5 dd3d
00000030: 6626 0ebe 787a c53d 8be5 46be 606c 79bd
00000040: a4b9 a2bd 75ad 2fbe 6a33 e1bd 5d27 103d
00000050: 52b1 15be 6db8 063e e3f3 24be ab0a 183e
00000060: bd27 46be

linear3.weight f4 [1, 25]
-0.16068193 0.24509744 0.051249336 0.13618004 -0.15512347 0.08019635 0.17138672 0.104670644
-0.16889717 0.06422014 0.117708445 0.90364087 -0.35053632 -0.04680636 -0.3021077 -0.016057132
-0.04628592 -0.20756096 0.543921 -0.16636342 0.06572872 0.1405451 -0.0583792 0.08272378
-0.3132072
00000000: ce89 24be d3fa 7a3e d3ea 513d c872 0b3e
00000010: b0d8 1ebe fc3d a43d 0080 2f3e 905d d63d
00000020: 61f3 2cbe d985 833d 2011 f13d 0255 673f
00000030: 7f79 b3be 07b8 3fbd dcad 9abe 3f8a 83bc
00000040: 4e96 3dbd dc8a 54be 683e 0b3f 2c5b 2abe
00000050: c79c 863d 0eeb 0f3e 071f 6fbd 166b a93d
00000060: b25c a0be
