model.pth (torch, 19911 bytes, 5 tensors)

linear1.weight f4 [25, 151]
000000 9f 83 93 bb 23 b8 a9 bd fc 2d e9 bc 45 79 79 3d
       -0.0045017744 -0.082870744 -0.02846431 0.060906667
000010 74 c4 2e 3b cf 0e 1b 3c a2 1c 92 bd 99 d2 f6 bb
       0.0026667388 0.00946398 -0.071343675 -0.0075324294
000020 5d fe 38 bd 8a 71 cc 3b ac 9b 2f bd 70 44 a8 3b
       -0.045164455 0.006239121 -0.04287307 0.0051351115
000030 06 f0 a4 3c 44 c3 d9 3d 70 00 b9 3d de ee ec 3d
       0.020133983 0.10632947 0.090332866 0.11568998
000040 45 b4 d6 3d 2a 22 af 3d 2f 9e d4 3d a6 8e 71 3c
       0.104836024 0.08551438 0.103817336 0.014743483
000050 1f 96 e1 3d b5 14 85 3d e5 8d 16 3e b5 45 15 bd
       0.110149615 0.0649809 0.14702566 -0.03644343
000060 6f 73 95 bc 9a 0d 07 3d b9 b3 8e bd c4 76 41 bc
       -0.01824352 0.032971956 -0.06967873 -0.011808101
000070 a4 78 9a bb d1 27 c3 3a a5 d6 a8 bc b6 17 d0 3b
       -0.0047140885 0.0014889186 -0.020610163 0.006350483
000080 e2 3b 0b 3e b0 f7 19 3d 45 e4 90 3d 64 de 37 3c
       0.13597062 0.03758973 0.07074789 0.011222456
000090 69 99 4b 3d ae 14 00 3c d5 34 0f bd 9e 9b 39 bd
       0.04970685 0.00781743 -0.034962494 -0.045314424
0000a0 35 9d 43 be 5c 46 b0 bb a9 52 06 bd 7c 02 61 3d
       -0.19102938 -0.0053794812 -0.032793675 0.05493401
0000b0 e6 06 9b 3d 74 88 b2 3d 80 0b 22 bd df 8d df 3d
       0.07569675 0.087174326 -0.03956175 0.10915732
0000c0 e9 cc 03 3e 2f aa 86 3e 7f 8f 3b 3c 31 e0 06 3e
       0.12871136 0.26301715 0.011447786 0.1317146
0000d0 28 7a 9e bd c6 36 b5 3d 1c ef ab 3d 44 00 34 bd
       -0.07738143 0.08848338 0.08395216 -0.043945566
0000e0 d1 cc 6b bd d9 ea 77 bd 01 83 95 3d 56 27 cd bd
       -0.057568375 -0.060526703 0.07300378 -0.10017268
0000f0 07 9b 8a bc 6e ed 5f 3b 33 03 eb 3d 32 90 63 3d
       -0.016919626 0.0034168619 0.114752196 0.055557437
000100 fc 50 46 3d 99 a6 c6 bc 8a 42 77 3e 50 3e bf 3b
       0.048417076 -0.024249362 0.24146476 0.0058362857
000110 8b 82 b9 3d f6 2a 24 3d 96 be df 3c a7 92 11 3e
       0.09058102 0.040080033 0.027312558 0.142161
000120 b8 c6 dd 3d f8 bc 06 be ef 8c 2c bc a1 44 98 bd
       0.10828918 -0.13158023 -0.010531648 -0.07434965
000130 9c e0 03 bd 0c 27 cc bd 52 04 2c be 0c e8 e2 3c
       -0.032196626 -0.09968385 -0.16798523 0.02769854
000140 79 e1 00 bd ab 3e 61 bc 7c 53 2f 3a 77 e3 0d 3e
       -0.031465027 -0.013747851 0.00066881604 0.13856302
000150 3a da eb bb 15 73 08 3d 1c 4f 39 3d 1e bd 3f 3d
       -0.0071976455 0.033312876 0.04524146 0.046811216
000160 84 fc 0b 3d a5 8c 9b 3d 19 91 08 bd 44 13 e2 bd
       0.034176365 0.07595185 -0.0333415 -0.11038831
000170 ac 3c e9 3d c1 54 21 3e 63 0e b8 3d 6f 0b 78 3d
       0.11388525 0.15754987 0.08987119 0.06055778
000180 3e 12 ac 3d 9b 01 a9 3c 10 e0 0b 3e e3 f6 1a 3e
       0.08401917 0.020630648 0.13659692 0.15133242
000190 e5 4d dd bb d0 80 88 3c 69 5e a3 bc 8e c6 fd bc
       -0.0067536705 0.016662985 -0.01994248 -0.030978467
0001a0 0f 63 ed bd f6 8a 91 bd 65 ac de 3c d1 c6 fe bc
       -0.115911596 -0.07106583 0.027181813 -0.031100662
0001b0 86 69 cd bd d6 07 ce bd a3 3f 80 bd ac 69 bc bc
       -0.100298926 -0.10060088 -0.06262138 -0.022999607
0001c0 b1 c9 d6 bc 3e 14 ed bd b6 72 9b bb 18 ca dd 3c
       -0.02621922 -0.115761265 -0.004743899 0.027073905
0001d0 26 bb 9f bd e3 00 e7 3c 19 d5 bc bd 2b 3c 32 bd
       -0.077993676 0.028198665 -0.09220333 -0.043514412
0001e0 78 c2 d3 bd 71 5b b7 bd 46 e9 1d 3d ff cb 5b 3b
       -0.10339826 -0.08952988 0.038552545 0.003353834
0001f0 fa ba 80 3b a6 f4 cc bd 58 fa d5 3c 17 1b e4 3c
       0.0039285393 -0.100076005 0.02612035 0.027844949
000200 96 12 ec bd ce 6e 86 bd 17 57 85 bd da 6f 35 3c
       -0.115269825 -0.06564103 -0.06510752 0.011074031
000210 b8 91 bf bd 57 d5 7c bd 12 a4 00 3d 45 42 9a 3b
       -0.093539655 -0.061726894 0.03140647 0.004707607
000220 e8 1b e8 bd c8 13 18 bd 37 09 1b 3d 72 5a d7 bc
       -0.11333448 -0.03712824 0.037850585 -0.026288245
000230 ba 64 06 3d cb 84 7a 3c 1b c7 32 3d b8 e3 f5 3c
       0.032810904 0.015290449 0.043646913 0.030015811
000240 f2 30 31 bd ed 0c 19 3c c2 fc 79 bd 24 d4 db 3c
       -0.04325957 0.009341461 -0.061032064 0.026834555
000250 cc ad 3a 3d 17 8a 2b 3d bd 60 b1 3e e2 de 03 be
       0.045575902 0.04187974 0.34644118 -0.12877992
000260 32 ef f3 3c ed eb 0e bd 5b 82 ab bc 72 7b 90 3d
       0.029777143 -0.034892965 -0.020936182 0.07054795
000270 e7 98 85 3e f6 94 73 3e 20 1b 63 3d bb 8c e1 3d
       0.26093218 0.23787293 0.05544579 0.1101317
000280 c8 df f1 3d f2 2b 56 3e b7 46 5d 3e 2b 69 a1 3d
       0.11810261 0.20915201 0.21609007 0.07881387
000290 71 c2 93 3d ae 3d 0b 3c ab 9c 36 be a8 8d 9e be
       0.07214821 0.008498592 -0.17833202 -0.3096745
0002a0 5b 56 4b be 96 4d 92 bd a6 11 35 3b 25 f0 39 3e
       -0.19857161 -0.071437046 0.0027628927 0.18158014
0002b0 0b 3c 14 3e 74 cc a7 3d 4a 08 4f 3d 14 29 ce 3c
       0.1447603 0.08193293 0.050545014 0.025166072
0002c0 0a 0f fd bc a0 cd fb 3d 20 60 b2 bd 5a eb 7a bd
       -0.03089096 0.12295079 -0.08709741 -0.061259605
0002d0 9c 6c b9 bd f3 6f cc 3d 2a 90 7c 3d 31 d2 bb 3d
       -0.09053919 0.0998229 0.061660923 0.0917095
0002e0 7a 91 9c 3d 6f 1a 12 3e 0c 55 12 bd 30 fc 27 bc
       0.07644935 0.14267896 -0.03572564 -0.010252997
0002f0 df a4 2e be 94 41 f9 bd 96 d0 1e be e6 7b a2 bc
       -0.17055081 -0.12170711 -0.15509257 -0.01983447
000300 55 9d 76 bd e8 e6 bd 3b 4c 05 23 bc 5d 6e bf 3d
       -0.060208637 0.0057953484 -0.009949993 0.09347222
000310 d7 11 68 3e 6d c7 50 3e 06 74 a0 3d 7e d7 83 3e
       0.22663055 0.20388575 0.0783463 0.25750345
000320 32 c9 23 3e cf 56 3a be a2 14 4c bd 32 b6 41 bd
       0.15994719 -0.18197177 -0.049824364 -0.047292896
000330 18 82 87 3d 7d 04 71 3d d1 35 80 3e ab 58 91 3e
       0.0661661 0.05884217 0.2504106 0.2838796
000340 84 40 b7 3e cd 81 2a 3e d1 d8 43 3e d4 40 81 3e
       0.3579141 0.16651078 0.19125678 0.25244772
000350 1c 3b 7e 3e aa ff ca 3d a5 15 cc bd 28 2b 33 3d
       0.24827236 0.09912045 -0.09965066 0.04374233
000360 ad c0 29 be 5a 58 6d be a4 31 5b be 41 2b a5 bd
       -0.16577406 -0.23178235 -0.21405655 -0.08064891
000370 23 40 fe bd fc d3 f6 3d 98 37 f6 3d 88 a7 ae 3b
       -0.12414577 0.120521516 0.120223224 0.00533003
000380 01 45 8b 3d a8 51 16 3c 7a 44 8b bc 10 ea d7 3d
       0.06800271 0.009174742 -0.017000426 0.10542691
000390 aa 57 10 bd 4a 4c 6f bb 0e ca b2 3d f0 cd 4b 3e
       -0.035239853 -0.0036513978 0.08729945 0.19902778
0003a0 97 57 43 3e 5e 6d 1f 3e 02 8d 2b bd 99 b5 9d bd
       0.19076382 0.15569064 -0.041882522 -0.07700653
0003b0 94 3a bc bd ea e1 2e be 12 c0 31 be 24 01 9d be
       -0.091908604 -0.17078367 -0.17358425 -0.30664933
0003c0 e6 c3 78 be ab 7e 8a bd 28 56 74 3d 9f ad 99 bd
       -0.2429348 -0.06762441 0.059652478 -0.07503819
0003d0 8b 8e c2 bc 09 45 4b 3e c5 67 11 3e b0 18 14 3e
       -0.02374961 0.19850554 0.14199741 0.14462543
0003e0 8d 9b 11 3e 20 19 7c 3e d7 36 80 3e fa 49 00 3d
       0.14219494 0.2461896 0.2504184 0.03132055
0003f0 ac 20 d2 bc f2 db a7 bb 9e 9c 2b bc 93 41 e3 bd
       -0.025650345 -0.005122655 -0.010474352 -0.11096492

linear1.bias f4 [25]
000000 8e f1 ce bc 6d c0 20 3e dd 3b a1 bd 7a 24 81 bd
       -0.025261667 0.15698405 -0.07872746 -0.063057855
000010 38 d7 a4 bd 21 16 5c bc e5 65 cd bc 81 b9 40 3d
       -0.08048862 -0.01343301 -0.025073001 0.04705191
000020 aa 8c c4 3d c5 59 a7 bd 36 8a 0f 3e ad 96 8e 3c
       0.09597142 -0.08171419 0.14017567 0.017405832
000030 29 fa 82 3d db 5c 57 bd 38 03 90 bd c4 d9 d8 3b
       0.063953705 -0.05257879 -0.07031864 0.0066177566
000040 7a 3b f1 3c a9 32 b7 bd 6f 0b be 3c 95 6c 9e 3b
       0.029447306 -0.089452095 0.023198811 0.0048347213
000050 85 14 58 bd 18 26 88 3d c4 03 92 3c 55 37 dc bb
       -0.052753944 0.06647891 0.017824061 -0.0067204633
000060 04 1b 82 3d
       0.06352809

linear2.weight f4 [25, 25]
000000 93 7c 9a 3d 1a 1d 27 be 0d fb 4a be 20 d9 e9 bd
       0.07543292 -0.16319695 -0.19822331 -0.114183664
000010 b7 62 85 bd a7 14 80 bd 7b 52 e6 bd 00 c5 a0 bd
       -0.06512969 -0.06253939 -0.11246201 -0.07850075
000020 ad fb ad bc 49 39 23 bd f8 09 d7 bd e8 21 3a 3d
       -0.021238172 -0.039849553 -0.10499948 0.04544249
000030 4d 58 49 bb 3b 1c 1c 3e 28 02 34 3e b9 d0 22 3e
       -0.0030722797 0.15245144 0.17578948 0.15899934
000040 1d 70 e9 bd 75 d4 e1 3c f7 91 34 be 6c bd ff bd
       -0.11398337 0.027567128 -0.17633806 -0.12487301
000050 4d 4c 01 be d4 1e 3c 3e a3 9b 56 3d 68 2a b4 bd
       -0.12626763 0.18371135 0.05239452 -0.08797151
000060 f0 a2 28 3d 3e 60 08 be 6c 59 4d be f7 2d c5 bd
       0.041171014 -0.13317963 -0.20053643 -0.09627908
000070 93 3f 7f bd 8e 30 8c bc f0 6b e1 bd 53 cc 3a be
       -0.06231649 -0.017112996 -0.110069156 -0.18242006
000080 00 06 42 bc cd 7c 13 be 48 52 c0 bd f0 9b e9 bc
       -0.011842251 -0.14403076 -0.09390694 -0.02851674
000090 1b 0d a5 bc b0 ba fd bb 33 f7 e2 3c 75 f0 7c bd
       -0.02014785 -0.007743202 0.027705764 -0.061752755
0000a0 9e cc 39 ba 80 0b 51 bc a1 de 55 bd 72 f1 32 3e
       -0.000708768 -0.0127590895 -0.05221427 0.17474917
0000b0 ea a3 3f be 00 29 f0 3d 3e cc 16 3e 14 ed 5f bd
       -0.18714872 0.1172657 0.1472635 -0.054669455
0000c0 d3 40 2c 3e 83 d9 a2 3d c0 8e b3 bb 07 f5 8d 3d
       0.16821603 0.07951643 -0.0054796636 0.06931501
0000d0 04 53 37 3e da 04 b9 3c 1d 30 1b 3e cb ef 05 bd
       0.17902762 0.022585321 0.15155073 -0.032699388
0000e0 5a 92 4c 3d 88 4a 07 be 2b 92 b3 3d 97 8b 5a be
       0.04994426 -0.13212025 0.08768114 -0.21342312
0000f0 cb db 51 be 30 6d 9f bd 69 4a 4a be ea ce 1a be
       -0.20494 -0.07784498 -0.19754948 -0.15117994
000100 fb 9d 48 be 0e ef 1b be 0a 5c c9 3d 00 11 bf 3d
       -0.19591515 -0.15227911 0.09832008 0.09329414
000110 8e a2 19 3e 0d 4e 6b be 67 6a 52 bb bf 6d 34 be
       0.15003416 -0.22978993 -0.0032106878 -0.1761999
000120 54 61 df 3d 7f a3 e1 3d 68 0a bc bd c3 6e 26 3e
       0.10907236 0.110175125 -0.09181672 0.1625319
000130 da dd 0c 3d 4e 26 45 be 03 5d 3b be ab 53 78 3d
       0.03439126 -0.19252893 -0.182972 0.060626667
000140 28 ee 12 3d 60 17 d1 bd 13 f3 27 be f1 83 52 be
       0.035871655 -0.102095366 -0.16401319 -0.20558144
000150 bb f6 3b 3e 80 1b b4 be e8 8d ee bc 8b 7c 3c 3d
       0.18355839 -0.3517723 -0.0291204 0.04601721
000160 0f c8 07 3e be 95 1e bd c2 b2 d7 3d 6a 36 d9 bd
       0.1325991 -0.038717024 0.10532142 -0.10606082
000170 cb d8 06 be 78 65 21 be b3 67 1a bd 9d 61 8a 3d
       -0.13168637 -0.15761364 -0.03769655 0.067568995
000180 6f ac 23 3c 94 e2 bb bc 84 6d 57 bd ff 45 0e 3e
       0.009989842 -0.02293519 -0.052594677 0.13893889
000190 7e e3 cb 3d a9 ea 0b 3e 03 ab 3c 3e cd 06 4e bd
       0.099555 0.13663734 0.18424611 -0.050299454
0001a0 68 bd 01 be b6 a3 e5 3d b3 2b 5d bc e7 bd ea bd
       -0.12669909 0.11212866 -0.013499188 -0.11462002
0001b0 db e8 61 be 8e cc 17 be 1d 2e 32 be 7a fd 88 bd
       -0.22061484 -0.14824125 -0.17400403 -0.06688972
0001c0 a8 97 2f bc e7 76 6b 3c 50 4e 41 be 5d b5 96 3d
       -0.01071731 0.01437161 -0.1887753 0.07358811
0001d0 bd fc 0b be 12 f0 ed 3d 8a 40 39 3e 83 21 8f 3d
       -0.13670631 0.116180554 0.18091026 0.06988814
0001e0 d8 0e 12 3e 10 6b b2 3c be 73 26 be 34 bd 6a 3c
       0.14263475 0.021779567 -0.1625509 0.014327336
0001f0 39 54 5b be 3f b2 54 be 35 5c 63 3e 4d 38 12 3c
       -0.21418847 -0.2077112 0.22203143 0.008924556
000200 60 e4 6a 3d aa 1d 89 be 19 65 5f be 5a 4e d6 bd
       0.0573467 -0.26780444 -0.2181591 -0.10464163
000210 e8 5d 3f 3e 06 fe 58 3e 94 83 ef bd 0b e9 b4 3e
       0.18688166 0.21190652 -0.116950184 0.35334048
000220 00 61 80 bd 43 7f c2 bc 00 5a e0 3b e0 ac 38 bd
       -0.06268501 -0.023742324 0.0068466663 -0.04508674
000230 d0 3d 80 bd 07 5c 14 3d 93 e1 87 3d 8e fe 02 be
       -0.0626179 0.036220577 0.06634822 -0.12792417
000240 35 10 c2 3b 1d 8d b0 bd 80 9d 12 bc ec 89 8e be
       0.005922342 -0.08620665 -0.008948684 -0.278396
000250 7b af 29 be 16 96 d5 bd f0 ef b0 3c 31 ff ac 3d
       -0.16570847 -0.10429017 0.021598786 0.084471114
000260 72 3a e3 3d 9a 01 a3 bd bc 26 48 be e1 e4 51 be
       0.11095132 -0.0795929 -0.19546026 -0.20497467
000270 49 79 8d bd ba a1 00 3d 61 f8 22 3e fa 0a 19 3e
       -0.06907899 0.031404234 0.15915062 0.14945593
000280 b5 73 7a 3d be 7b 60 bc e1 4d d3 bd 60 a2 11 bd
       0.061145503 -0.013701377 -0.103175886 -0.035555243
000290 2d 82 c6 3d c1 7d 9a 3d 33 33 2e 3e e4 ef 2d be
       0.09692798 0.07543517 0.17011718 -0.16986042
0002a0 2c 3e b6 bd 35 1f 21 3e ba 52 52 3d d4 e5 35 bd
       -0.08898577 0.15734561 0.051348425 -0.044408634
0002b0 6e 39 21 bd 64 6b 3d bd 7f 0b 37 3e 0c 18 04 3e
       -0.03936141 -0.046244994 0.17875479 0.12899798
0002c0 76 84 c7 bd c3 62 ff bd 1d 6c 38 3e 29 9c 07 3e
       -0.09742062 -0.12470009 0.18009992 0.13243164
0002d0 83 73 4f 3e b6 5c 10 be 1a 77 a3 bc 4c 26 7c bd
       0.20258908 -0.14097866 -0.019954253 -0.06155996
0002e0 04 8d 4a 3e 34 27 ca 3d 0f 2d d0 bd 64 47 2c be
       0.19780356 0.09870759 -0.10164844 -0.16824108
0002f0 57 cd f0 3d 48 72 2e 3d 76 10 cf 3d 70 35 de bd
       0.117579155 0.042589456 0.101105615 -0.10850036
000300 c0 1f de 3d 66 ff 9c 3d 6e 45 2e 3e 4d b6 1d 3e
       0.108458996 0.07665901 0.17018673 0.15401573
000310 f4 83 35 be 8b d2 95 3d 39 5e 8d 3d 94 22 09 3e
       -0.17726117 0.073155485 0.06902737 0.13392097
000320 50 29 09 bf 74 de ba bc c0 ca 87 3c e7 78 2d 3d
       -0.5357866 -0.022811152 0.01657617 0.04235163
000330 b8 90 14 bd 1a f4 aa bd ad 44 bd 3d 0d 49 c1 bd
       -0.036270827 -0.0834734 0.092416145 -0.094377615
000340 2e df 95 be 78 03 23 3e ed ff 69 3d 2b d6 45 3e
       -0.29271835 0.15919292 0.057128835 0.1931998
000350 7a 93 01 be 4d 30 d0 bd 6d 99 43 3e e7 a0 6c bd
       -0.12653914 -0.10165463 0.19101496 -0.057770636
000360 3a c0 85 bd 4d 43 8d 3c f4 3c 81 be 4e 9c e7 3d
       -0.06530805 0.017244006 -0.25241816 0.1130911
000370 8d af e0 3d 4a 05 ad 3d 17 82 3f 3c 0a e9 98 3d
       0.10970984 0.084482744 0.011688731 0.07466324
000380 f8 08 c9 bd 87 28 fe 3d 8b 03 d3 bd fa 93 10 be
       -0.09816164 0.12410074 -0.1030341 -0.14118949
000390 e3 ef d7 bd a1 22 1f be 7d ee c3 bd 34 dc 5d bd
       -0.10543802 -0.15540554 -0.095669724 -0.05416508
0003a0 d0 a7 c3 3d f4 ac 90 bd 7e 99 12 be 51 c6 85 3d
       0.09553492 -0.07064238 -0.14316365 0.065319665
0003b0 6f 92 33 be f1 f4 e8 3d e2 69 44 3e 5d 57 2d 3e
       -0.17536329 0.11374844 0.19181016 0.16927858
0003c0 e0 eb 39 be ef 84 3a 3e b5 80 31 3e f2 86 9d 3c
       -0.18156385 0.18214773 0.17334254 0.019229386
0003d0 d7 85 e9 bd d7 a1 fc 3d 4d f4 19 be f0 36 4b bd
       -0.11402481 0.12335556 -0.150346 -0.04961294
0003e0 f3 1c 31 3e af a3 fd 3d ca 6d 88 3e 57 4d 1a 3e
       0.172962 0.12384736 0.26646262 0.15068565
0003f0 c0 bc 1e 3e f3 2c 8e 3c 54 b6 6d 3e 83 d1 c3 bd
       0.1550169 0.017355418 0.23214084 -0.095614456

linear2.bias f4 [25]
000000 75 8e ac 3d 9d 65 2b 3e 45 25 16 3d 72 7f 23 bd
       0.08425609 0.16737981 0.036656637 -0.039916463
000010 d1 0b b6 bd ca 7a bb 3d d6 1b 62 be 1e b5 30 3e
       -0.088889726 0.091542795 -0.22080931 0.1725659
000020 da 0e b4 bc cf 0c d8 3c 46 bd 0d bd 2d 8c e1 bd
       -0.021979738 0.026373295 -0.034604333 -0.110130645
000030 c1 5b ff bd d9 41 ea 3c 52 cf fe 3a f1 a7 a7 bd
       -0.124686725 0.028595852 0.0019440448 -0.08186329
000040 54 b0 03 3e fd 8d f2 bd 12 c4 d4 3c 77 3c 44 be
       0.12860233 -0.11843488 0.0259724 -0.1916369
000050 f9 4b 67 be be b1 34 bd 71 f6 17 3e 4c 57 3a be
       -0.22587575 -0.04411482 0.14840104 -0.18197364
000060 5d ff 52 bc
       -0.012878266

linear3.weight f4 [1, 25]
000000 17 01 40 be dc 2c 1a be f5 d5 0e be 45 b3 8c be
       -0.18750416 -0.15056175 -0.13948806 -0.27480522
000010 ec 67 b1 3d 42 04 f4 be be 6d 20 bd c0 7e 20 3e
       0.086624 -0.47659498 -0.03916716 0.15673351
000020 f0 1d 14 3e 81 68 05 bc 7a cc ed be bb 6b 26 3e
       0.14464545 -0.008142591 -0.46445066 0.16252033
000030 5e 2f 13 3d 7f 6b 9b 3e e5 c0 20 3e fd aa 20 be
       0.035933845 0.3035545 0.15698583 -0.15690227
000040 0d 7c 56 3e e0 b7 82 3d 8f 29 fb 3d f3 8b 40 bd
       0.20945759 0.063827276 0.12263786 -0.047008466
000050 21 0a a0 be 6c 8c 86 bc 5d 1a 73 3e 95 fb ed 3d
       -0.31257728 -0.01642438 0.23740526 0.11620251
000060 80 39 b8 be
       -0.3598137
