model_take_profit_cuda.pth (torch, 20303 bytes, 5 tensors)

linear1.weight f4 [25, 151]
000000 7e b8 9f bd e2 f0 54 bd 30 4f c8 bb 7e 77 61 bd
       -0.07798861 -0.051987536 -0.0061129555 -0.055045597
000010 2c 36 32 bd 28 ac 58 bd a3 99 09 bd c2 2a 2f 3d
       -0.043508694 -0.052898556 -0.033593785 0.042765386
000020 4b fe 83 bd 00 c0 c3 39 24 90 ed bc 41 e9 0a bd
       -0.06444987 0.0003733635 -0.028999396 -0.033913855
000030 90 5b 8f bb 4a d4 a5 bc a2 bd a3 bd 50 65 92 3d
       -0.004374929 -0.020242829 -0.07995154 0.0714823
000040 58 d8 08 bd 40 b1 64 3b 19 66 7e bd 20 57 18 3d
       -0.033409446 0.0034895688 -0.062109087 0.037192464
000050 4e c9 ce bc c2 7e 87 bd 08 a7 3b bc 50 ab 63 3d
       -0.025242474 -0.06615974 -0.011453398 0.0555833
000060 ec ea 8b 3d fe 43 dd bc 56 55 c1 bc 6a 0a cc bc
       0.06831917 -0.02700996 -0.023600262 -0.02490731
000070 80 82 a9 3a f0 b9 64 bc 04 8d b1 3c bc b4 b0 bc
       0.0012932569 -0.013960347 0.021673687 -0.021570556
000080 0a 67 8a 3d 7b 0e 89 bd fb cd 87 bd 4c 8b 79 3d
       0.067579344 -0.06692215 -0.066310845 0.06092386
000090 40 c3 89 3d 16 83 ba bc 20 a0 45 3d 1f 7e 2a bd
       0.06726694 -0.022767585 0.04824841 -0.041624185
0000a0 32 5a 08 bd 14 bf 5c bd 44 b7 6a 3d 3e 19 1e bd
       -0.033289142 -0.053893164 0.057303682 -0.03859829
0000b0 6c 65 51 3d a0 fa 67 3c 0d ec 2b bd 55 12 93 bd
       0.051122114 0.014158875 -0.041973162 -0.07181231
0000c0 c7 a2 65 bd b6 01 21 3d f6 ae 96 3d 73 e9 9a bd
       -0.05606344 0.039308272 0.0735759 -0.07564058
0000d0 b4 50 df 3c a4 c1 62 3d 22 bd 66 bd d8 9e 94 3d
       0.027260162 0.05536045 -0.056332715 0.072568595
0000e0 64 4c 69 3d 58 fe 47 3d 60 d3 40 3b 70 17 db 3b
       0.056957617 0.048826545 0.0029422864 0.0066861436
0000f0 08 62 54 bc 28 01 f7 bc 90 06 24 3c a0 c3 3e 3d
       -0.012962826 -0.030151919 0.01001133 0.04657328
000100 19 a8 99 bd 6a 3b 8a 3d ae 17 95 3d 78 a5 5f bc
       -0.07502765 0.067496136 0.07279907 -0.013650291
000110 16 bd 26 bd a6 34 31 bd 5a d4 77 bd b2 3b 81 3d
       -0.04070767 -0.0432631 -0.06050525 0.06310214
000120 f8 ab 83 bd 00 a0 2b b8 54 ef 25 3d 03 7a 3e bd
       -0.06429285 -4.091859e-05 0.040511444 -0.04650308
000130 80 2c 09 bd d2 54 87 bd f8 54 75 3d 50 5b 4c bc
       -0.033489704 -0.06607975 0.059895486 -0.0124729425
000140 20 2f 40 3d 84 74 a6 3d a4 e0 ae 3c de f1 14 bd
       0.046919942 0.08127692 0.021347351 -0.036363475
000150 2f 87 2e bd 9e 4f 93 3d 21 d6 82 bd e0 c8 b8 bb
       -0.04260939 0.0719292 -0.06388498 -0.0056391805
000160 e8 7a 2c 3c ec cb 1d 3d b4 5c 96 bc 50 50 3b 3c
       0.01052735 0.038524553 -0.018354751 0.011432722
000170 20 13 4c bd e8 54 80 3d e8 d3 09 bc 50 ad fd 3b
       -0.049822927 0.062661946 -0.008412339 0.0077416077
000180 d0 9c 48 3d c4 ba 60 bd a8 27 0b bc de 69 a5 3d
       0.048977673 -0.054865614 -0.0084933415 0.08076833
000190 f9 63 81 bd 94 30 99 bd 28 c1 6b bc 0a f9 bd bc
       -0.063178964 -0.07479969 -0.014389314 -0.02319004
0001a0 68 e9 96 3d 68 58 98 3c 80 3f 1d bc 50 42 4c bd
       0.073687375 0.018596843 -0.009597659 -0.049867928
0001b0 34 c2 7c bd 0c 1e 9a bc 00 a3 38 3a 32 3c 15 bd
       -0.061708644 -0.018813156 0.0007043332 -0.03643436
0001c0 10 39 39 bd c4 40 a1 3c 74 dc e5 3c 18 fa 46 3d
       -0.045220435 0.019684203 0.028059222 0.04857835
0001d0 f0 cc f9 bb 60 72 cb 3c 80 c1 4a bc ee d7 97 3d
       -0.0076233074 0.024834812 -0.012375236 0.07414232
0001e0 72 67 07 3d 54 d9 37 3d 30 7b 9b 3d 48 50 53 3d
       0.033057638 0.044884995 0.075918555 0.051590234
0001f0 9e 08 2b 3d 96 cb 2d 3d 28 e7 c6 3c 24 fd 48 3d
       0.041756265 0.042430483 0.024280146 0.04906954
000200 47 06 1a bd 0e eb 74 bd 19 ce 0d bd 53 1f 3f bd
       -0.037603643 -0.059794478 -0.03462038 -0.046660732
000210 d8 3f 22 3d 80 56 a4 ba fc b1 5a 3d ac 20 f6 bc
       0.039611667 -0.0012537986 0.053392395 -0.030044876
000220 45 df 8c bd 58 8c 2d 3c 30 1c c2 bb 02 15 12 bd
       -0.06878523 0.010592543 -0.0059237704 -0.035664566
000230 6a 86 95 bd 84 8a 37 3d 8a 48 e2 bc 52 13 06 bd
       -0.07301028 0.044809833 -0.02762248 -0.03273327
000240 32 64 61 bd 74 f4 51 3d 38 d9 65 3d c8 77 be bc
       -0.055027194 0.05125852 0.05611536 -0.023250476
000250 5e 8c 86 3d 4d 61 3f bd e5 64 7b bd 67 b9 9e bc
       0.06569742 -0.046723653 -0.061375517 -0.019375516
000260 65 70 a1 bd 14 48 32 bc 48 1f d8 bc bd 52 76 bd
       -0.07882766 -0.010881443 -0.026382104 -0.0601375
000270 11 10 73 bd 66 61 7a bd c7 cd 76 3d 6a c1 3e 3d
       -0.059341494 -0.061128043 0.06025484 0.046571173
000280 3a 98 3f bd 51 33 92 bd c6 53 53 bc 88 19 87 3d
       -0.046776034 -0.07138694 -0.012898391 0.065966666
000290 10 20 b9 bd d2 44 a8 bd 68 80 b4 bd b2 01 7e 3d
       -0.090393186 -0.082162514 -0.08813554 0.062013336
0002a0 f5 3f 82 bd 1a 85 a1 bd 99 ca 2b 3d 4a 84 b5 bd
       -0.06359855 -0.07886715 0.04194126 -0.08863123
0002b0 21 4e 8e bd 45 72 cf 3c 67 d8 8a 3d ea ec b6 3b
       -0.06948496 0.025323043 0.06779557 0.0055824416
0002c0 24 de 16 bd 5d 4a d1 3c be 40 64 3c 8f 00 8c bd
       -0.036832944 0.025548154 0.013931451 -0.06836044
0002d0 16 2d e5 bc 4a 2d 4b 3d 44 c0 fa 3a a5 24 7d 3d
       -0.0279756 0.049603738 0.0019130786 0.061802525
0002e0 09 eb 92 bd d6 e3 42 bd 2a 37 a8 bd 08 0d e9 3c
       -0.07173736 -0.047580563 -0.08213647 0.028448597
0002f0 2e 6c 35 bc b7 0c f0 3b 02 09 a7 bb 9c 62 ec 3c
       -0.011073155 0.0073257345 -0.0050975094 0.028855614
000300 cc 21 9e 3c c1 dc 56 3d 45 42 d7 3c aa 10 64 bd
       0.019303225 0.05245662 0.026276717 -0.055679955
000310 11 77 96 3c c6 80 08 3d 6f 56 21 3d b3 bc 1b bd
       0.018367322 0.033325933 0.03938907 -0.038021754
000320 01 0c 62 bc ea c9 46 3d 0e eb 04 bd 51 e8 80 3d
       -0.013796807 0.048532404 -0.032450728 0.06294311
000330 7e cc 41 bd ce ec 40 3d d1 72 fc 3c b8 64 6a bc
       -0.04731416 0.047100835 0.030816467 -0.01430624
000340 a9 89 de 3c 01 87 e1 3b 81 07 87 bd 77 83 5c bd
       0.02716525 0.006882549 -0.06593228 -0.053836312
000350 2e 33 1e 3d b0 4d 0d 3d 36 9b 35 3d c8 2a 99 bd
       0.038623028 0.034497917 0.044337474 -0.07478863
000360 74 59 33 bd b7 cb aa 3c 3f c5 53 bc 30 e9 11 bd
       -0.04378648 0.020849092 -0.012925445 -0.035622776
000370 be 6b 49 3d 57 a2 5a bd e5 49 5c 3d 61 16 24 bd
       0.049175017 -0.053377476 0.05378141 -0.040060405
000380 03 07 24 3d ff 73 ac bd fd f4 63 3c e0 51 69 bc
       0.04004575 -0.08420562 0.01391339 -0.014240712
000390 c0 2b 5e 3d 55 d7 77 bb b0 8d 1a 3d 02 e4 70 3c
       0.054240942 -0.0037817557 0.03773278 0.014702799
0003a0 19 56 91 3c 6e 2f ac bd 07 f5 72 bd f8 59 02 bd
       0.01774125 -0.08407484 -0.059315708 -0.031824082
0003b0 b7 4c d7 3c 18 31 ad bd 7b c0 4c bd 00 f8 07 3d
       0.026281698 -0.084566295 -0.04998825 0.033195496
0003c0 88 4f 5f 3c e4 eb 05 bd 71 44 bc 3c 75 ed 13 bc
       0.013629802 -0.032695666 0.022981854 -0.009028782
0003d0 5b 8d d8 bc 42 93 b1 bd c0 e6 25 3d 2b 04 a6 bd
       -0.026434591 -0.08670665 0.040503263 -0.08106264
0003e0 88 97 50 bc b1 b9 76 3d 94 c2 a9 3c af bd 55 3d
       -0.01273144 0.060235683 0.020722665 0.05218285
0003f0 ac 15 6b bd cf cf 60 bd 23 b9 a3 bb b5 4b 9d 3c
       -0.057393715 -0.05488568 -0.0049964353 0.019201139

linear1.bias f4 [25]
000000 e4 ff 84 3c d6 47 f1 3b f9 b9 e1 bc e6 d4 7d bd
       0.0162353 0.0073633 -0.027554499 -0.061970614
000010 70 38 70 3c 72 61 98 bd a2 aa 7c bd 02 45 83 3d
       0.014661893 -0.07440461 -0.061686166 0.064096466
000020 62 0d 99 3d 9b d7 95 3d e0 c1 8a 3c cf e0 82 3c
       0.07473256 0.07316514 0.01693815 0.015976338
000030 a5 c8 04 bd 66 91 9d 3d d4 db 84 bd e6 50 f4 bd
       -0.032417912 0.07693748 -0.064872414 -0.11929493
000040 f9 ea 0e 3d 09 3e 93 3d 6c 00 76 3d cb f6 59 3d
       0.034892056 0.07189567 0.060058996 0.053213876
000050 46 6d 60 3d 6c 08 28 bd 7a c0 13 bb 98 69 51 3d
       0.05479171 -0.041023657 -0.0022545145 0.051126093
000060 63 af 27 bd
       -0.040938746

linear2.weight f4 [25, 25]
000000 5b 24 1b 3e 78 dc 14 bd c3 b1 7a bd 76 76 21 3d
       0.15150587 -0.036343068 -0.061204683 0.039419614
000010 1a 6b f5 3d 82 1d a6 3d de f7 1a be cd e1 c3 3d
       0.119833186 0.08111097 -0.15133616 0.095645525
000020 53 9e 4c bd 1f c7 43 3e 31 60 81 3d 20 a1 b2 bd
       -0.049955677 0.19118927 0.06317175 -0.087221384
000030 4c f3 6a 3d 30 d5 76 3c 19 61 5a be e6 42 02 be
       0.057360932 0.015065476 -0.21326102 -0.12720832
000040 68 7a f9 3d 97 82 f4 bd cd 88 08 be 63 73 28 be
       0.1218155 -0.119389705 -0.13333435 -0.16450267
000050 ef b7 1a be e3 45 31 be 93 ed 2f 3e 08 0a 38 bd
       -0.15109228 -0.17311816 0.17180471 -0.04493144
000060 80 11 a2 ba 60 6c 6d 3c ce 08 dc ba 2c 55 36 bd
       -0.0012364835 0.014491171 -0.0016787292 -0.04451482
000070 e4 d3 60 be 00 2a 08 3a c2 41 e8 3d 78 16 44 3d
       -0.2195583 0.0005194247 0.11340667 0.04787299
000080 42 60 3b be 56 57 3e 3d a1 31 ea 3b 8b 45 13 bd
       -0.18298438 0.04647001 0.0071470295 -0.035954993
000090 a0 cb 89 3c c6 69 ec 3d 1c 89 80 bd e3 21 b6 bd
       0.016820729 0.11543612 -0.062761515 -0.08893182
0000a0 67 6a 2d be 0c e3 2b 3e fe d4 ec 3d 5c 97 5e 3d
       -0.1693512 0.1678583 0.115640625 0.054343566
0000b0 bb 5b a4 3c b6 4c 2a 3e f0 1d 95 bd 5c 30 28 3e
       0.020063272 0.16630825 -0.07281101 0.16424698
0000c0 59 e6 3e 3e 9d f2 2b 3e 6a 7f da 3d a4 7b 16 3d
       0.18642558 0.16791768 0.106688336 0.036739007
0000d0 bd b8 53 3d 66 d6 0b 3d 27 a7 49 3e f4 4b 52 3d
       0.051689852 0.034140013 0.1969267 0.051341966
0000e0 30 9d e0 bc 87 ca 00 bd e6 ed 4c 3e 2f 34 0a 3d
       -0.027418703 -0.031443145 0.20012626 0.033741172
0000f0 ca 0c 27 be 99 2e 2f 3e 22 64 c2 bd 75 fd 40 3e
       -0.16313472 0.1710762 -0.09491755 0.18846686
000100 42 c0 24 3e 6e ee 1b 3e dc 35 38 3e 11 3d 2f be
       0.16088966 0.15227672 0.17989296 -0.17113139
000110 20 b1 09 3c ce af 96 bd 34 81 16 3e b0 9a 9c bd
       0.008404046 -0.07357751 0.14697725 -0.07646692
000120 2c b6 d7 3d 8f 9f 10 3e 4b 51 d6 3d 03 1a 45 3e
       0.105327934 0.14123367 0.10464724 0.19248204
000130 0d 4d be 3d 99 69 31 bc 6f 97 0e be 68 1a 3b be
       0.0929204 -0.010828399 -0.13924955 -0.18271792
000140 a0 76 34 3c ba d6 b7 bd fa 96 30 ba 89 c1 c3 3c
       0.0110146105 -0.08976503 -0.00067363644 0.023895996
000150 21 3c cd bd ff 21 5a be d1 63 06 bd 27 9b 64 bd
       -0.10021234 -0.21302031 -0.032810036 -0.055812027
000160 f4 a6 53 bd d2 1d 8b bc e6 e8 8d 3d 7b 8b b7 bd
       -0.05167289 -0.016981993 0.069291875 -0.08962151
000170 5f 21 d9 3c 3a f3 ab 3d 63 72 9e 3c 86 3a 9d 3d
       0.02650517 0.08396001 0.019341653 0.07677178
000180 72 f1 36 be bb 85 91 bb 12 df b3 3d ac 57 90 3d
       -0.17865542 -0.0044409907 0.08782782 0.07047972
000190 68 af 85 bc 07 db 01 be 93 83 c8 3c 9b 81 39 3e
       -0.016318992 -0.12681209 0.024476802 0.18115847
0001a0 9f 4b 4c be 83 35 a5 bd e0 37 b1 bd 46 dc 3a 3d
       -0.19950722 -0.08066847 -0.086532354 0.045620225
0001b0 c9 7c 26 3c 25 dd a9 3c b8 57 24 3e f0 e3 2e 3e
       0.010161587 0.020735333 0.16049087 0.17079139
0001c0 2b f4 b5 3d 75 66 15 be c8 e2 8c 3d c1 97 1e 3c
       0.08884462 -0.14589866 0.068791926 0.009679736
0001d0 73 1a 4b be cd 68 0b 3e 68 a7 43 be 99 6e 40 3e
       -0.19834308 0.13614197 -0.19106829 0.1879219
0001e0 7b 48 56 3d c0 c0 1c bd 55 1a 36 be 30 9e 7f bc
       0.052315217 -0.03826976 -0.17783482 -0.01560168
0001f0 7b 72 b6 bd aa a3 c3 bd 5b 3c 44 3d 17 2b d9 bc
       -0.08908554 -0.09552701 0.047909122 -0.026509805
000200 22 42 38 3e f9 03 05 3e ea 67 ad bd 77 ab b8 bd
       0.17993978 0.12989797 -0.08467086 -0.09017079
000210 87 4d fa 3d 22 fa 9b 3d fb 1d 29 be c8 04 2f bd
       0.122218184 0.076160684 -0.16515343 -0.04272917
000220 c4 f5 22 be 39 df 70 bd 0a ff e0 bd 80 16 88 3d
       -0.15914065 -0.05880663 -0.10986145 0.066449165
000230 ba da df 3d 9e b5 88 3d 63 64 51 3e 70 76 fe bc
       0.10930391 0.06675266 0.2044845 -0.031062335
000240 8c b4 2d be 72 ca 36 3e 3d 45 03 be af 48 48 3e
       -0.16963404 0.17850664 -0.12819381 0.19558977
000250 9d 86 20 3e 7c 85 2a be 8b 78 0d 3e 59 0c dd 3d
       0.15676351 -0.16652483 0.13815515 0.10793371
000260 df ab a5 bd 04 ab 2f bb 38 56 1b be 9f bf 37 be
       -0.080894224 -0.0026804814 -0.15169609 -0.17944191
000270 6f 51 3c 3e fa 13 62 3d 07 38 4d 3c bf ef 72 3d
       0.1839044 0.055194832 0.012525565 0.05931067
000280 bb 20 46 3c 3f 5c fe 3d 8b b5 fc 3d 58 a1 e3 bc
       0.0120927645 0.12419938 0.12339314 -0.027786896
000290 43 95 93 bd d4 69 8d bc 23 02 44 be 6a 34 9a 3d
       -0.07206204 -0.017262377 -0.1914144 0.075295284
0002a0 20 54 a9 bd b6 f3 27 3e e7 87 23 bc 50 94 1d be
       -0.08267999 0.16401562 -0.009981132 -0.15388608
0002b0 4d a6 5f 3d 2d 7a cc bd 4a 36 3b be f2 45 e8 3d
       0.054601956 -0.09984241 -0.18282428 0.11341466
0002c0 3b 91 29 3e 46 a7 8e bd 30 e4 53 bc d1 28 35 3e
       0.16559307 -0.069654986 -0.012932822 0.17691351
0002d0 58 e0 f0 3c 14 fa 5b 3d bb 03 10 be 42 a6 80 3d
       0.02940385 0.05370529 -0.14063923 0.06281711
0002e0 a7 b6 ac bd 8d d2 cf bd a7 10 d9 bd 30 87 a3 bc
       -0.08433276 -0.10147581 -0.10598879 -0.019961923
0002f0 17 a8 15 3e d8 9c 45 be 1d 67 14 3e da d6 fc 3d
       0.14614902 -0.19298112 0.1449246 0.12345667
000300 aa 9e b7 3d b4 e2 57 bd fe c2 e0 3d 00 25 56 bc
       0.0896581 -0.052706435 0.10974692 -0.013070345
000310 e7 4f f0 bd d7 54 08 3e 5a b0 de 3d f0 e8 c3 bc
       -0.1173399 0.13313614 0.1087348 -0.023914784
000320 a1 99 29 3e b3 c2 08 3e 5a 32 fc bd da 26 9f 3d
       0.16562511 0.13355522 -0.12314291 0.07771082
000330 25 18 1b be b3 6c 40 be 1a cd 90 3d 8d 19 c4 bd
       -0.15145929 -0.18791465 0.0707037 -0.09575186
000340 cf eb 0d 3e 00 3a 85 bd 9d 94 f7 bd a8 83 f2 3c
       0.13859485 -0.06505203 -0.120888926 0.029603794
000350 52 d0 3e be 2b d5 0e 3e a5 6c 32 be 82 a7 2e be
       -0.18634155 0.13948505 -0.17424257 -0.17056087
000360 00 2e 7e 3b 47 b3 d4 bd 6c df 32 3d 00 08 4b bc
       0.0038784742 -0.10385757 0.043670103 -0.012392044
000370 09 ca 48 3e 00 e2 6e bb a4 a8 6b 3d ea bd 16 be
       0.1960832 -0.0036450624 0.057533875 -0.14720884
000380 6c e9 05 3d d0 3d 44 3c 01 bf 2b be 53 da 27 bc
       0.03269331 0.011977628 -0.16772081 -0.010244924
000390 dd 3e a4 bd 43 cf 14 3e de 64 81 3d 31 41 3b 3e
       -0.08019803 0.14532189 0.06318067 0.18286587
0003a0 3d a1 da bb 35 96 c3 3d 25 a4 39 3e 4a f1 40 be
       -0.006672053 0.09550134 0.18129022 -0.18842044
0003b0 c7 ca b1 3c f4 ff 80 bd 70 39 cd bd 46 d2 46 be
       0.021703137 -0.06298819 -0.10020721 -0.1941615
0003c0 67 bf 64 bd 5c c0 01 3e a3 dd 76 bd bf 66 17 3e
       -0.055846598 0.12671036 -0.060269963 0.14785288
0003d0 f5 4e f2 3d 9c a7 f1 3d 68 5a ed bc 6c de 8c bd
       0.11831466 0.11799547 -0.028973773 -0.06878361
0003e0 83 51 e5 bd 75 14 63 bc e8 e9 b3 bc 6b 5e 36 3e
       -0.11197188 -0.013859858 -0.021962121 0.17809455
0003f0 e7 0f 26 3e 23 7a 90 3b e2 fe 9d 3d 5d 9a 04 3e
       0.16217004 0.004409091 0.07714631 0.1294951

linear2.bias f4 [25]
000000 25 8d 13 be 05 cc 72 bb 41 70 e5 3c 09 41 d9 3d
       -0.14409311 -0.0037047875 0.028007628 0.106081076
000010 46 67 81 3c 00 50 1b be 63 bb b1 3d 90 14 af 3c
       0.015796315 -0.15167236 0.08678319 0.02137211
000020 33 4d c2 bd d9 ba d5 bc 53 51 65 3e f7 2c 68 3d
       -0.09487381 -0.026090072 0.22394304 0.056683507
000030 2b 87 32 be cf df 06 be 0e e6 b3 3d f2 81 00 be
       -0.17434375 -0.13171314 0.08784114 -0.1254957
000040 54 4e 97 bd e2 fe ad 3d b9 4b 93 3c 25 59 04 3e
       -0.07387987 0.08495881 0.017980443 0.12924631
000050 78 69 3b 3d 06 e8 88 3d ce 7e f9 3d 43 cf 18 3e
       0.04575488 0.0668488 0.12182389 0.14922814
000060 46 98 2e 3e
       0.17050275

linear3.weight f4 [1, 25]
000000 94 0e 77 bc 8b de 55 be 26 18 3c 3e aa cc 26 be
       -0.015079159 -0.20885675 0.18368587 -0.1628901
000010 30 5e 2c 3d 8a 58 33 3e f5 2e c9 bd 03 42 2a 3e
       0.04208201 0.17514244 -0.098234095 0.16626744
000020 40 e3 c4 3b 2d c5 64 bd 41 b7 a6 be 2d 40 ad 3d
       0.0060085356 -0.055852104 -0.32561687 0.08459506
000030 22 c0 e0 3d 22 f7 c1 3e 44 c9 35 3e 88 94 83 bd
       0.109741464 0.3788386 0.17752558 -0.064248145
000040 0a 2b 01 3e 1e 42 40 3e a3 7c 50 be 57 cc 4a 3d
       0.12614074 0.18775222 -0.20360045 0.04951128
000050 8d 1e 46 be 1c 6e b3 bd df 5e 32 3e 85 85 75 be
       -0.19347592 -0.08761236 0.17419003 -0.23976715
000060 bf 1c 19 3e
       0.14952372
