model.pth (torch, 19975 bytes, 5 tensors)

linear1.weight f4 [25, 151]
000000 8b 5b 90 3d c9 3f 91 3d 31 6f 33 3b 73 92 9d bd
       0.070487104 0.07092244 0.0027379508 -0.076939486
000010 48 ba fc bc 54 31 b6 bc 1d 1f 8c 3d 62 c2 42 3d
       -0.030850545 -0.022240318 0.06841872 0.04754866
000020 40 76 56 3d be ec 0d bd 0d 40 2f 3d ae ec 91 bd
       0.052358866 -0.034649603 0.042785693 -0.07125221
000030 1b ad c6 bb 41 79 83 bc 85 42 81 3d 5a bf b1 3b
       -0.0060631162 -0.01604903 0.06311516 0.005424422
000040 7f d3 8b 3d 07 4b 47 3d 55 28 6f bb 30 cd e8 3c
       0.06827449 0.048655536 -0.0036492546 0.028418154
000050 63 bd 7f 3d 95 eb c7 bc 06 fb 01 bc 45 92 92 bd
       0.062436473 -0.024404326 -0.007933384 -0.07156805
000060 b3 70 09 bd ee 0a 17 3c 50 25 88 bd f9 61 85 bd
       -0.033554744 0.009218914 -0.06647742 -0.065128274
000070 dd 44 c4 bc 77 d2 0b bd bf ef 97 bd 05 3b dd bc
       -0.023958618 -0.03413626 -0.07418775 -0.027005682
000080 f6 c0 17 3c a4 87 f1 3c 73 88 22 3d b5 bf 82 3d
       0.009262314 0.029483624 0.03968091 0.063842215
000090 1f 6c f7 3c ae 70 8d 3d bc 13 01 bd 18 da 35 bc
       0.030202923 0.069062576 -0.03151296 -0.011099361
0000a0 67 ed c6 bc 45 c1 9b bd 86 7f 25 bd 02 4b ac bd
       -0.024283124 -0.076052226 -0.04040482 -0.08412744
0000b0 11 af 91 bd 73 c6 2e 3d a0 2c 68 bd 1b bb 10 bc
       -0.071134694 0.042669725 -0.056683183 -0.008833672
0000c0 f0 f8 5b 3d 27 52 6d bd f3 10 f9 3b 4d 68 51 3d
       0.053704202 -0.057939675 0.0076008975 0.05112486
0000d0 bd ed 88 bd 9f 18 18 bd b1 7b 6b bd 39 4a 24 bd
       -0.0668597 -0.037132856 -0.05749101 -0.040109847
0000e0 66 cc e0 3b 56 97 a1 bd 10 87 d6 3c a2 a8 11 bd
       0.0068603037 -0.07890193 0.02618745 -0.03556121
0000f0 56 f3 de bc 5e ba 2e bd 56 3f a9 3b 73 c5 fb 3c
       -0.027215641 -0.042658202 0.005165021 0.0307338
000100 6f e2 d3 ba 58 41 9d bd 35 ce 8a 3d 78 5c 45 bd
       -0.0016165505 -0.07678479 0.06777612 -0.04818389
000110 18 13 96 bc 57 f3 86 3d 0a bb 72 3d 17 e8 90 3d
       -0.018319651 0.06589382 0.059260406 0.070755176
000120 b7 e9 3f 3d 8f 13 48 3d 2c cf 76 bc 8c f8 8b bd
       0.046853747 0.048846778 -0.015064042 -0.06834516
000130 3c be 02 3c 3c 1f a3 3c f4 0e 66 3d 94 35 0c bd
       0.007979926 0.019912355 0.056166604 -0.034230784
000140 94 0b 82 bd 7e af 13 bd 85 dc 91 ba 2b b6 1b 3c
       -0.063498646 -0.036056034 -0.0011128342 0.009503881
000150 20 35 7b 3d 3a 1a 32 bd 7d ad 91 3c 16 7e 35 bd
       0.06132996 -0.043482043 0.017782921 -0.044309698
000160 76 cd 23 bd 9e de fd 3c 33 1b 7c bd 2a 8c c1 3c
       -0.039990865 0.030989941 -0.061549377 0.023626406
000170 20 c6 20 bb 1c 1f 5e 3d ec 5b 28 3d 0f 64 24 3d
       -0.0024532154 0.054228887 0.04110329 0.040134486
000180 9c 32 72 3d e4 0f 03 bd 49 ec 2a 3d 2c f7 c3 3c
       0.059130296 -0.031997576 0.041729245 0.023921572
000190 a0 d5 06 bd 04 0c 9a 3d 75 05 7a 3c e3 aa a0 bd
       -0.032918572 0.07521823 0.01526009 -0.07845094
0001a0 6c 54 53 bd f9 76 ab bd f2 6c c0 3a 8a ca 8f bd
       -0.051594183 -0.083723016 0.0014680906 -0.07021053
0001b0 3c 4c 92 3c d2 3b dd 3c 7e 32 04 3d f1 06 93 3d
       0.017858617 0.027006064 0.032274716 0.07179058
0001c0 9c d1 73 3d cf c9 20 bc 35 0d 0d bd dd 65 40 3d
       0.05952607 -0.00981374 -0.034436423 0.046972144
0001d0 10 dc 0f bd 11 af 24 3c be cc d1 3b 09 4a ae bd
       -0.035121977 0.010051505 0.006402581 -0.08510215
0001e0 19 78 99 3d 8d 6a c3 bc 04 80 ba bc 94 b6 81 3d
       0.0749361 -0.023854518 -0.02276612 0.06333652
0001f0 da ad b5 bc 7f 33 86 3d c9 9e 5d bd ee 71 7b bd
       -0.022177625 0.06552791 -0.054106507 -0.06138795
000200 4c ba 09 3c 3e 44 62 3d 55 68 70 3d ff 85 f5 3c
       0.008406233 0.055240862 0.05869325 0.02997112
000210 fb 34 af bd 63 81 47 bd d6 b7 6d bc e9 a5 21 3d
       -0.08555027 -0.048707377 -0.014509162 0.039464865
000220 bb ff bd bc 66 c2 47 bd 28 43 ad bd d8 68 2d 3d
       -0.02319323 -0.048769377 -0.08460075 0.042336315
000230 9b 62 c7 3b ab ae 10 3b 18 92 91 3c 1f f9 3c bd
       0.0060847527 0.0022076766 0.017769858 -0.046136018
000240 0c b9 27 3d d8 ec a0 bd ad 90 95 bc 90 e6 6f 3d
       0.04094796 -0.07857674 -0.018257463 0.05856949
000250 c0 7f 86 3d 40 dd c4 bc e5 4e 69 3e 31 3c 3e 3d
       0.06567335 -0.024031281 0.22784002 0.04644412
000260 26 c0 53 bc bd 03 16 3d 0f 53 82 3d a9 36 83 3d
       -0.01292423 0.03662466 0.063634984 0.0640691
000270 42 8c d3 3c 06 c8 88 3c b4 a7 b4 3b b0 4a 14 3d
       0.025823716 0.016696941 0.005513156 0.03620404
000280 ed fd 8c 3d c2 c1 91 3d 4f f6 83 bd 22 f1 32 bd
       0.0688437 0.071170345 -0.06443464 -0.043686993
000290 a0 a7 c2 bc 71 12 7b bd 79 c0 1d bc bd e1 4e 3c
       -0.02376157 -0.061296884 -0.009628409 0.012627062
0002a0 de 70 30 bb ce ef 2c bd a9 3b 0b 3b 84 cb 1c 3c
       -0.0026922743 -0.042220883 0.0021245277 0.009570006
0002b0 09 cb 65 3c ab 8c 7f bd b5 6c 74 3d 1b 89 b5 3c
       0.014025458 -0.06239001 0.059673984 0.022160104
0002c0 2e 3e 26 bd e3 e2 92 3d b2 dc 2a 3c 8a 33 65 bd
       -0.040586643 0.071721815 0.010428594 -0.055957355
0002d0 29 a6 64 3c 0f 74 f0 bb 9f 01 13 3c e8 67 45 3d
       0.013955631 -0.007338054 0.0089725545 0.048194796
0002e0 80 7e 22 bd c7 0b bf 3b 57 7f ac bc 76 8e 52 bc
       -0.03967142 0.0058302614 -0.021056814 -0.012851348
0002f0 6e 1f 7c 3d 7d 34 32 bd 03 cd ad bd bc 95 33 3d
       0.06155341 -0.043507088 -0.084863685 0.04384397
000300 a1 55 08 bd 10 cc 2b bd e5 03 8d 3d 3b 69 85 3d
       -0.033284787 -0.041942656 0.068855084 0.06514212
000310 6c 3f 84 bc 50 30 89 3c 81 11 29 3c a6 44 7d bd
       -0.016143523 0.01674667 0.010319115 -0.061833046
000320 1e da c6 bb 94 10 2e 3d fe 43 59 bd b8 01 95 3c
       -0.006068482 0.04249628 -0.053043358 0.018189296
000330 4c 97 48 3d 5b 2d e2 3c ab 80 85 3d 5f d9 50 bd
       0.048972413 0.027609518 0.06518682 -0.05098855
000340 1f f8 ac bd fb 84 f0 3b d4 fc 4a 3d f2 0d c3 bc
       -0.08445763 0.0073400713 0.049557522 -0.02381036
000350 e0 0c 04 bd 7c 2f 56 3d 81 03 6a bc 36 56 96 bc
       -0.03223884 0.05229138 -0.014283062 -0.018351655
000360 f7 31 50 3d 91 da 0b 39 41 b4 8f 3c a9 d3 5b 3d
       0.0508289 0.00013337495 0.017542006 0.05366865
000370 98 c4 fe bb 15 e2 1b 3d 32 19 65 3d 5b 73 bf 3c
       -0.0077749006 0.038057406 0.05593223 0.023370435
000380 c8 92 8d bd 5a a8 77 3d ca bd 51 bb 72 54 98 3c
       -0.06912762 0.060463287 -0.0032003992 0.018594954
000390 d3 3a 59 3d 9a be 02 bd 3a 54 4c 3d 99 44 84 3c
       0.053034615 -0.031920053 0.049885012 0.016145991
0003a0 ff 7e 7a bd fe a9 ce bb d4 0c a1 bd ef 54 20 3d
       -0.06115627 -0.0063068857 -0.07863775 0.0391435
0003b0 2c b1 1c 3d 4c 5b 33 bd a3 33 37 3d fb 2d 2e bd
       0.0382549 -0.04378824 0.04472698 -0.04252432
0003c0 53 e4 9f bd 4a 3c 43 bd ba 54 90 3d c5 45 f3 bc
       -0.07807221 -0.047664918 0.0704741 -0.029696355
0003d0 0c 7a c4 3c a2 d8 d1 bc f6 83 97 3b d9 2f e5 bc
       0.023983978 -0.025615994 0.0046238853 -0.027976917
0003e0 9b 24 7a bb 99 c4 8f bc ba 06 55 3c 93 98 9d 3c
       -0.0038168791 -0.0175498 0.013002092 0.019237792
0003f0 0f 7d 95 3d 6d d5 ab bd c8 b2 3d bc f4 50 0b bd
       0.07299244 -0.08390317 -0.011578269 -0.03401275

linear1.bias f4 [25]
000000 7b 14 2c bd e4 ba b0 bd 01 36 36 bd 65 2d 70 bd
       -0.04201172 -0.086293966 -0.044485096 -0.05863704
000010 0c 08 c7 3c e7 61 46 3d 00 b0 be 3c af ea 28 bd
       0.02429583 0.04843321 0.023277283 -0.041239437
000020 d0 98 23 3d f9 9a f5 bc 80 44 7e bb 66 bf e5 bc
       0.039940655 -0.029981123 -0.0038798153 -0.028045367
000030 a4 c1 8d 3d 65 13 4f bd 5c 9d 50 3d 98 3a 8e bd
       0.069217 -0.050555605 0.05093132 -0.069447696
000040 94 d6 6e 3d 44 a6 93 3d 03 1a 3c bd 20 28 71 3c
       0.058310106 0.07209447 -0.045923244 0.014719039
000050 10 a4 4e bd b9 8e d4 3c af 68 29 bd 53 19 bf bc
       -0.05044943 0.025946962 -0.0413596 -0.023327505
000060 07 8e 30 3d
       0.043104198

linear2.weight f4 [25, 25]
000000 81 51 c8 bd f4 46 6e 3d f8 25 0f 3e 78 e2 d3 3c
       -0.09781171 0.058173135 0.13979328 0.025864825
000010 cc a4 33 bd 84 32 10 be d0 51 97 3c ee b5 d0 3d
       -0.043858334 -0.1408177 0.018471628 0.1019095
000020 38 de 1d bd 31 3a 7f b9 4a dd e1 bd a6 b8 d5 3d
       -0.038542002 -0.00024340373 -0.11028536 0.104356095
000030 00 7e c0 bd 31 77 3f bc 0a cd a2 3d da a9 40 be
       -0.093990326 -0.011686132 0.07949264 -0.18814793
000040 4a 98 0d be 8c 4b ac bd 82 78 85 3d 2d 05 1d be
       -0.13827625 -0.08412847 0.06517126 -0.15334006
000050 06 7b 38 3d 57 dc a8 bd 54 1f c1 bd 58 d5 92 3d
       0.0450392 -0.082451515 -0.094298035 0.07169598
000060 df c1 4f 3e 0e cf 12 be ad 24 3e 3d ed 17 79 3d
       0.202888 -0.14336798 0.046421696 0.060813833
000070 9b d6 eb 3c 7d 90 15 3e 21 8b 80 bd 5c 49 64 3d
       0.028788855 0.14605899 -0.06276537 0.055734023
000080 c2 6b fe 3d 76 40 a1 3d 84 dc b0 bc 2d ae 2c be
       0.12422897 0.07873623 -0.021589525 -0.16863318
000090 98 68 21 3d b7 0c d9 bd 37 e4 58 3e a0 e5 2d 3d
       0.03940639 -0.10598128 0.21180807 0.042455316
0000a0 2e 23 db 3d 38 b4 2e bd 5b 30 2c be 60 c2 2a 3d
       0.10700069 -0.04265234 -0.16815321 0.041689277
0000b0 00 af af 3a 1e 46 bf bd e2 8b 17 be 99 21 cc bc
       0.0013403594 -0.09339546 -0.14799455 -0.024918364
0000c0 19 78 43 3e d8 54 22 3e 23 16 43 3e 32 87 34 be
       0.19088782 0.15852678 0.19051413 -0.17629698
0000d0 97 30 3a be 8b cf 35 3e 4d ab 0d 3e 2c b6 2e bd
       -0.18182598 0.17754953 0.13834877 -0.0426542
0000e0 40 b0 f6 bb 6e 4c 02 be d0 84 a4 bd 78 6e 00 be
       -0.007528335 -0.12724468 -0.080331445 -0.1254214
0000f0 98 e0 be 3c 76 bc 8c 3d 4d 1d c3 bd 1d 87 f9 bd
       0.023300454 0.068718836 -0.09527073 -0.12183974
000100 d2 b0 cd 3d 73 14 e5 bd 2e a3 80 3d ec 2d 50 bd
       0.100434914 -0.11185541 0.06281124 -0.050825045
000110 51 2d 48 3e 9d e8 29 be 53 09 27 be ea 17 22 be
       0.19548537 -0.16592641 -0.1631215 -0.15829435
000120 28 ef e3 3c b7 a6 be bd 70 b3 d0 bd 41 41 21 3d
       0.027824 -0.09309142 -0.10190475 0.03936887
000130 1b f9 93 3d b0 17 66 38 3a cd 91 3e 4a d4 e3 3d
       0.072252475 5.4858334e-05 0.28476888 0.11124475
000140 b5 83 62 bd c2 2e 9c 3d e9 8a 47 3e c3 8d 41 3e
       -0.055301387 0.07626106 0.19486584 0.18901734
000150 20 39 22 3e f0 35 ec bc 28 67 08 3d d8 5a 8f 3c
       0.15842104 -0.028834313 0.033301502 0.017499372
000160 02 1a 0c bd 1a 84 ad bd 53 09 24 3e c6 e2 0b be
       -0.03420449 -0.08472462 0.16019182 -0.13660726
000170 1b 87 9a 3d 20 f4 5e 3c fa c3 c3 3d 3b 4e 92 3d
       0.075453006 0.013608009 0.09558864 0.071438275
000180 49 24 19 3d f4 fa 20 bd 8d 0c 1d 3e 4d 2b d8 bd
       0.03738812 -0.039301828 0.15336819 -0.10555134
000190 c9 09 20 be e0 0a 99 3d 49 55 b7 3d 34 07 d9 3d
       -0.15628733 0.07472777 0.08951814 0.10597077
0001a0 f1 05 31 3e 59 a7 2d 3e 27 69 0a 3e 00 dd 4d bc
       0.17287423 0.1695837 0.13516675 -0.012564898
0001b0 67 4d 9c bd 31 a7 3e bd 00 e7 89 3b 50 d9 b6 3c
       -0.07631951 -0.046546165 0.0042084455 0.02232042
0001c0 55 fd e8 bd c1 4b 17 bd 6c bb 5a bd a0 85 e2 bd
       -0.11376444 -0.03693748 -0.053401396 -0.11060643
0001d0 80 65 d0 3a 43 7d ee bd e0 e1 27 bd 80 c8 27 bd
       0.001589939 -0.116449855 -0.040986896 -0.040962696
0001e0 3d 19 44 3e 43 19 22 3e 09 7d 3d 3e 3d 83 bd bd
       0.19150253 0.15829949 0.18504728 -0.09253547
0001f0 10 44 2b 3e 62 4c 44 be 9e 78 4b be 6a 72 5b bd
       0.16725183 -0.19169763 -0.1987023 -0.05357591
000200 5e 08 1b be fa f7 ca bd 62 f6 98 bd c0 2d d7 bb
       -0.1513991 -0.09910579 -0.07468869 -0.006566733
000210 47 49 2f be 6c 06 2e bd 58 c7 3c 3e d0 b4 d0 bc
       -0.17117797 -0.042486593 0.18435419 -0.025476843
000220 1b 84 0f be dc 27 d5 bc 97 e4 1f 3d 94 78 53 3d
       -0.14015238 -0.026019983 0.03903636 0.051628664
000230 a2 a3 32 be 78 06 52 bd c4 8e 93 3b 80 87 a9 3c
       -0.17445233 -0.0512757 0.004503103 0.020694494
000240 88 ae 1d bd cf 19 3b 3e 92 0a 94 bc 70 88 9f 3d
       -0.038496524 0.18271564 -0.018071447 0.07789695
000250 9f 7c 8b bc 76 21 0a 3d 9f d6 a9 bd eb 5c 18 3e
       -0.017027197 0.033723317 -0.08292889 0.14879195
000260 a5 87 2b 3e 11 98 26 3d 30 11 24 be 27 76 47 bd
       0.16750963 0.040672366 -0.16022182 -0.048696663
000270 40 40 3f bd e1 7d 14 3e 87 5d aa bd 84 62 46 3e
       -0.046692133 0.14501144 -0.0831862 0.19373518
000280 7a dc 22 be ba f4 d2 bd 2c 12 c2 3d 49 37 50 bd
       -0.15904418 -0.10300584 0.09476122 -0.050833974
000290 0a 86 f9 3d 82 64 92 3d 87 f1 20 3e cb c3 8a 3d
       0.12183769 0.071480766 0.15717135 0.06775626
0002a0 62 15 ea 3d c0 5b 41 3d 32 d7 0b 3e 1d 93 51 be
       0.1142986 0.04720664 0.13656309 -0.20466276
0002b0 af d7 11 3e e4 74 b8 3d 1e 56 a7 3d e6 4c c3 3d
       0.14242433 0.0900667 0.081707224 0.095361516
0002c0 f2 87 c1 3d 28 01 3b be f6 fb cb 3d 5d c9 ae bd
       0.09449758 -0.1826216 0.09960167 -0.08534501
0002d0 53 b5 9c bd 95 87 2e 3e e4 6e 73 3d 51 7d 00 3e
       -0.07651772 0.17043908 0.059431925 0.12547804
0002e0 e6 a0 9a 3d db 8b 47 be 23 e8 48 3e 48 76 29 bd
       0.0755022 -0.19486944 0.19619803 -0.041372567
0002f0 92 e7 a5 3d ba 60 fa bd 4b 61 32 3e 68 bb b9 bc
       0.08100809 -0.122254804 0.17419927 -0.02267237
000300 80 75 1a 3c cc 93 56 bd f4 f7 60 3d a6 f9 0c be
       0.009427428 -0.052387044 0.054923967 -0.13767108
000310 80 04 15 3b 10 f7 ca bc 0d 75 3e be 6b 92 1e be
       0.0022738278 -0.024776012 -0.18599339 -0.15485542
000320 f2 8f 0f 3e 0b fc 33 3e 5c 82 3b 3c d6 3d 93 bd
       0.14019755 0.17576616 0.011444654 -0.07189529
000330 40 9d 5d bb cf 57 30 be 4a 6e ce bd 53 a3 dc bd
       -0.0033815652 -0.17220996 -0.1007963 -0.10773339
000340 a6 a6 8e bd b5 3b 87 bd eb 42 2d 3e 93 59 06 3e
       -0.069653794 -0.06603185 0.16920058 0.13120107
000350 eb 72 30 3e 49 b3 28 bd c0 ba 58 3b a8 85 e4 bc
       0.17231338 -0.041186605 0.0033070296 -0.027895764
000360 84 f3 62 3d a1 be 18 be fd a8 17 be 89 26 1a 3e
       0.055408016 -0.14916469 -0.14810558 0.15053762
000370 1f f6 9d bd e1 f1 30 3b d1 22 0b be 60 4e 17 3e
       -0.077129595 0.002699964 -0.135875 0.14775991
000380 a6 34 0a 3e ac 06 1a bd 97 23 28 3e a8 23 0e be
       0.13496646 -0.03760402 0.16419826 -0.1388079
000390 dd b6 89 3d d2 93 87 3d 3c d9 51 be b8 c0 01 bd
       0.067243315 0.06619991 -0.20493025 -0.03167793
0003a0 11 79 31 3e 18 ea ba 3c af bc 5d bc d0 b0 c4 bd
       0.1733134 0.022816703 -0.013533755 -0.09604037
0003b0 02 80 e8 3d 3f 1d 2f 3e af e0 4f bc 80 a1 6a 3b
       0.113525406 0.17101 -0.012687846 0.0035801828
0003c0 c0 09 22 3d 6c 98 7f bd 80 64 45 3b ff d3 3a be
       0.03956008 -0.06240122 0.0030119717 -0.18244933
0003d0 f0 1f 46 be 40 39 72 3b d4 fd 18 be da ff 43 be
       -0.1934812 0.0036960393 -0.14940578 -0.19140568
0003e0 aa d4 fd bd 6a db 0e be 87 6f 28 3e 05 7e b8 3c
       -0.12394078 -0.13950887 0.16448794 0.022521028
0003f0 88 ad 4c 3e fe 5e 93 bd 48 c7 4a be 8f 4c 9e bd
       0.19988072 -0.07195853 -0.19802582 -0.07729446

linear2.bias f4 [25]
000000 f2 c8 01 be 9e 0c f0 bd e3 73 37 3e cc 68 94 3d
       -0.12674311 -0.117211565 0.17915301 0.07246551
000010 54 fd 92 3d 1b 79 89 be 79 ba 57 3d 00 a5 94 bc
       0.07177225 -0.2685021 0.05266807 -0.018145084
000020 39 70 d7 3d 00 45 e5 bd aa 99 89 bd 43 ed fc 3b
       0.10519452 -0.11194801 -0.06718762 0.0077187135
000030 b2 d9 1d 3e 0c dc 7c bd fd 1d ce bd 40 a2 0d bd
       0.15415075 -0.06173329 -0.100643136 -0.03457856
000040 d3 38 e8 3d 50 70 70 3d 19 fe 03 be 40 fd f2 3d
       0.11338963 0.05870086 -0.128899 0.1186471
000050 b2 a7 89 3d ed 96 9d bd 60 ee 19 be 4a fd 50 bd
       0.067214385 -0.076948024 -0.15032339 -0.051022805
000060 78 9d ec 3d
       0.11553472

linear3.weight f4 [1, 25]
000000 6c ff 29 be a8 3b 04 3d 7d be e1 bd 5d 04 9f 3c
       -0.16601342 0.032283455 -0.11022661 0.01941126
000010 d8 cd f5 bc 60 86 85 3a 5b 15 d0 3d a8 2f 9f bc
       -0.03000538 0.0010187142 0.10160323 -0.019431904
000020 84 a0 0c 3e 89 2a 28 be 68 4f e2 3d db f6 b8 bd
       0.13733107 -0.16422476 0.11050302 -0.09031459
000030 60 7f 9b 3d 64 b2 91 bd 3c 29 03 3e e8 25 27 be
       0.07592654 -0.071141034 0.12808698 -0.16323054
000040 17 57 20 3e 9b 99 13 3e 9e 14 98 bd 54 5e 0f be
       0.15658222 0.14414065 -0.074258074 -0.14000827
000050 82 e4 10 bd 3a dc c3 bd 17 50 e7 bd dd 4b 1c 3d
       -0.035374172 -0.09563489 -0.11294573 0.038158286
000060 a2 a6 c8 bd
       -0.09797408
