model.pth (torch, 19911 bytes, 5 tensors)

linear1.weight f4 [25, 151]
000000 58 f9 71 3d 00 c0 9c 3d c8 3e 59 bd 34 44 39 3d
       0.059075683 0.076538086 -0.05303839 0.04523106
000010 56 e2 3b bd 87 03 6a bd 5a 1b 9e bd 1a c3 a5 bd
       -0.045870148 -0.05713227 -0.07720061 -0.08093853
000020 e6 a6 8f 3d 6e 44 6c bd ac 20 82 bc d0 c3 91 3b
       0.07014255 -0.057682447 -0.01588472 0.0044483915
000030 74 86 33 3d 80 16 b4 bc d8 2d 4a bd 76 d0 af bc
       0.043829396 -0.021983385 -0.049360126 -0.021461707
000040 44 f1 83 bd 6e 18 83 3d e8 5e 59 bc 00 51 bc bb
       -0.06442502 0.06401144 -0.013267256 -0.0057469606
000050 e0 0d 61 3c 7c 68 57 3d c0 21 92 ba bc f5 78 3d
       0.013736218 0.05258988 -0.0011148974 0.060781226
000060 d5 85 77 bd e8 27 12 bc 54 b5 0d bd 72 2e ce bc
       -0.060430367 -0.008920647 -0.034596756 -0.025168631
000070 48 eb 61 3d df b0 9a bd d2 d4 53 bd aa f0 0c 3d
       0.055156022 -0.07553267 -0.051716633 0.034409203
000080 f0 7d fb 3c 5e 4d 57 bd 13 f5 a4 bd 98 43 8e bc
       0.0306997 -0.052564017 -0.08054557 -0.017366216
000090 e6 71 97 bd 58 6e 6a bd ec ae ad 3c e4 9d 3d bd
       -0.07394771 -0.05723414 0.021201573 -0.046293154
0000a0 10 d7 e4 3c ec 3a 46 bd 2c 42 61 bd 2a 8f 9a 3d
       0.027934581 -0.048396036 -0.054994747 0.07546838
0000b0 54 63 85 3d 34 11 7b 3d b0 15 75 3d 88 cb 64 3d
       0.06513086 0.061295703 0.059835136 0.055858165
0000c0 6e eb 1f bd c2 8b 93 bd 80 b8 f3 3b 90 e8 bd 3b
       -0.039042883 -0.07204391 0.0074377656 0.005795546
0000d0 c0 6d 6a bb 9c c8 d7 3c 4e e2 44 bd 50 7f 3b 3d
       -0.0035770983 0.026340775 -0.048067383 0.04577571
0000e0 06 d7 0a 3d 90 d5 77 3c f8 91 f7 bc a8 dc 9b 3d
       0.03389647 0.015126601 -0.03022097 0.07610446
0000f0 6d 92 00 bd 0e 85 a4 bc b5 df 8e bd e8 da ed bc
       -0.031389643 -0.020082977 -0.069762625 -0.029035047
000100 60 b2 fc 3b 9a 21 1e 3d b1 5a 87 bd f0 e5 5a bc
       0.0077116936 0.038606264 -0.06609095 -0.013360485
000110 f0 df 34 3d ea 1c 29 3d 5f a3 70 bd ba 13 81 bd
       0.044158876 0.04128734 -0.058749553 -0.06302591
000120 68 0a cf 3c 25 df 4b bd 29 47 63 bd bc 19 30 bd
       0.025273517 -0.049773354 -0.055487785 -0.042993292
000130 7b 97 94 bd 20 4a a5 bb 13 61 99 bd a9 79 49 bd
       -0.07255455 -0.005044237 -0.074892186 -0.04918829
000140 90 16 8f 3d e4 0b 81 bc 88 63 5b bd 22 cb 0b 3d
       0.06986725 -0.01575274 -0.053561717 0.03412927
000150 08 40 9b 3d 2e 4c 71 bd 23 ab a5 bd 30 44 3f 3d
       0.07580572 -0.05891054 -0.08089282 0.046695888
000160 14 84 48 bd 7c 02 4e 3d d1 93 97 bd e2 fe c9 bc
       -0.048954085 0.050295338 -0.074012406 -0.02465767
000170 dc 3b 81 bc 88 80 32 3d 74 e4 68 3d 40 90 ed 3c
       -0.015775613 0.04357961 0.056858495 0.028999448
000180 87 e6 86 bd b4 38 7a 3d a0 df 15 bd f2 e2 8c bd
       -0.06586938 0.061089233 -0.03659022 -0.06879224
000190 0a 1f c6 bc 90 74 f1 bc d1 b9 9a bd 80 dd 15 bd
       -0.024184722 -0.029474527 -0.07554973 -0.036588192
0001a0 ce 54 80 3d 14 af 4d 3d a8 9f 31 bc 99 27 a0 bd
       0.06266175 0.050215796 -0.010841288 -0.07820053
0001b0 e8 07 69 3d ea 09 9b 3d b4 61 8d bd 3d 85 90 bd
       0.056892306 0.0757025 -0.06903401 -0.07056663
0001c0 0a af 22 3d 58 90 3b 3d 2a eb fd bc d4 ee 69 bd
       0.03971771 0.045791954 -0.030995924 -0.05711253
0001d0 40 c3 ea ba 56 e6 a5 3d a0 1f 44 3b aa 5a a1 3d
       -0.0017910972 0.08100574 0.0029926077 0.07878621
0001e0 a0 67 b0 3b ec 97 a6 bd 80 25 f3 3a 38 aa 7d 3d
       0.005383447 -0.081344455 0.0018550605 0.06192991
0001f0 42 54 87 3d 3c 30 e0 3c 30 ce e8 bc ce df 53 bd
       0.06607868 0.02736675 -0.02841863 -0.05172711
000200 18 e4 3a 3d e0 0a 0c 3c 6c 98 a4 3c 9e ec c2 bc
       0.045627683 0.008547515 0.020092212 -0.023794468
000210 82 0a fa bc 54 4c 62 bd a4 10 86 3d ec 0d 93 3d
       -0.030522589 -0.055248573 0.06546143 0.0718039
000220 a8 ec 23 3c f4 76 a5 3d 20 bf 43 3d 95 39 9d bd
       0.010005154 0.08079329 0.047789693 -0.076769985
000230 c4 0a 74 bd 14 94 6f 3d 50 ef 7c bc 18 cb 2e 3c
       -0.05958058 0.058490828 -0.015437916 0.0106685385
000240 d4 87 18 3d 80 52 77 bb e8 14 b6 3c 40 06 ef bb
       0.03723891 -0.0037738383 0.022226766 -0.007294446
000250 14 ba 82 bd 00 96 c6 3a ea a1 89 3d ba 59 64 bd
       -0.06383148 0.0015150905 0.06720336 -0.055749632
000260 c7 1b a7 3d 17 5c 8d bd 04 c5 79 3c d2 43 bb 3c
       0.08159595 -0.0690233 0.015244726 0.022859488
000270 dc 0f 53 3d c1 06 82 3d 17 d4 84 3d ac 39 bb 39
       0.051528797 0.063489445 0.064857654 0.00035710388
000280 7a 91 52 bc ab dd 3d bd 8e 2d 12 bc cc 2c 82 3d
       -0.012852067 -0.046353977 -0.008921994 0.063562006
000290 0a 16 96 3d fb 5d f9 3d e4 66 ae bc a1 61 17 3e
       0.07328422 0.121761285 -0.021289296 0.14783336
0002a0 a9 f7 f8 3c ad b7 bb 3c f9 44 3a 3d c0 cf 9d 3b
       0.030391531 0.022914732 0.045475934 0.0048160255
0002b0 99 d1 a5 bc 9a 7e cb 3d 5a ec 44 bd 69 4e 75 3c
       -0.020241546 0.09936257 -0.048076965 0.014972308
0002c0 de 05 41 3c 44 92 85 bd 29 72 9d 3c d6 ab 78 3d
       0.011781184 -0.065220386 0.019219475 0.06071075
0002d0 e1 23 aa bb fd 03 2f bd d0 6e 4b bd e2 31 d1 3c
       -0.0051922654 -0.042728413 -0.049666226 0.025536481
0002e0 1e 85 ff bc 9c 8a 49 bb a6 fa 29 3d 0b 4e 3f bd
       -0.031191405 -0.0030752784 0.041498803 -0.046705287
0002f0 f4 72 03 3c a0 44 85 bd 3d a4 a3 3c b9 25 ad bd
       0.008023012 -0.0650723 0.019975776 -0.08454461
000300 11 46 f1 b9 2a 7e 65 bd fb 03 d2 3d a7 1f 40 bd
       -0.00046019306 -0.056028523 0.102546655 -0.046905186
000310 04 29 1a bd 05 57 91 3c eb 2d 19 bd 07 b7 7d bd
       -0.03763677 0.01774169 -0.037397306 -0.061942127
000320 87 38 d8 bc 28 e4 ab bd 39 4b 95 3d 20 ba 85 bb
       -0.026394142 -0.08393127 0.07289738 -0.0040810257
000330 50 d3 52 3d 06 a3 de 3d 9e 77 c0 3d 22 87 c7 3b
       0.051471055 0.10870938 0.09397815 0.006089107
000340 26 94 3f 3d 10 54 ad bc 53 b3 36 3d 44 1a 8e 3d
       0.046772145 -0.021158248 0.04460461 0.069386035
000350 4c ee 5a bd 85 4b 2b 3d a0 41 64 3d 78 12 1c bb
       -0.053449914 0.041820068 0.055726647 -0.002381472
000360 85 79 7e 3d 70 26 83 3d 69 2f 69 3d 43 19 c0 3d
       0.06212761 0.06403816 0.05692998 0.09379818
000370 b0 5d 85 3d 35 b7 01 3d b4 cd c3 bc b4 9c 6a ba
       0.0651201 0.03166886 -0.023901798 -0.0008949742
000380 b2 96 cd bd c6 de cc bd 82 81 6d bd 4c 55 9b bd
       -0.100385085 -0.10003428 -0.057984836 -0.075846285
000390 c2 c8 0f be cb 60 73 be 73 75 e8 3c cf e2 22 bd
       -0.14041427 -0.23767392 0.028376317 -0.039767083
0003a0 e9 82 83 ba 76 c3 f2 bc 28 07 b3 3c 13 0a 5c bd
       -0.0010033521 -0.029634219 0.021853998 -0.053720545
0003b0 14 07 a9 3d ea 60 8d 3d a6 af 80 3d 04 aa 1e bc
       0.08253303 0.069032505 0.06283502 -0.00968409
0003c0 3d 55 8f 3c 7d 3f ea bd 78 df 8f bd c6 b5 b6 3b
       0.0174967 -0.11437891 -0.07025045 0.0055758683
0003d0 c0 79 a7 3d 92 9d c6 3c c9 8f 1b 3b 02 51 20 bd
       0.08177519 0.024245057 0.0023736826 -0.039139755
0003e0 71 3c c8 bc 1a 8f 67 bd 34 11 a7 bc 67 b3 02 bd
       -0.024442883 -0.056532957 -0.020393945 -0.031909373
0003f0 81 df 82 3d fa 64 db 3b 3d 30 e3 bc 43 b6 61 bd
       0.06390286 0.006695387 -0.027732963 -0.05510546

linear1.bias f4 [25]
000000 8d 0f 90 bd 61 0d ca bd fd cd 0a 3c d2 89 a5 bd
       -0.07034216 -0.09865833 0.008471963 -0.08082928
000010 57 4c 05 3d 32 50 32 3d fa e8 1f bd f1 b5 b2 3d
       0.032543506 0.04353351 -0.039040543 0.08726109
000020 79 77 38 bd f6 0b 0f 3d 0c e9 1a bd f6 c0 af bc
       -0.045035813 0.034923516 -0.037819907 -0.021454316
000030 92 e1 28 3e 87 e9 e7 3c 23 8c 0e bb 48 f4 17 bd
       0.16492298 0.028309597 -0.0021751008 -0.0370982
000040 fd 91 8d bd b3 e2 19 be 5f c7 76 3e ba e4 83 bd
       -0.06912611 -0.15027885 0.24099492 -0.064401105
000050 4f 12 e3 bd c1 c4 02 bd e5 e7 0e be c8 72 57 3d
       -0.110874765 -0.03192592 -0.13955648 0.0525997
000060 bd 41 47 bd
       -0.048646677

linear2.weight f4 [25, 25]
000000 70 42 bd bd 0b bf 23 3e b4 1f ae bd 96 21 c9 3d
       -0.092411876 0.15990846 -0.08502141 0.09820859
000010 4a ca 3c be 3a e7 a4 bd 5b de 90 3d ed d5 7c 3e
       -0.18436542 -0.080519155 0.07073661 0.24690981
000020 fc 94 4d be e5 14 1b be e8 f4 11 bc 82 4f ca 3d
       -0.20076364 -0.1514469 -0.008908488 0.09878446
000030 10 5e 22 3e 05 9a 2c bc e4 07 26 3e f0 c8 c3 3c
       0.15856194 -0.010534768 0.16213948 0.023899525
000040 52 eb 50 3e 64 f4 82 3d 91 c3 11 bf 44 5c 5f 3d
       0.20402268 0.0639427 -0.56939036 0.05453135
000050 49 24 6c 3c ee e2 02 3d 91 54 62 3e d0 ea 8f bd
       0.014412948 0.0319547 0.22102572 -0.07027209
000060 e8 a5 bf bc 51 70 21 3e 66 84 20 be dd 00 4c bd
       -0.02339454 0.15765502 -0.15675506 -0.04980551
000070 f0 b2 f3 bd 6a fd c2 bd c0 e1 91 3c 7c 92 53 3d
       -0.11899364 -0.09520991 0.017807841 0.05165337
000080 80 e6 07 3e 9c b3 eb 3d 1d 83 ff bd 93 40 89 3d
       0.13271523 0.11508867 -0.1247618 0.0670177
000090 90 5b 9f bd 19 77 35 be e0 d7 16 3d 3e fc a4 bd
       -0.07781136 -0.17721213 0.03682697 -0.08055924
0000a0 b3 e4 0a be c0 a7 7a bd f8 85 6e bc 32 94 02 3e
       -0.13563804 -0.061195135 -0.014558308 0.12751845
0000b0 ba bb ea bd 09 31 38 3e 6e 89 0e 3e 8f 26 de bd
       -0.11461587 0.17987455 0.13919613 -0.10847198
0000c0 90 1c cf bc 80 0e 60 3c 54 69 3a 3d 70 58 f3 bc
       -0.025282174 0.013675332 0.045510605 -0.029705256
0000d0 4c 92 3f bd 86 be eb 3d 58 89 ec bc e0 5c 2b bd
       -0.04677038 0.11510949 -0.028874084 -0.04183662
0000e0 eb 7a 24 3e a5 37 29 be df c9 3e be 00 38 6b 3b
       0.16062514 -0.16525133 -0.18631695 0.0035891533
0000f0 f4 f3 77 3d 7d a9 af bd 6e e9 e6 3d 4a 9f 08 be
       0.060535386 -0.08577249 0.11274992 -0.13342014
000100 5a 32 e2 bd 1a ab a6 3d e3 09 3f 3e 70 a7 db 3c
       -0.1104476 0.08138104 0.18656115 0.026813239
000110 d8 0b c3 3c bb 38 01 3e 64 53 56 3d 90 e5 02 be
       0.023809358 0.12619297 0.05232562 -0.12782884
000120 6c 43 00 be 32 ca ff 3d bd 40 a6 bd 62 08 ee 3d
       -0.1252572 0.124897376 -0.081178166 0.11622693
000130 40 6e be bb 4c 1a 08 be 5c ef 52 3d 1a e5 24 be
       -0.0058114827 -0.13291281 0.051497802 -0.1610302
000140 72 d2 ea 3d 2a 20 ec 3d ba 70 39 be d3 21 31 be
       0.114659205 0.11529572 -0.18109408 -0.17298059
000150 cd 1c ff bd bf 7a 1e 3e 62 d1 8a 3d ac 38 51 bd
       -0.12456665 0.15476511 0.06778218 -0.051079437
000160 e0 3b 4c 3d ca dd f9 bd 0c 1f 0e bd b0 d7 ef 3c
       0.04986179 -0.12200506 -0.034697577 0.029277653
000170 a0 21 06 bd d0 d6 e2 bd 32 28 39 be d7 2b b6 bd
       -0.03274691 -0.110761285 -0.1808174 -0.088950805
000180 20 61 45 3c 63 2d 20 be b0 7f 1f 3c 88 d7 0c be
       0.012047082 -0.15642314 0.009735033 -0.13754094
000190 53 d2 f4 bd 86 39 ea bd d8 02 73 3e 81 e4 24 3e
       -0.11954179 -0.11436753 0.23731554 0.16102792
0001a0 72 2f 39 be be e3 8d 3d 57 c1 35 be 5e e7 5f bd
       -0.18084505 0.06928204 -0.17749535 -0.05466401
0001b0 c3 dc 5b 3e ec c5 02 be 39 d6 69 3e 18 76 b6 bc
       0.21470933 -0.12770814 0.22835626 -0.022273108
0001c0 fd 4b b2 3e 98 69 24 be 44 c0 26 be fb 2d c4 bc
       0.348236 -0.16055906 -0.16284281 -0.023947706
0001d0 bf 41 8f bd ce 31 42 bd 75 8e 0d be c2 95 3c be
       -0.06994962 -0.04741078 -0.13823874 -0.18416503
0001e0 6e 0e 04 bd 03 65 98 bd f0 5c 10 3e f0 37 16 be
       -0.032240324 -0.074411415 0.14097953 -0.14669776
0001f0 b0 b3 a7 bd 22 61 f4 3d eb b4 24 3e a8 36 d6 bd
       -0.081885695 0.11932589 0.1608464 -0.104596436
000200 a3 ec 20 be 80 fb 12 bd 60 f9 24 bd 38 87 3b bd
       -0.1571527 -0.03588438 -0.040276885 -0.04578325
000210 b0 69 87 bd 4d ce 17 be 1e ca da 3d a3 1e 67 3d
       -0.06611955 -0.14824791 0.10683082 0.0564257
000220 97 33 3e be 1b 03 36 be 02 ba 86 3d e8 3f 12 bd
       -0.18574367 -0.17774622 0.06578447 -0.035705477
000230 12 8a f2 3d 07 ad a0 bd aa c5 19 3d 26 9d 1f bd
       0.11842741 -0.07845502 0.037542023 -0.038968228
000240 d0 15 96 bd 2a fa f0 bd f6 f7 82 3d fa 54 1a 3e
       -0.07328379 -0.11766465 0.06394951 0.15071478
000250 48 04 24 3d 12 fb 44 be 54 a7 2e bd 3f a8 d6 bc
       0.040043145 -0.192364 -0.042640045 -0.026203273
000260 36 1c 26 3e 26 67 88 3d c6 42 31 3e a4 27 01 3e
       0.16221699 0.06660299 0.17310628 0.12612778
000270 d4 dd 17 be 75 fd 2a bd 79 cb 5e be ea 5e df bd
       -0.14830714 -0.04174562 -0.21757306 -0.10906775
000280 cd 74 3e bd e7 a1 b0 bd ee 82 d3 3d fb 9c af bc
       -0.04649811 -0.086246304 0.10327707 -0.021437159
000290 cf be 3f be 80 0a 68 bd 55 15 c5 ba c2 d9 37 be
       -0.18725131 -0.05665064 -0.0015036265 -0.17954162
0002a0 1b 56 6b bd f6 51 9c 3d 44 d0 eb 3d 62 95 19 3e
       -0.057455163 0.0763282 0.11514333 0.14998391
0002b0 36 c8 17 3e 57 f3 2f 3e 70 a0 46 be d3 59 2f be
       0.14822468 0.1718267 -0.1939714 -0.17124109
0002c0 1a 97 16 be fa bd be 3d cd f9 2f 3e 32 fc dd 3d
       -0.14706078 0.09313579 0.17185135 0.10839118
0002d0 bb 83 bb bd 52 7d d9 bb 45 ba 9a 3e 1a 2d 16 3e
       -0.09155985 -0.006637254 0.30220237 0.14665642
0002e0 98 d7 49 bd bb 83 ea 3d 01 22 34 3e 58 94 e7 3e
       -0.04927787 0.11450907 0.17591096 0.45230365
0002f0 53 df f2 3d bf 17 b4 bd f6 eb 79 be 1c f9 82 bd
       0.11859002 -0.08793592 -0.24406418 -0.0639517
000300 a1 56 06 3e aa 5b 24 bf 70 a5 a1 bc 4a f9 7d 3e
       0.13118984 -0.6420237 -0.019732207 0.24802127
000310 a5 07 c0 bd ed 5a d5 3c 1d 0a 04 3e b0 0c 96 bc
       -0.09376458 0.026044333 0.12894483 -0.018316597
000320 7d 4f 1b be 4f 37 23 3e aa 75 49 3e fc 21 5f 3d
       -0.15167041 0.15939067 0.19673792 0.05447577
000330 2b 2c 03 bc b1 24 29 be d3 f2 ee 3d 18 ec 9b 3e
       -0.008006136 -0.16517903 0.11667409 0.30453563
000340 10 9c ec bd 77 83 17 3e 2b 29 0e 3e e9 22 1d 3e
       -0.11553204 0.14796244 0.13882892 0.15345348
000350 8d b8 5b 3e bc ee 89 bd a0 29 0c 3d e2 60 81 bd
       0.2145712 -0.06734988 0.034219384 -0.06317307
000360 dd c7 3e be 69 f5 df bc 6f ef 03 bf 95 29 04 be
       -0.1863093 -0.0273387 -0.5153722 -0.12906487
000370 3c 32 8b 3e ab ef ca bd 61 cb 8b 3d e0 63 08 bc
       0.27186763 -0.09908994 0.06825901 -0.008324593
000380 dc 48 50 3d 60 11 cf bd 3f 47 25 3e 76 19 1c 3d
       0.050850734 -0.10110736 0.1614046 0.03811022
000390 10 23 28 3e aa 90 43 be 20 ca 0f bc 7b ba 3a 3e
       0.16419625 -0.19098154 -0.008776218 0.18235199
0003a0 94 2e 04 3d c1 bd 3b be 9d 87 ea bd 1d ab 04 3d
       0.032270983 -0.18334104 -0.114516474 0.03238975
0003b0 d4 5a 4f 3d 3b ae 38 3e b2 f1 b2 3d 0a 84 23 3e
       0.05062373 0.18035214 0.08737506 0.15968338
0003c0 01 81 f4 bc 46 8b 34 3e ba 94 44 3e 75 2c d2 be
       -0.02984667 0.17631254 0.1919736 -0.41049543
0003d0 00 96 47 3c 24 d1 20 bd 11 3f 05 bd 02 bf e2 3c
       0.012181759 -0.039261952 -0.032530848 0.02767897
0003e0 8a 93 fd bd 00 18 1c 3c 9c 4a 5d 3d 68 33 95 bb
       -0.123816565 0.009527206 0.05402623 -0.0045532472
0003f0 d3 50 0f bd fa b8 9b bc b8 9d 10 be 99 7a 29 3e
       -0.03498919 -0.019009102 -0.14122665 0.16550674

linear2.bias f4 [25]
000000 0a 45 89 3d 53 72 37 bd 9e 01 20 be da 96 c2 bd
       0.06702621 -0.044786762 -0.15625617 -0.09501429
000010 60 b5 03 be b1 6b 28 be d2 d7 ee bd 13 ae 36 bd
       -0.12862158 -0.16447331 -0.11662258 -0.044599604
000020 24 9f f6 3c 88 0e 85 3d e6 ee 38 3c 2d 6f f6 3d
       0.030105181 0.06496912 0.011287427 0.12032924
000030 49 41 07 be db d7 88 3d 20 a5 29 3c 78 49 5c bd
       -0.13208498 0.06681796 0.01035431 -0.053781003
000040 70 23 92 bd bb a7 bc bd 50 02 38 be bc 7d 82 bd
       -0.071356654 -0.092116795 -0.17969632 -0.06371638
000050 64 09 a4 3d 43 93 2b 3e 85 33 04 3e 84 eb 42 bd
       0.080096036 0.16755395 0.12910278 -0.047587886
000060 72 31 21 be
       -0.15741518

linear3.weight f4 [1, 25]
000000 41 11 0f 3e 8a 2f dd bc 62 1d 31 be 98 ff f0 3c
       0.13971426 -0.027000207 -0.17296365 0.029418752
000010 13 e5 59 3e c3 f4 36 be 0b 9d 35 be b1 a7 48 3e
       0.21278791 -0.17866807 -0.17735688 0.19595219
000020 63 44 83 3e cf 79 35 3e 51 bc 08 be 31 94 22 3e
       0.25638112 0.17722248 -0.13353087 0.15876843
000030 9c ce 92 ba bc aa 3d be d0 25 7c bc b0 7e da bc
       -0.001120049 -0.18522161 -0.015389875 -0.026671737
000040 ab ff 30 3e 24 49 0e bd c8 cd 23 be 83 4b c0 bd
       0.1728503 -0.03473772 -0.15996468 -0.09389403
000050 9b 4f 16 3e be 20 4b 3e 58 7e c9 3c 35 e9 50 3d
       0.14678805 0.19836709 0.024596378 0.051003654
000060 00 5e 15 bd
       -0.0364666
