model_stop_loss_cpu.pth (torch, 20151 bytes, 5 tensors)

linear1.weight f4 [25, 151]
0.031461097 0.0308049 0.016465327 -0.023058668 0.040939648 0.028980158 0.013735594 -0.005944855
-0.045065608 -0.07931787 0.06727866 -0.010487305 0.018312152 0.070984155 0.046377957 0.0051401453
-0.06781926 0.04760349 -0.047322657 0.06743649 0.04179892 0.0014291377 -0.07981592 -0.035105024
0.025191247 -0.060882505 0.04127164 -0.012855895 0.058634616 -0.030225651 0.04681343 0.030693687
0.009714714 0.034730997 -0.0366042 -0.08605951 0.006042817 -0.08537488 0.0077866036 -0.064291656
-0.033090636 0.050649207 -0.048979566 0.036220357 0.021227067 0.0382564 0.04732167 -0.010688618
-0.017417759 0.010724527 0.0097056255 -0.055640336 -0.027354883 0.013158992 0.016497629 0.05863995
-0.017828807 0.008201035 -0.06377864 0.012901436 0.0077967574 -0.026265407 -0.055599075 0.019932734
-0.00036070496 0.031587236 -0.04762845 0.06919339 -0.06950923 -0.073302574 -0.0030403107 0.035971485
-0.0265501 -0.070994504 -0.086432666 -0.029222218 0.023020582 -0.06525752 -0.04283383 0.014451389
0.05227896 -0.048950955 -0.017837 -0.051330004 -0.06318414 0.012988825 -0.04468558 0.0018332383
0.07014303 -0.025722576 -0.04573484 -0.07738133 0.026699338 -0.086781554 -0.08120853 0.040354323
-0.06275856 -0.0684672 -0.027649548 0.019524563 -0.00847822 0.0021955727 -0.078687385 -0.038264118
0.070367865 0.059866045 -0.03842714 -0.0057555935 0.07162404 -0.058698572 -0.00639546 0.03972684
-0.035995163 0.069274455 -0.07611894 -0.050805755 0.014084933 0.050361164 -0.020135628 -0.05031037
-0.04389486 -0.053485215 0.060369883 0.020732658 0.012780307 0.0069125756 0.012434624 0.027264226
-0.05840281 -0.07584919 0.015133273 0.044791427 -0.05039665 0.02424112 0.015651295 -0.07344888
-0.039854594 0.018974168 -0.07458274 -0.07682299 0.02472225 -0.032557297 -0.011199004 -0.0075162062
-0.03329483 0.062280916 -0.0730649 -0.07226185 0.0687043 0.011588936 -0.05412216 0.13097528
0.07578562 0.21540909 0.08603421 0.090255275 0.053315803 0.05549487 0.1271386 0.010763072
0.18079889 0.17865598 0.078381374 -0.023517884 0.10088638 -0.10559137 -0.023063296 -0.06764941
-0.016543018 -0.09229712 0.037160203 0.009275736 0.08008407 -0.005621364 0.024185603 -0.08263417
0.0016669731 0.029730977 -0.05246024 -0.043264285 0.056706358 0.00117645 -0.08232111 -0.10608022
-0.16372678 -0.04763983 0.094310574 0.021377606 0.036902163 0.0017012056 -0.010844668 0.11314869
0.007071345 0.07961743 0.081629194 0.028639192 0.123599954 0.075763434 0.11226096 0.013502035
-0.022334967 0.101182505 0.120867714 0.18611401 -0.024285572 -0.025591787 0.10138659 0.038402744
0.034810912 0.0091147665 -0.002442344 0.09184188 0.15723613 0.020642163 0.023927538 0.06294451
-0.06258931 0.09422757 0.09659136 0.015977472 -0.017859885 -0.082249545 -0.035887208 -0.031556424
0.08117385 -0.10072536 -0.00012551402 -0.07001495 -0.06362695 0.104435295 -0.09416489 -0.12427542
-0.005236398 -0.0047714035 -0.10666203 -0.118541315 0.0641569 -0.069336504 0.03525593 0.07434497
0.05133155 0.13033597 0.106153764 0.013919641 -0.06720771 -0.028824866 0.09507604 -0.01237076
0.105698235 -0.05337728 -0.035280786 0.056144647 0.07766128 -0.02134122 -0.03551103 0.02145104
00000000: 5add 003d 8f5a fc3c 4be2 863c 88e5 bcbc
00000010: 55b0 273d cc67 ed3c 420b 613c 0fcd c2bb
00000020: b796 38bd 6871 a2bd 65c9 893d f2d2 2bbc
00000030: 5e03 963c 2460 913d d0f6 3d3d aa6e a83b
00000040: d3e4 8abd e1fb 423d 67d5 41bd 241c 8a3d
00000050: 5835 2b3d e751 bb3a 8776 a3bd 49ca 0fbd
00000060: e05d ce3c ef5f 79bd 740c 293d 88a1 52bc
00000070: da2a 703d c99b f7bc 70bf 3f3d 5471 fb3c
00000080: 772a 1f3c 1742 0e3d 49ee 15bd f83f b0bd
00000090: d302 c63b 06d9 aebd c426 ff3b 58ab 83bd
000000a0: 0c8a 07bd 8b75 4f3d cc9e 48bd cc5b 143d
000000b0: 63e4 ad3c beb2 1c3d 5ed4 413d 501f 2fbc
000000c0: b0af 8ebc edb5 2f3c 5804 1f3c 1fe7 63bd
000000d0: 5917 e0bc d098 573c 0926 873c 7230 703d
000000e0: b80d 92bc a25d 063c 609e 82bd 8b60 533c
000000f0: f17b ff3b 8d2a d7bc dbbb 63bd f949 a33c
00000100: 001d bdb9 9e61 013d 0d16 43bd 44b5 8d3d
00000110: db5a 8ebd a91f 96bd f33f 47bb d656 133d
00000120: 987f d9bc 9165 91bd 9c03 b1bd 6f63 efbc
00000130: a995 bc3c bca5 85bd 8772 2fbd 85c5 6c3c
00000140: 7622 563d cc80 48bd e61e 92bc 693f 52bd
00000150: b066 81bd 15cf 543c 3a08 37bd 4549 f03a
00000160: 26a7 8f3d 27b8 d2bc 7554 3bbd 1a7a 9ebd
00000170: 92b8 da3c 87ba b1bd a850 a6bd 934a 253d
00000180: 8f87 80bd 8838 8cbd 4e81 e2bc faf1 9f3c
00000190: 3be8 0abc 99e3 0f3b da26 a1bd d6ba 1cbd
000001a0: 071d 903d 1936 753d c765 1dbd 6b99 bcbb
000001b0: a0af 923d ea6d 70bd 0291 d1bb 9cb8 223d
000001c0: aa6f 13bd c4df 8d3d 3fe4 9bbd b219 50bd
000001d0: 7ec4 663c 8247 4e3d 79f3 a4bc 3f12 4ebd
000001e0: 19cb 33bd 5013 5bbd 6946 773d 89d7 a93c
000001f0: 7e64 513c e382 e23b 98ba 4b3c 3a59 df3c
00000200: c937 6fbd d256 9bbd 8cf1 773c 3777 373d
00000210: b86c 4ebd 5095 c63c 2537 803c 5e6c 96bd
00000220: 923e 23bd b76f 9b3c d6be 98bd 5f55 9dbd
00000230: 5186 ca3c cd5a 05bd 077c 37bc 824a f6bb
00000240: 2960 08bd 461a 7f3d 0da3 95bd 05fe 93bd
00000250: d7b4 8c3d 85df 3d3c 33af 5dbd 621e 063e
00000260: 7e35 9b3d 3394 5c3e b432 b03d c2d7 b83d
00000270: ac61 5a3d 974e 633d 9f30 023e 9957 303c
00000280: 5823 393e 98f1 363e 6a86 a03d 94a8 c0bc
00000290: 859d ce3d 4a40 d8bd 3def bcbc c68b 8abd
000002a0: 3985 87bc 4606 bdbd 4c35 183d 42f9 173c
000002b0: 1e03 a43d 6b33 b8bb e320 c63c 1b3c a9bd
000002c0: 567e da3a 618e f33c 8ce0 56bd e435 31bd
000002d0: ed44 683d 1d33 9a3a f897 a8bd 9640 d9bd
000002e0: fea7 27be fb21 43bd e725 c13d 1720 af3c
000002f0: b926 173d fdfa de3a d6ad 31bc 80ba e73d
00000300: beb6 e73b 770e a33d 352d a73d bd9c ea3c
00000310: f921 fd3d dc29 9b3d 13e9 e53d a437 5d3c
00000320: d2f7 b6bc c638 cf3d 7e89 f73d ac94 3e3e
00000330: 89f2 c6bc dea5 d1bc c6a3 cf3d 324c 1d3d
00000340: e395 0e3d 1a56 153c bc0f 20bb 9817 bc3d
00000350: 8202 213e c119 a93c af03 c43c 0de9 803d
00000360: d32e 80bd 62fa c03d b1d1 c53d 30e3 823c
00000370: e54e 92bc 7372 a8bd 77fe 12bd 4f41 01bd
00000380: 7a3e a63d 1949 cebd 6a9c 03b9 0064 8fbd
00000390: d94e 82bd 2ce2 d53d 86d9 c0bd 1d84 febd
000003a0: 1796 abbb 6f59 9cbb 9f71 dabd cac5 f2bd
000003b0: b164 833d 4c00 8ebd 8668 103d 2d42 983d
000003c0: 0841 523d cb76 053e 2567 d93d 350f 643c
000003d0: 32a4 89bd 2022 ecbc 3ab7 c23d baae 4abc
000003e0: 5178 d83d 22a2 5abd 9682 10bd eef7 653d
000003f0: e10c 9f3d c8d3 aebc 0474 11bd 17ba af3c

linear1.bias f4 [25]
0.015015563 0.026278634 0.024382962 -0.013406932 0.15129001 -0.03383278 0.036254592 -0.001727514
0.077465944 0.12126895 -0.048602555 -0.0738062 0.03303584 0.058604952 -0.0070254514 0.08692731
-0.078948535 -0.058828212 -0.07437606 0.025829405 -0.036394943 -0.06440702 0.16757323 -0.067254536
-0.026764715
00000000: d603 763c 4a46 d73c c7be c73c c0a8 5bbc
00000010: c5eb 1a3e 3e94 0abd b27f 143d c06d e2ba
00000020: 77a6 9e3d db5b f83d 7913 47bd b427 97bd
00000030: 9750 073d bf0b 703d c235 e6bb f206 b23d
00000040: c5af a1bd daf5 70bd 7a52 98bd 3098 d33c
00000050: dd12 15bd d4e7 83bd 5198 2b3e bfbc 89bd
00000060: ad41 dbbc

linear2.weight f4 [25, 25]
-0.06421963 -0.19829606 -0.16367675 0.087742284 0.008242221 0.024043486 -0.10005707 -0.05926776
-0.18498352 -0.11897717 -0.1506069 0.07512717 -0.14481208 0.06325277 0.11439001 0.1507657
-0.02327757 0.18103947 0.10661949 -0.020963667 -0.11705494 0.14761144 -0.18698074 -0.06473665
-0.165912 0.048652664 -0.045843087 -0.116010845 -0.014041036 -0.08890325 -0.1509293 0.19975932
0.09155215 0.08172865 0.20085987 0.15664628 0.052414015 -0.15563801 0.028104058 0.124955766
-0.2392222 -0.06605233 -0.085194945 0.118081674 -0.06961418 0.1466659 0.16899502 0.06788944
0.12653469 0.2091508 0.077339366 -0.004963085 -0.19029146 0.14402454 -0.021818029 -0.003059432
0.09760527 0.003096342 0.0058312616 -0.22038296 -0.03209165 -0.18589993 0.039911635 0.07865348
-0.18225908 0.055847216 -0.20150992 -0.09011573 -0.061944485 0.06470464 0.14963493 0.1248203
-0.20796129 -0.19258925 0.13490437 -0.05838233 0.21652734 -0.052852932 -0.07654927 0.22345038
0.12995355 0.030960992 0.1268347 0.16273975 0.22190686 0.056624148 -0.098414354 -0.054523967
-0.043972753 0.1479536 -0.1855155 -0.025144188 0.13345543 0.13653146 0.11452941 -0.115207575
-0.17517853 -0.00089033454 -0.1587757 0.20019162 0.11045642 -0.43506908 0.011215046 0.1869799
0.11922841 -0.16406791 -0.18129312 -0.06363511 -0.21307309 0.17889002 0.14405505 0.14042915
0.13478912 -0.17807157 -0.3481757 0.06618912 -0.15606938 -0.18779631 0.051302448 0.07396181
-0.19198309 -0.19395009 0.19549958 -0.14776734 0.129992 -0.035099536 -0.22887877 0.096883126
-0.12809308 -0.16580316 0.1601292 -0.04337786 -0.18212585 -0.2578304 0.13277233 -0.07537688
0.05590482 0.06645935 -0.08559964 0.26687115 0.17779945 -0.14150086 -0.030283377 0.15462865
-0.11901039 0.06528539 0.16854897 0.24833356 -0.010121347 -0.092056565 0.020258114 -0.066662155
0.0048120893 0.03556618 -0.1867393 0.19861956 -0.14381112 -0.11148977 -0.041636333 0.028734772
-0.12955308 -0.07096383 -0.111830465 -0.08056824 -0.06855871 0.066061966 -0.19212817 -0.07995871
-0.16973057 0.08944151 -0.09243409 -0.1471877 -0.18312679 0.069240704 -0.031425066 -0.08387368
-0.1629041 0.13344662 -0.15793486 0.056847755 -0.15824299 0.0235445 -0.021457717 -0.018701287
-0.053062588 0.09155531 0.12851347 -0.025484907 0.06484103 0.17091481 -0.16592743 -0.1531225
-0.00032712214 -0.19093685 0.07597798 -0.12277614 -0.19291814 -0.048030395 0.102362625 -0.21419047
0.1426845 -0.0035626974 0.0022181936 -0.07259074 0.010949175 0.15650915 0.1415438 -0.049795195
0.13691072 -0.051896635 0.16555311 -0.17316794 -0.03361363 0.19912267 -0.17962787 0.06844748
0.08740238 -0.049345683 -0.10662806 -0.03791269 -0.1467079 0.054528993 0.084759206 0.14882413
0.10510491 0.13306053 -0.33173513 0.1106449 -0.10028543 0.1982299 0.1704957 -0.094143964
0.077937946 0.04610971 0.036754824 -0.14488883 0.10031752 -0.017903198 0.014216822 -0.102884606
0.18730605 -0.034771357 0.1679319 -0.1471183 0.04998039 0.10945713 0.022184268 0.07130395
-0.0797243 -0.23316616 -0.06422895 0.10357267 -0.011617939 0.007474616 0.22349638 -0.18086849
00000000: 9585 83bd 1f0e 4bbe e19a 27be 3ab2 b33d
00000010: 610a 073c d8f6 c43c b9ea ccbd c0c2 72bd
00000020: 526c 3dbe 4daa f3bd b238 1abe 46dc 993d
00000030: 9e49 14be ab8a 813d 4f45 ea3d 5362 1a3e
00000040: 9ab0 bebc 6962 393e 525b da3d ffbb abbc
00000050: 80ba efbd 7427 173e e177 3fbe a694 84bd
00000060: d6e4 29be 0448 473d f6c5 3bbd 1897 edbd
00000070: 600c 66bc e812 b6bd 368d 1abe b58d 4c3e
00000080: b27f bb3d 5a61 a73d 36ae 4d3e e267 203e
00000090: 14b0 563d 925f 1fbe 7b3a e63c cfe8 ff3d
000000a0: aaf6 74be 7246 87bd b07a aebd ced4 f13d
000000b0: e191 8ebd 962f 163e 080d 2d3e 9e09 8b3d
000000c0: 4f92 013e a12b 563e 1a64 9e3d 60a1 a2bb
000000d0: c4db 42be 2b7b 133e b9bb b2bc c080 48bb
000000e0: 46e5 c73d 00ec 4a3b 2b14 bf3b 12ac 61be
000000f0: 8972 03bd 8d5c 3ebe 627a 233d 1315 a13d
00000100: 20a2 3abe 0dc0 643d 9e58 4ebe 998e b8bd
00000110: 80b9 7dbd de83 843d e639 193e c9a1 ff3d
00000120: cef3 54be 1e36 45be 5f24 0a3e 4f22 6fbd
00000130: 58b9 5d3e 517c 58bd ddc5 9cbd 2dd0 643e
00000140: 8b12 053e e8a1 fd3c f5e0 013e 40a5 263e
00000150: 8d3b 633e b9ee 673d 778d c9bd 8654 5fbd
00000160: c61c 34bd 2681 173e c6f7 3dbe 2ffb cdbc
00000170: 8aa8 083e e7ce 0b3e 658e ea3d f3f1 ebbd
00000180: 0062 33be 5765 69ba 1996 22be 08ff 4c3e
00000190: fa36 e23d 60c1 debe 50bf 373c a977 3f3e
000001a0: 062e f43d 6b01 28be e7a4 39be 2053 82bd
000001b0: d52f 5abe f22e 373e 2b83 133e a9cc 0f3e
000001c0: 2906 0a3e 6558 36be 1644 b2be 298e 873d
000001d0: a7d0 1fbe ad4d 40be 8422 523d 4a79 973d
000001e0: 3797 44be da9a 46be 0b31 483e 5250 17be
000001f0: 9f1c 053e 88c4 0fbd 325f 6abe a96a c63d
00000200: d52a 03be 4ec8 29be e9f8 233e fcac 31bd
00000210: 337f 3abe 5902 84be 78f5 073e 325f 9abd
00000220: 74fc 643d d71b 883d dd4e afbd 56a3 883e
00000230: 0f11 363e 9ae5 10be d814 f8bc f956 1e3e
00000240: b8bb f3bd 59b4 853d 1a98 2c3e 274b 7e3e
00000250: 02d4 25bc 2788 bcbd 58f4 a53c 2b86 88bd
00000260: bbae 9d3b d8ad 113d 9638 3fbe ed62 4b3e
00000270: 3943 13be c054 e4bd dc8a 2abd 2f65 eb3c
00000280: 90a9 04be 7c55 91bd 5f07 e5bd f600 a5bd
00000290: 8268 8cbd 7f4b 873d 3fbd 44be 64c1 a3bd
000002a0: dacd 2dbe 1c2d b73d 164e bdbd 5fb8 16be
000002b0: 9785 3bbe 12ce 8d3d 92b7 00bd f7c5 abbd
000002c0: 55d0 26be 3ba6 083e adb9 21be 31d9 683d
000002d0: 730a 22be 65e0 c03c 18c8 afbc 7133 99bc
000002e0: 2858 59bd 5a81 bb3d 0999 033e b9c5 d0bc
000002f0: 60cb 843d 4b04 2f3e e1e8 29be 25cc 1cbe
00000300: 9781 abb9 f384 43be 589a 9b3d 0f72 fbbd
00000310: 558c 45be 85bb 44bd 7fa3 d13d bf54 5bbe
00000320: e31b 123e 257c 69bb 1d5f 113b 74aa 94bd
00000330: 2b64 333c ef43 203e dcf0 103e 0cf6 4bbd
00000340: 5332 0c3e 9191 54bd c186 293e f052 31be
00000350: 72ae 09bd d0e6 4b3e 5ef0 37be 312e 8c3d
00000360: 0500 b33d b31e 4abd d05f dabd 564a 1bbd
00000370: 993a 16be cb59 5f3d 3c96 ad3d 5a65 183e
00000380: 3e41 d73d 0541 083e 30d9 a9be cb99 e23d
00000390: 7362 cdbd c7fc 4a3e 6d96 2e3e 8dce c0bd
000003a0: ee9d 9f3d 89dd 3c3d 3a8c 163d bd5d 14be
000003b0: 4673 cd3d baa9 92bc aced 683c 2ab5 d2bd
000003c0: 28cd 3f3e 696c 0ebd 57f6 2b3e 2ea6 16be
000003d0: 3db8 4c3d 0f2b e03d c8bb b53c ce07 923d
000003e0: 7e46 a3bd 1cc3 6ebe 788a 83bd e81d d43d
000003f0: 2b59 3ebc a0ed f43b 3cdc 643e 9735 39be

linear2.bias f4 [25]
0.14787577 -0.010507428 0.15697558 0.07266813 -0.030669449 0.18200774 0.1849101 0.13180505
0.23841545 -0.0072587775 -0.07475284 0.12499858 -0.14457846 -0.12173348 0.09606411 0.024907617
0.16574389 0.026831757 0.15677628 0.013594845 -0.17935294 0.1017791 0.2598335 -0.039538797
-0.15406874
00000000: bf6c 173e 5927 2cbc 35be 203e 07d3 943d
00000010: 7f3e fbbc 3d60 3a3e 1359 3d3e e7f7 063e
00000020: 2e23 743e 0adb edbb 0418 99bd 41ff ff3d
00000030: 600c 14be 674f f9bd 43bd c43d 0f0b cc3c
00000040: c4b8 293e 46ce db3c f689 203e eabc 5e3c
00000050: 4ca8 37be 9071 d03d e608 853e 6ff3 21bd
00000060: 32c4 1dbe

linear3.weight f4 [1, 25]
-0.046935365 0.120061986 -0.08583042 0.22522813 1.0541916 0.1620384 -0.01038589 -0.110152535
0.034270056 -0.46861604 0.23546128 0.098826684 0.16595043 -0.06753638 -0.16450478 -0.093944065
-0.49883497 -0.02352107 -0.15248129 0.11222973 -0.37135905 -0.07357804 0.2856226 -0.08077014
0.037091106
00000000: 4c3f 40bd 0fe3 f53d dcc7 afbd 34a2 663e
00000010: c0ef 863f 65ed 253e 9429 2abc a797 e1bd
00000020: c25e 0c3d 71ee efbe c31c 713e a565 ca3d
00000030: e9ee 293e 8350 8abd f173 28be bf65 c0bd
00000040: 4c67 ffbe 42af c0bc 0e24 1cbe b3d8 e53d
00000050: c622 bebe 15b0 96bd 203d 923e d16a a5bd
00000060: d8ec 173d
