model_stop_loss_cuda.pth (torch, 20223 bytes, 5 tensors)

linear1.weight f4 [25, 151]
00000000: c88e 1e3b 16bd 203d a440 74bc 21dc 6b3b
00000010: 16de 39bd 324e 873d 0e8e 83bd 7eac 51bd
00000020: 7008 e03a 4574 abbd 72c4 ca3a 9a3a 8cbd
00000030: 5732 c3bc e321 ef3c d29a 04bd 548f 7f3b
00000040: 39da 6fbb 0f4c 8fbd 8e84 3a3d aaeb 59bc
00000050: 527d 873c 4149 8a3d 0092 573c 510d d5bc
00000060: 726e d5bc c1e2 20bd 36ff 08bc 5517 903c
00000070: f6f4 95bd 62f0 703d daf3 b3bc aead 2a3d
00000080: 9404 8cbd d29d 7d3a 1c37 4e3c f450 afbd
00000090: 7727 13bd cffb 73bd 2abe 833a 2541 ebb9
000000a0: 4e0e e1bb 048f c73c ea4b 273d 1321 9dbd
000000b0: 8457 443d 4087 69bd 1da2 2a3d 84b6 3e3c
000000c0: 8940 a5bd 7637 f4bc 2318 3dbd 6cfb 17bd
000000d0: 29d3 81bd 01c6 2b3d 7b67 eebc e273 7ebd
000000e0: 510f 15bc 7c9d b1bd c244 883d f2a3 b3bd
000000f0: ccd8 77bd 2efd ab3c 2fc9 8b3d a2cf 26bd
00000100: 9975 c93c 62b0 b8ba 59b2 1ebd 1339 d7bc
00000110: 91e6 d6bc b79b 89bc fba5 93bd fb0c b3bd
00000120: 2b6c 9ebd 36be 29bd 5d46 043c 1b2a 1a3d
00000130: 06d1 5e3c 01e0 2fbd ec41 b6bd 9ac0 8cbd
00000140: 0f47 8bbc 4ac6 b7bd 1fa7 62bc c7bb 8d3c
00000150: aeb2 5bbb bcbc 1b3d 4faf 213a ec9f 483d
00000160: 10e2 103d a0cc 78bd e17d 3a3d 88cb 863c
00000170: aa30 723d 4f3a 513c 5c35 87bd ab16 f5bc
00000180: d054 4dbd 33cb e03c ef56 74bd dd3d 503d
00000190: 36ab 0dba c8e1 c73c a1c5 4bbc 6524 803c
000001a0: fde9 8a3d 2cb6 34bd a783 c73c e405 67bd
000001b0: 4f08 8c3d 4f21 88b9 740a febb 3b5e 5e3d
000001c0: 2bc3 663d 577e 91bc 89d5 cb3c 661b 163d
000001d0: b3a8 5b3d 06df 38bc 80f7 46bc 7d26 5e3d
000001e0: b59f 6b3d b9c9 88ba d0eb 66bc c6ef 64bc
000001f0: 8792 8b3c ebf3 4bbd d084 54bd fe00 1fbd
00000200: da25 3ebd 234e cc3c 79d3 5d3d c14c 4bbd
00000210: 2dcd 8a3d 4854 8d3c a51c bbbd 38e7 283d
00000220: 11be 8bbd f28f 2bbd 6f66 62bd cf04 543c
00000230: 46b4 613d d78c 323d 1657 ac3b b937 6fbd
00000240: ede5 90bd 3ddc 89bd bb87 37bd 343a 8b3d
00000250: 5a17 b5bd 63f0 b2bd c46f 763d 567d 993d
00000260: 96db d73b ac32 0fbd ddbe 82bc 3fe7 6b3d
00000270: 0e44 4e3d 3600 883d 8fb7 183d 2fb0 94bd
00000280: 1224 863d 9859 25bc 3a3e 1b3d 5779 6fbd
00000290: 7677 12bd 6d83 483a ced7 ffbb 20d9 b2bb
000002a0: 6205 76bd 2eb9 2c3d e137 983b 8889 e23c
000002b0: f36a 013c f5cb 2a3d 49bd 183d 6643 7d3d
000002c0: 6e71 1cbd 7651 bb3d 82bc 98bc 9d51 8c3d
000002d0: 2d73 17bb 54d8 afbd f1a0 bcbc f785 8abd
000002e0: 1604 d33c 7ccb c9bd c93e 3fbd 29e9 3ebd
000002f0: 55ce 773c 07c3 be3d 86ca b53d 4496 fd3d
00000300: cc7e b53b ee0c a83d d5ba d6bc 67e4 35bd
00000310: daf8 a03d dad9 2e3d af66 bb3d c228 4bbc
00000320: af96 43bc 45ce ba3d a4db 46bc a718 d43d
00000330: 83c9 4e3d ed45 d13c ef50 1f3d 9519 5bbc
00000340: db09 8e3c 2436 4e3d d0b5 833d 19cc f33c
00000350: bd1e 353c 7c73 b9bd 9c6f 01bd f271 e03c
00000360: 0f1d afbc d7a9 6e3c ef09 29bd 66aa 94bd
00000370: 21ae 253d 4cc1 50bd 6755 5dbd a96b 553d
00000380: 2b5e c83d a432 cd3d 4ed9 9b3d 5fe8 813d
00000390: a8ab a73d a415 3d3b d2c9 a23c 2fb2 92bd
000003a0: 964c 20bd a696 5fbd 1690 e8bd 8617 5abd
000003b0: faf4 6ebc 3927 0b3d 9d9e a5bc 54ba c43d
000003c0: ff34 943d 0edf a33d 9f90 a73d 5e53 3cbd
000003d0: 667f 8b3c 875c 89ba bce3 753d c142 8d3c
000003e0: 0d72 cfbc 3a81 753d 39f3 563d 4200 60bc
000003f0: 77a9 8d3d b749 043d 57b6 53bd adda 6dbc
0.002419399 0.039242826 -0.01490799 0.0035989361 -0.045377813 0.066067114 -0.06423579 -0.051189892
0.0017092358 -0.08371786 0.0015469922 -0.06847115 -0.023827715 0.029190963 -0.03237421 0.0038995342
-0.0036598577 -0.06996929 0.04553657 -0.013300816 0.01653925 0.06752253 0.013157368 -0.026007326
-0.026053641 -0.03927875 -0.008361628 0.01758925 -0.07322113 0.058822997 -0.021966863 0.04166954
-0.06836811 0.0009674701 0.012586381 -0.085603625 -0.03592631 -0.059566315 0.001005118 -0.0004487123
-0.0068681603 0.024360187 0.04084388 -0.07672324 0.047935024 -0.05701375 0.04165851 0.011640195
-0.0806895 -0.029811602 -0.046165597 -0.03710501 -0.06339104 0.041936878 -0.029102078 -0.062122233
-0.00909789 -0.08672616 0.066537395 -0.087715045 -0.060509488 0.020994749 0.06825482 -0.040725358
0.024592208 -0.0014090652 -0.038744304 -0.026272332 -0.02623299 -0.016797883 -0.07209393 -0.0874271
-0.07735475 -0.041441165 0.008073417 0.03763781 0.01359964 -0.042938236 -0.08899292 -0.06872673
-0.017001657 -0.089733675 -0.01383379 0.017301453 -0.003352325 0.038021788 0.00061677856 0.04898064
0.03537184 -0.06074202 0.045530204 0.016454473 0.05912844 0.0127702495 -0.06601974 -0.029918035
-0.05012971 0.027440643 -0.05965322 0.050840247 -0.00054042356 0.024399653 -0.012437255 0.015642354
0.06782911 -0.044119045 0.024354769 -0.056402102 0.06837522 -0.00025964758 -0.007752711 0.054289084
0.05633847 -0.017760439 0.024882095 0.036647223 0.05362768 -0.011283642 -0.01214397 0.054235924
0.057525355 -0.0010436095 -0.014094308 -0.013973182 0.017037643 -0.049793165 -0.051884472 -0.038819306
-0.046422817 0.024939602 0.054156754 -0.049633745 0.067774154 0.017252102 -0.09136323 0.041236132
-0.06823362 -0.041885324 -0.05527347 0.0129406 0.055103563 0.043591347 0.005259405 -0.05840275
-0.07075105 -0.0673146 -0.044807177 0.06798211 -0.088423446 -0.087372564 0.06016518 0.07494609
0.006587456 -0.034960434 -0.015960151 0.05759358 0.05035787 0.06640665 0.03728443 -0.07260167
0.065498486 -0.010092162 0.03790114 -0.058465328 -0.035758458 0.00076489785 -0.0078077083 -0.005458012
-0.060063727 0.04216879 0.004645333 0.02765347 0.007899034 0.041698415 0.03728989 0.061831854
-0.038194112 0.09146397 -0.018644575 0.06851504 -0.0023109422 -0.08586183 -0.023025962 -0.06763833
0.025758784 -0.09853265 -0.046690736 -0.046609078 0.015124877 0.09314542 0.08876519 0.123821765
0.005538797 0.08205591 -0.026212135 -0.044407275 0.07859965 0.04268823 0.09150445 -0.012399854
-0.011937781 0.09121374 -0.012137327 0.103562646 0.050485145 0.025546039 0.038895544 -0.013372798
0.017338684 0.0503446 0.06431162 0.029760407 0.011054692 -0.0905523 -0.03160058 0.027398083
-0.02137616 0.01456686 -0.04126924 -0.072590634 0.040449265 -0.050965592 -0.054036524 0.052104626
0.09783586 0.100194246 0.07609807 0.063431494 0.08187038 0.002885201 0.019871626 -0.07162892
-0.039135538 -0.05458703 -0.11355607 -0.05324509 -0.014584774 0.033972953 -0.020217234 0.09605852
0.07236671 0.08001529 0.08181881 -0.045977943 0.017028522 -0.0010479846 0.060031638 0.017243745
-0.025322938 0.059937693 0.05247805 -0.0136719365 0.069170885 0.032296862 -0.051687565 -0.014517468

linear1.bias f4 [25]
00000000: 12a6 cdbb 6d2d a23d 8134 003d 93b6 9f3d
00000010: 1e3f a93d 0f22 7e3d fa63 58bd a8e4 073d
00000020: 456a c63c ba81 a6bd ff49 d33c cf0a 753d
00000030: 65ac 93bc b777 873c 0027 153c 9827 803c
00000040: b6a0 a53d 2afd 8f3c a457 6ebd 34f1 5f3d
00000050: acf2 96bd 5fa3 53bc 8194 143d 48ad 913d
00000060: e42d 913c
-0.0062759006 0.079188205 0.03130007 0.07798495 0.08263992 0.0620442 -0.05282972 0.033177048
0.024220595 -0.08130212 0.02579212 0.05982476 -0.01802654 0.016536577 0.009103537 0.01564388
0.08087294 0.017576773 -0.05818905 0.05467339 -0.07370505 -0.012917369 0.036274437 0.07113129
0.017722078

linear2.weight f4 [25, 25]
00000000: 8d41 59bc f365 02be bc4b edbd b1dc c63d
00000010: 92be 713e 335a a43d c602 d83d cd61 b63c
00000020: 6cf5 3c3d fe3a 06be 219c 92bd a715 0e3e
00000030: 3921 30bc b637 6d3d 9ece 7e3d 0b94 403e
00000040: 5672 663d 2d7a e2bd 3520 25be 83b6 d8bd
00000050: d885 1d3e df7c 2bbd ee81 2c3e fffb 86bc
00000060: b7bc ce3d 927a 8b3d d05a 513c f84d 3bbe
00000070: daf2 a1bd d591 20be 6675 db3d 2a24 93bd
00000080: 7fa4 033e a096 ccbd 58ce 12be 1da0 1a3e
00000090: 6a5b 8b3d 82d9 27be 00ca c4b9 b405 06be
000000a0: 9274 f73d 1ad3 ad3d b2d0 e23d 5eec e63d
000000b0: 1b9e 42be 03bb a5bd 3a02 29be 803d 61bb
000000c0: 5432 503d 0d2d 333e 72cf d03d 90a3 c3bc
000000d0: a801 133d 9756 b4bd 9ee5 24be c735 353e
000000e0: df5e 003e ba74 1abe 9d75 0dbe 12bc 43be
000000f0: 134d 9ebd 108d a43c 0057 96bd 68ef f73c
00000100: 0133 213e e091 50bc 20c4 3fbe 806a fabc
00000110: 8033 7fbc 58e9 82bc d783 d5bd 3888 1ebd
00000120: fdf3 35be 2d20 a2bd 50a1 8b3c c4cc f9bd
00000130: d5d5 593e 4e5b 073e 8e1e fdbb a077 5bba
00000140: 2518 23be 56e4 87bd ee96 3fbe 9e2a 19be
00000150: ab07 1e3e e722 0a3e c4ce 2f3c 7379 db3d
00000160: ae5c 633e 6561 a03d 16aa cf3d d9af 3dbc
00000170: 6717 aebd a25b f83d 0495 793d c30e 8fbd
00000180: 1ecb 503e 5182 ff3c d2f4 693d d276 573d
00000190: 26f1 b43c 4a2f 60be 3bf2 3a3e 9280 aa3e
000001a0: e075 90be 3beb d13d 96ea c33d ac08 0b3e
000001b0: 9ed3 8b3d 3a10 d0bd 0fb7 003e 4949 3dbe
000001c0: 5088 29be 5e7b 31bd d3b5 e43c 2a4d c4bd
000001d0: 8d4e 9f3d 7cbc 5cbc a819 253d 1bb6 1e3e
000001e0: 81c7 e1bd 345a 513e fc66 c73c ea44 d33d
000001f0: bd8d eabd 1c1b 24be 1e3a 473e f07d 433e
00000200: b5fa 6d3d 0e07 583e 5a7f 55be 08c7 39bd
00000210: 4da8 303d 152b a33d 00f6 21be c216 01be
00000220: a0a7 22bd 52f8 00be 2d63 e03d 6a94 f9bc
00000230: fe66 c13d 6c9b a93d c083 45bd 0389 0b3e
00000240: c544 1cbe ff05 26be 2adc 67be 5540 923d
00000250: 00cf a03c 18e5 343e 7c7b 0abe 6676 84bd
00000260: 7053 c3bc 6541 2bbe e279 8a3d 2804 b6bc
00000270: b00d 9d3c c21e 923d bd06 debd 9add de3d
00000280: 4387 dbbd 2d54 0ebe 540a 013d d8f3 3ebe
00000290: 6832 fc3c fd01 0b3e 12a3 c83d 3d30 41be
000002a0: 44b3 623d f0a9 8bbc ddaf cbbd 3382 debd
000002b0: c23d ae3d 59f2 4b3e 9bff 233e e6b4 43bd
000002c0: e5ff 5d3e 6aae 403e b330 c1bd 3cec 203e
000002d0: c78b 40be baaf c4bd 4d10 1c3e a804 323d
000002e0: bf90 49be 47ab 583d 324a 523e cad2 193e
000002f0: 30da 88bc 4c31 ecbd 764f 98bd b63d f33c
00000300: baf1 893d 4f81 473e 842e 603d 1ea7 cdbd
00000310: 6fc1 aa3d 0d7c 583d 4c24 373c 9e73 953c
00000320: 4051 1bbb d3d3 1b3d 38bb 223e 48a3 47bd
00000330: deb8 a03d de61 863d 4ceb 493d e013 4d3c
00000340: dccb ec3d c852 1b3d 9a65 01be de9b 4a3e
00000350: 3945 2c3d d807 803e d911 a2bd b6f0 17be
00000360: 0de8 653e 1012 103e 6071 473d 8770 47be
00000370: 4589 48be faba 41be 89ac 333e 1ed0 853d
00000380: ace6 7cbd bf31 a83d 9ddc 1a3e 1b97 243e
00000390: 342f 0cbd 7db5 24be d560 153e a0dc 13be
000003a0: 9946 323e 08ea 7a3c 036e 35be 0867 223e
000003b0: b0b7 aabd 2872 21be cadc f8bd 3c0e 25be
000003c0: d873 4dbd 21ad 153e 68d8 17be 8e6a d63d
000003d0: 37b2 debd 47a4 35be e5bf 32be d19c 9f3c
000003e0: adb3 cfbd 5a38 a5bd e81d 2abd a818 1fbd
000003f0: 8993 1d3e cc23 2abd 0d8e cdbd da03 d83d
-0.013260257 -0.12734203 -0.11586711 0.09710062 0.23607853 0.08025017 0.10547404 0.022263432
0.04613249 -0.13108441 -0.071586855 0.13875447 -0.010750108 0.05791446 0.062208764 0.18806474
0.056261383 -0.110584594 -0.16125567 -0.10581686 0.15383089 -0.041867133 0.16846439 -0.016477583
0.10094588 0.06810488 0.012777999 -0.18291461 -0.079076484 -0.1568063 0.10715751 -0.07184632
0.12855719 -0.09989667 -0.14336526 0.15100141 0.06804545 -0.16391566 -0.00037534535 -0.13088113
0.12082781 0.0848753 0.11074962 0.11275552 -0.19005625 -0.0809231 -0.16504756 -0.0034368932
0.050829247 0.17497654 0.10195817 -0.023881704 0.03589025 -0.08805578 -0.16103217 0.17696296
0.1253619 -0.1508359 -0.13814397 -0.19114712 -0.077295445 0.020086795 -0.07340813 0.030265525
0.15742113 -0.012730092 -0.1872716 -0.030568361 -0.015576243 -0.015980408 -0.10425537 -0.038704127
-0.17768855 -0.07916293 0.017044693 -0.12197259 0.21272977 0.13218424 -0.0077245897 -0.00083720125
-0.15927179 -0.066353485 -0.18709919 -0.14957663 0.15432613 0.13489877 0.010730449 0.10716524
0.22203323 0.078310765 0.10139863 -0.01157757 -0.085005574 0.121268526 0.060933128 -0.069852374
0.20389983 0.03119007 0.057118244 0.05260355 0.022087645 -0.2189304 0.18256466 0.33301216
-0.2821493 0.10249945 0.09566228 0.13577527 0.06827472 -0.10159345 0.12569831 -0.18484987
-0.16555905 -0.043330543 0.027918732 -0.095850304 0.07778654 -0.013472673 0.04030767 0.15499155
-0.110243805 0.20444566 0.024341099 0.10315879 -0.11452816 -0.16025966 0.19455764 0.1909101
0.05810042 0.21096441 -0.20849362 -0.045355827 0.043129254 0.079672016 -0.15816498 -0.12606338
-0.03971064 -0.12594727 0.10956416 -0.030466277 0.09443472 0.082815975 -0.04822135 0.13626485
-0.15260608 -0.16213225 -0.2264258 0.071411766 0.019629955 0.17665517 -0.13523668 -0.06467895
-0.023843497 -0.16724165 0.067615286 -0.022218779 0.019171566 0.07134773 -0.10841129 0.10882111
-0.107191585 -0.13899298 0.03150399 -0.18647707 0.030785754 0.13574977 0.09796728 -0.18866058
0.055346742 -0.017048806 -0.09945653 -0.10864677 0.08507873 0.19916667 0.16015474 -0.04777994
0.21679647 0.18816534 -0.09433117 0.15715116 -0.18803321 -0.0960383 0.15240593 0.04346147
-0.19684123 0.052897718 0.20536116 0.15021816 -0.016705602 -0.1153284 -0.07437031 0.029692512
0.06735559 0.19482921 0.05473186 -0.10041641 0.08337676 0.05285268 0.011178087 0.018243607
-0.0023699552 0.03804381 0.15891731 -0.0487397 0.078477606 0.065616354 0.049296662 0.012516946
0.115623206 0.037920743 -0.12636414 0.19786021 0.042058203 0.25005984 -0.079135604 -0.14837918
0.22451802 0.1406939 0.048692107 -0.1947652 -0.19583614 -0.18918982 0.17546286 0.06533836
-0.061743423 0.08212613 0.1512322 0.16073267 -0.034224704 -0.16084857 0.1458772 -0.1443963
0.17409743 0.015314586 -0.17717747 0.15859616 -0.08335817 -0.15766203 -0.12151487 -0.16118711
-0.050159305 0.14616825 -0.14828646 0.104695424 -0.108738355 -0.17738448 -0.17456014 0.019483956
-0.10141692 -0.08067389 -0.041532427 -0.038841873 0.15388311 -0.041538045 -0.1003686 0.105476096

linear2.bias f4 [25]
00000000: 37a6 613e c2de 24be 4370 1abe 23b0 04be
00000010: 3e85 6fbe 3ba9 dd3b a7dd e5bd 61ba 6b3c
00000020: 260b 17be 3b85 d33d bc33 643d 3226 1e3e
00000030: 9874 d83d 52b9 073d a089 013e 353c 05be
00000040: c042 dc3c 353f 093e 007a a63b eda0 f3bb
00000050: a7cf aa3d 5585 bb3b 56d1 fe3c 3408 1a3d
00000060: 5305 e239
0.22036062 -0.161006 -0.15081887 -0.12957816 -0.23390672 0.0067645586 -0.112239175 0.014387698
-0.14750347 0.10328146 0.0557134 0.15444258 0.105691135 0.03313572 0.12650156 -0.13011248
0.026887298 0.13403018 0.0050804615 -0.0074349553 0.08340388 0.0057226815 0.031105679 0.03760548
0.00043110046

linear3.weight f4 [1, 25]
00000000: 0a47 403d 12e7 48be 9047 c4bd 0e35 483e
00000010: c28e 89be ed2b 0dbe d84f 36bd fb3d ce3c
00000020: 5d13 27be 73be c83d a865 c13c f9c4 963e
00000030: 589a 6b3e baa6 8abd 2cea 2dbe 5ad2 80be
00000040: 462c 553d 4ba3 9ebd 7ed2 ce3d bf94 543e
00000050: 3b2f 3ebe 1f40 583e 000f 0b3e 5039 323e
00000060: 1777 053c
0.046942748 -0.19619396 -0.09583962 0.19551489 -0.26866728 -0.13786288 -0.04450974 0.025176039
-0.1631598 0.0980195 0.023608044 0.29447153 0.23008096 -0.06770082 -0.1698386 -0.25160486
0.052044176 -0.077459894 0.10098742 0.20759867 -0.18572704 0.2111821 0.13579941 0.17404675
0.008146069
